<?xml version="1.0" ?>
<net name="torch-jit-export" version="11">
	<layers>
		<layer id="0" name="image" type="Parameter" version="opset1">
			<data shape="1,3,704,704" element_type="f32"/>
			<rt_info>
				<attribute name="fused_names" version="0" value="image"/>
				<attribute name="old_api_map_element_type" version="0" value="f16"/>
			</rt_info>
			<output>
				<port id="0" precision="FP32" names="image">
					<dim>1</dim>
					<dim>3</dim>
					<dim>704</dim>
					<dim>704</dim>
					<rt_info>
						<attribute name="layout" version="0" layout="[N,C,H,W]"/>
					</rt_info>
				</port>
			</output>
		</layer>
		<layer id="1" name="Constant_7203_compressed" type="Const" version="opset1">
			<data element_type="f16" shape="" offset="0" size="2"/>
			<output>
				<port id="0" precision="FP16"/>
			</output>
		</layer>
		<layer id="2" name="Constant_7203" type="Convert" version="opset1">
			<data destination_type="f32"/>
			<rt_info>
				<attribute name="decompression" version="0"/>
				<attribute name="fused_names" version="0" value="Constant_7203"/>
			</rt_info>
			<input>
				<port id="0" precision="FP16"/>
			</input>
			<output>
				<port id="1" precision="FP32"/>
			</output>
		</layer>
		<layer id="3" name="Gather_71874_compressed" type="Const" version="opset1">
			<data element_type="f16" shape="32, 3, 3, 3" offset="2" size="1728"/>
			<output>
				<port id="0" precision="FP16">
					<dim>32</dim>
					<dim>3</dim>
					<dim>3</dim>
					<dim>3</dim>
				</port>
			</output>
		</layer>
		<layer id="4" name="Gather_71874" type="Convert" version="opset1">
			<data destination_type="f32"/>
			<rt_info>
				<attribute name="decompression" version="0"/>
			</rt_info>
			<input>
				<port id="0" precision="FP16">
					<dim>32</dim>
					<dim>3</dim>
					<dim>3</dim>
					<dim>3</dim>
				</port>
			</input>
			<output>
				<port id="1" precision="FP32">
					<dim>32</dim>
					<dim>3</dim>
					<dim>3</dim>
					<dim>3</dim>
				</port>
			</output>
		</layer>
		<layer id="5" name="Multiply_68175" type="Convolution" version="opset1">
			<data strides="2, 2" dilations="1, 1" pads_begin="1, 1" pads_end="1, 1" auto_pad="explicit"/>
			<rt_info>
				<attribute name="fused_names" version="0" value="364, 365, Constant_10583, Divide_10584, backbone.features.init_block.bn.bias, backbone.features.init_block.bn.running_mean, backbone.features.init_block.bn.running_var, backbone.features.init_block.bn.weight, backbone.features.init_block.conv.weight"/>
				<attribute name="preprocessing" version="0"/>
			</rt_info>
			<input>
				<port id="0" precision="FP32">
					<dim>1</dim>
					<dim>3</dim>
					<dim>704</dim>
					<dim>704</dim>
				</port>
				<port id="1" precision="FP32">
					<dim>32</dim>
					<dim>3</dim>
					<dim>3</dim>
					<dim>3</dim>
				</port>
			</input>
			<output>
				<port id="2" precision="FP32">
					<dim>1</dim>
					<dim>32</dim>
					<dim>352</dim>
					<dim>352</dim>
				</port>
			</output>
		</layer>
		<layer id="6" name="Constant_68180_compressed" type="Const" version="opset1">
			<data element_type="f16" shape="1, 32, 1, 1" offset="1730" size="64"/>
			<output>
				<port id="0" precision="FP16">
					<dim>1</dim>
					<dim>32</dim>
					<dim>1</dim>
					<dim>1</dim>
				</port>
			</output>
		</layer>
		<layer id="7" name="Constant_68180" type="Convert" version="opset1">
			<data destination_type="f32"/>
			<rt_info>
				<attribute name="decompression" version="0"/>
			</rt_info>
			<input>
				<port id="0" precision="FP16">
					<dim>1</dim>
					<dim>32</dim>
					<dim>1</dim>
					<dim>1</dim>
				</port>
			</input>
			<output>
				<port id="1" precision="FP32">
					<dim>1</dim>
					<dim>32</dim>
					<dim>1</dim>
					<dim>1</dim>
				</port>
			</output>
		</layer>
		<layer id="8" name="365" type="Add" version="opset1">
			<data auto_broadcast="numpy"/>
			<rt_info>
				<attribute name="fused_names" version="0" value="365, backbone.features.init_block.bn.bias, backbone.features.init_block.bn.running_mean, backbone.features.init_block.bn.running_var, backbone.features.init_block.bn.weight"/>
			</rt_info>
			<input>
				<port id="0" precision="FP32">
					<dim>1</dim>
					<dim>32</dim>
					<dim>352</dim>
					<dim>352</dim>
				</port>
				<port id="1" precision="FP32">
					<dim>1</dim>
					<dim>32</dim>
					<dim>1</dim>
					<dim>1</dim>
				</port>
			</input>
			<output>
				<port id="2" precision="FP32" names="365">
					<dim>1</dim>
					<dim>32</dim>
					<dim>352</dim>
					<dim>352</dim>
				</port>
			</output>
		</layer>
		<layer id="9" name="366" type="Clamp" version="opset1">
			<data min="0" max="6"/>
			<rt_info>
				<attribute name="fused_names" version="0" value="366"/>
			</rt_info>
			<input>
				<port id="0" precision="FP32">
					<dim>1</dim>
					<dim>32</dim>
					<dim>352</dim>
					<dim>352</dim>
				</port>
			</input>
			<output>
				<port id="1" precision="FP32" names="366">
					<dim>1</dim>
					<dim>32</dim>
					<dim>352</dim>
					<dim>352</dim>
				</port>
			</output>
		</layer>
		<layer id="10" name="Multiply_68581_compressed" type="Const" version="opset1">
			<data element_type="f16" shape="32, 32, 1, 1" offset="1794" size="2048"/>
			<output>
				<port id="0" precision="FP16">
					<dim>32</dim>
					<dim>32</dim>
					<dim>1</dim>
					<dim>1</dim>
				</port>
			</output>
		</layer>
		<layer id="11" name="Multiply_68581" type="Convert" version="opset1">
			<data destination_type="f32"/>
			<rt_info>
				<attribute name="decompression" version="0"/>
			</rt_info>
			<input>
				<port id="0" precision="FP16">
					<dim>32</dim>
					<dim>32</dim>
					<dim>1</dim>
					<dim>1</dim>
				</port>
			</input>
			<output>
				<port id="1" precision="FP32">
					<dim>32</dim>
					<dim>32</dim>
					<dim>1</dim>
					<dim>1</dim>
				</port>
			</output>
		</layer>
		<layer id="12" name="Multiply_68182" type="Convolution" version="opset1">
			<data strides="1, 1" dilations="1, 1" pads_begin="0, 0" pads_end="0, 0" auto_pad="explicit"/>
			<rt_info>
				<attribute name="fused_names" version="0" value="367, 368, backbone.features.stage1.unit1.conv1.bn.bias, backbone.features.stage1.unit1.conv1.bn.running_mean, backbone.features.stage1.unit1.conv1.bn.running_var, backbone.features.stage1.unit1.conv1.bn.weight"/>
			</rt_info>
			<input>
				<port id="0" precision="FP32">
					<dim>1</dim>
					<dim>32</dim>
					<dim>352</dim>
					<dim>352</dim>
				</port>
				<port id="1" precision="FP32">
					<dim>32</dim>
					<dim>32</dim>
					<dim>1</dim>
					<dim>1</dim>
				</port>
			</input>
			<output>
				<port id="2" precision="FP32">
					<dim>1</dim>
					<dim>32</dim>
					<dim>352</dim>
					<dim>352</dim>
				</port>
			</output>
		</layer>
		<layer id="13" name="Constant_68187_compressed" type="Const" version="opset1">
			<data element_type="f16" shape="1, 32, 1, 1" offset="3842" size="64"/>
			<output>
				<port id="0" precision="FP16">
					<dim>1</dim>
					<dim>32</dim>
					<dim>1</dim>
					<dim>1</dim>
				</port>
			</output>
		</layer>
		<layer id="14" name="Constant_68187" type="Convert" version="opset1">
			<data destination_type="f32"/>
			<rt_info>
				<attribute name="decompression" version="0"/>
			</rt_info>
			<input>
				<port id="0" precision="FP16">
					<dim>1</dim>
					<dim>32</dim>
					<dim>1</dim>
					<dim>1</dim>
				</port>
			</input>
			<output>
				<port id="1" precision="FP32">
					<dim>1</dim>
					<dim>32</dim>
					<dim>1</dim>
					<dim>1</dim>
				</port>
			</output>
		</layer>
		<layer id="15" name="368" type="Add" version="opset1">
			<data auto_broadcast="numpy"/>
			<rt_info>
				<attribute name="fused_names" version="0" value="368, backbone.features.stage1.unit1.conv1.bn.bias, backbone.features.stage1.unit1.conv1.bn.running_mean, backbone.features.stage1.unit1.conv1.bn.running_var, backbone.features.stage1.unit1.conv1.bn.weight"/>
			</rt_info>
			<input>
				<port id="0" precision="FP32">
					<dim>1</dim>
					<dim>32</dim>
					<dim>352</dim>
					<dim>352</dim>
				</port>
				<port id="1" precision="FP32">
					<dim>1</dim>
					<dim>32</dim>
					<dim>1</dim>
					<dim>1</dim>
				</port>
			</input>
			<output>
				<port id="2" precision="FP32" names="368">
					<dim>1</dim>
					<dim>32</dim>
					<dim>352</dim>
					<dim>352</dim>
				</port>
			</output>
		</layer>
		<layer id="16" name="369" type="Clamp" version="opset1">
			<data min="0" max="6"/>
			<rt_info>
				<attribute name="fused_names" version="0" value="369"/>
			</rt_info>
			<input>
				<port id="0" precision="FP32">
					<dim>1</dim>
					<dim>32</dim>
					<dim>352</dim>
					<dim>352</dim>
				</port>
			</input>
			<output>
				<port id="1" precision="FP32" names="369">
					<dim>1</dim>
					<dim>32</dim>
					<dim>352</dim>
					<dim>352</dim>
				</port>
			</output>
		</layer>
		<layer id="17" name="Multiply_68590_compressed" type="Const" version="opset1">
			<data element_type="f16" shape="32, 1, 1, 3, 3" offset="3906" size="576"/>
			<output>
				<port id="0" precision="FP16">
					<dim>32</dim>
					<dim>1</dim>
					<dim>1</dim>
					<dim>3</dim>
					<dim>3</dim>
				</port>
			</output>
		</layer>
		<layer id="18" name="Multiply_68590" type="Convert" version="opset1">
			<data destination_type="f32"/>
			<rt_info>
				<attribute name="decompression" version="0"/>
			</rt_info>
			<input>
				<port id="0" precision="FP16">
					<dim>32</dim>
					<dim>1</dim>
					<dim>1</dim>
					<dim>3</dim>
					<dim>3</dim>
				</port>
			</input>
			<output>
				<port id="1" precision="FP32">
					<dim>32</dim>
					<dim>1</dim>
					<dim>1</dim>
					<dim>3</dim>
					<dim>3</dim>
				</port>
			</output>
		</layer>
		<layer id="19" name="Multiply_68189" type="GroupConvolution" version="opset1">
			<data strides="1, 1" pads_begin="1, 1" pads_end="1, 1" dilations="1, 1" auto_pad="explicit"/>
			<rt_info>
				<attribute name="fused_names" version="0" value="371, backbone.features.stage1.unit1.conv2.bn.bias, backbone.features.stage1.unit1.conv2.bn.running_mean, backbone.features.stage1.unit1.conv2.bn.running_var, backbone.features.stage1.unit1.conv2.bn.weight"/>
			</rt_info>
			<input>
				<port id="0" precision="FP32">
					<dim>1</dim>
					<dim>32</dim>
					<dim>352</dim>
					<dim>352</dim>
				</port>
				<port id="1" precision="FP32">
					<dim>32</dim>
					<dim>1</dim>
					<dim>1</dim>
					<dim>3</dim>
					<dim>3</dim>
				</port>
			</input>
			<output>
				<port id="2" precision="FP32" names="370">
					<dim>1</dim>
					<dim>32</dim>
					<dim>352</dim>
					<dim>352</dim>
				</port>
			</output>
		</layer>
		<layer id="20" name="Constant_68194_compressed" type="Const" version="opset1">
			<data element_type="f16" shape="1, 32, 1, 1" offset="4482" size="64"/>
			<output>
				<port id="0" precision="FP16">
					<dim>1</dim>
					<dim>32</dim>
					<dim>1</dim>
					<dim>1</dim>
				</port>
			</output>
		</layer>
		<layer id="21" name="Constant_68194" type="Convert" version="opset1">
			<data destination_type="f32"/>
			<rt_info>
				<attribute name="decompression" version="0"/>
			</rt_info>
			<input>
				<port id="0" precision="FP16">
					<dim>1</dim>
					<dim>32</dim>
					<dim>1</dim>
					<dim>1</dim>
				</port>
			</input>
			<output>
				<port id="1" precision="FP32">
					<dim>1</dim>
					<dim>32</dim>
					<dim>1</dim>
					<dim>1</dim>
				</port>
			</output>
		</layer>
		<layer id="22" name="371" type="Add" version="opset1">
			<data auto_broadcast="numpy"/>
			<rt_info>
				<attribute name="fused_names" version="0" value="371, backbone.features.stage1.unit1.conv2.bn.bias, backbone.features.stage1.unit1.conv2.bn.running_mean, backbone.features.stage1.unit1.conv2.bn.running_var, backbone.features.stage1.unit1.conv2.bn.weight"/>
			</rt_info>
			<input>
				<port id="0" precision="FP32">
					<dim>1</dim>
					<dim>32</dim>
					<dim>352</dim>
					<dim>352</dim>
				</port>
				<port id="1" precision="FP32">
					<dim>1</dim>
					<dim>32</dim>
					<dim>1</dim>
					<dim>1</dim>
				</port>
			</input>
			<output>
				<port id="2" precision="FP32" names="371">
					<dim>1</dim>
					<dim>32</dim>
					<dim>352</dim>
					<dim>352</dim>
				</port>
			</output>
		</layer>
		<layer id="23" name="372" type="Clamp" version="opset1">
			<data min="0" max="6"/>
			<rt_info>
				<attribute name="fused_names" version="0" value="372"/>
			</rt_info>
			<input>
				<port id="0" precision="FP32">
					<dim>1</dim>
					<dim>32</dim>
					<dim>352</dim>
					<dim>352</dim>
				</port>
			</input>
			<output>
				<port id="1" precision="FP32" names="372">
					<dim>1</dim>
					<dim>32</dim>
					<dim>352</dim>
					<dim>352</dim>
				</port>
			</output>
		</layer>
		<layer id="24" name="Multiply_68598_compressed" type="Const" version="opset1">
			<data element_type="f16" shape="16, 32, 1, 1" offset="4546" size="1024"/>
			<output>
				<port id="0" precision="FP16">
					<dim>16</dim>
					<dim>32</dim>
					<dim>1</dim>
					<dim>1</dim>
				</port>
			</output>
		</layer>
		<layer id="25" name="Multiply_68598" type="Convert" version="opset1">
			<data destination_type="f32"/>
			<rt_info>
				<attribute name="decompression" version="0"/>
			</rt_info>
			<input>
				<port id="0" precision="FP16">
					<dim>16</dim>
					<dim>32</dim>
					<dim>1</dim>
					<dim>1</dim>
				</port>
			</input>
			<output>
				<port id="1" precision="FP32">
					<dim>16</dim>
					<dim>32</dim>
					<dim>1</dim>
					<dim>1</dim>
				</port>
			</output>
		</layer>
		<layer id="26" name="Multiply_68196" type="Convolution" version="opset1">
			<data strides="1, 1" dilations="1, 1" pads_begin="0, 0" pads_end="0, 0" auto_pad="explicit"/>
			<rt_info>
				<attribute name="fused_names" version="0" value="373, 374, backbone.features.stage1.unit1.conv3.bn.bias, backbone.features.stage1.unit1.conv3.bn.running_mean, backbone.features.stage1.unit1.conv3.bn.running_var, backbone.features.stage1.unit1.conv3.bn.weight"/>
			</rt_info>
			<input>
				<port id="0" precision="FP32">
					<dim>1</dim>
					<dim>32</dim>
					<dim>352</dim>
					<dim>352</dim>
				</port>
				<port id="1" precision="FP32">
					<dim>16</dim>
					<dim>32</dim>
					<dim>1</dim>
					<dim>1</dim>
				</port>
			</input>
			<output>
				<port id="2" precision="FP32">
					<dim>1</dim>
					<dim>16</dim>
					<dim>352</dim>
					<dim>352</dim>
				</port>
			</output>
		</layer>
		<layer id="27" name="Constant_68201_compressed" type="Const" version="opset1">
			<data element_type="f16" shape="1, 16, 1, 1" offset="5570" size="32"/>
			<output>
				<port id="0" precision="FP16">
					<dim>1</dim>
					<dim>16</dim>
					<dim>1</dim>
					<dim>1</dim>
				</port>
			</output>
		</layer>
		<layer id="28" name="Constant_68201" type="Convert" version="opset1">
			<data destination_type="f32"/>
			<rt_info>
				<attribute name="decompression" version="0"/>
			</rt_info>
			<input>
				<port id="0" precision="FP16">
					<dim>1</dim>
					<dim>16</dim>
					<dim>1</dim>
					<dim>1</dim>
				</port>
			</input>
			<output>
				<port id="1" precision="FP32">
					<dim>1</dim>
					<dim>16</dim>
					<dim>1</dim>
					<dim>1</dim>
				</port>
			</output>
		</layer>
		<layer id="29" name="374" type="Add" version="opset1">
			<data auto_broadcast="numpy"/>
			<rt_info>
				<attribute name="fused_names" version="0" value="374, backbone.features.stage1.unit1.conv3.bn.bias, backbone.features.stage1.unit1.conv3.bn.running_mean, backbone.features.stage1.unit1.conv3.bn.running_var, backbone.features.stage1.unit1.conv3.bn.weight"/>
			</rt_info>
			<input>
				<port id="0" precision="FP32">
					<dim>1</dim>
					<dim>16</dim>
					<dim>352</dim>
					<dim>352</dim>
				</port>
				<port id="1" precision="FP32">
					<dim>1</dim>
					<dim>16</dim>
					<dim>1</dim>
					<dim>1</dim>
				</port>
			</input>
			<output>
				<port id="2" precision="FP32" names="374">
					<dim>1</dim>
					<dim>16</dim>
					<dim>352</dim>
					<dim>352</dim>
				</port>
			</output>
		</layer>
		<layer id="30" name="Multiply_68607_compressed" type="Const" version="opset1">
			<data element_type="f16" shape="96, 16, 1, 1" offset="5602" size="3072"/>
			<output>
				<port id="0" precision="FP16">
					<dim>96</dim>
					<dim>16</dim>
					<dim>1</dim>
					<dim>1</dim>
				</port>
			</output>
		</layer>
		<layer id="31" name="Multiply_68607" type="Convert" version="opset1">
			<data destination_type="f32"/>
			<rt_info>
				<attribute name="decompression" version="0"/>
			</rt_info>
			<input>
				<port id="0" precision="FP16">
					<dim>96</dim>
					<dim>16</dim>
					<dim>1</dim>
					<dim>1</dim>
				</port>
			</input>
			<output>
				<port id="1" precision="FP32">
					<dim>96</dim>
					<dim>16</dim>
					<dim>1</dim>
					<dim>1</dim>
				</port>
			</output>
		</layer>
		<layer id="32" name="Multiply_68203" type="Convolution" version="opset1">
			<data strides="1, 1" dilations="1, 1" pads_begin="0, 0" pads_end="0, 0" auto_pad="explicit"/>
			<rt_info>
				<attribute name="fused_names" version="0" value="375, 376, backbone.features.stage2.unit1.conv1.bn.bias, backbone.features.stage2.unit1.conv1.bn.running_mean, backbone.features.stage2.unit1.conv1.bn.running_var, backbone.features.stage2.unit1.conv1.bn.weight"/>
			</rt_info>
			<input>
				<port id="0" precision="FP32">
					<dim>1</dim>
					<dim>16</dim>
					<dim>352</dim>
					<dim>352</dim>
				</port>
				<port id="1" precision="FP32">
					<dim>96</dim>
					<dim>16</dim>
					<dim>1</dim>
					<dim>1</dim>
				</port>
			</input>
			<output>
				<port id="2" precision="FP32">
					<dim>1</dim>
					<dim>96</dim>
					<dim>352</dim>
					<dim>352</dim>
				</port>
			</output>
		</layer>
		<layer id="33" name="Constant_68208_compressed" type="Const" version="opset1">
			<data element_type="f16" shape="1, 96, 1, 1" offset="8674" size="192"/>
			<output>
				<port id="0" precision="FP16">
					<dim>1</dim>
					<dim>96</dim>
					<dim>1</dim>
					<dim>1</dim>
				</port>
			</output>
		</layer>
		<layer id="34" name="Constant_68208" type="Convert" version="opset1">
			<data destination_type="f32"/>
			<rt_info>
				<attribute name="decompression" version="0"/>
			</rt_info>
			<input>
				<port id="0" precision="FP16">
					<dim>1</dim>
					<dim>96</dim>
					<dim>1</dim>
					<dim>1</dim>
				</port>
			</input>
			<output>
				<port id="1" precision="FP32">
					<dim>1</dim>
					<dim>96</dim>
					<dim>1</dim>
					<dim>1</dim>
				</port>
			</output>
		</layer>
		<layer id="35" name="376" type="Add" version="opset1">
			<data auto_broadcast="numpy"/>
			<rt_info>
				<attribute name="fused_names" version="0" value="376, backbone.features.stage2.unit1.conv1.bn.bias, backbone.features.stage2.unit1.conv1.bn.running_mean, backbone.features.stage2.unit1.conv1.bn.running_var, backbone.features.stage2.unit1.conv1.bn.weight"/>
			</rt_info>
			<input>
				<port id="0" precision="FP32">
					<dim>1</dim>
					<dim>96</dim>
					<dim>352</dim>
					<dim>352</dim>
				</port>
				<port id="1" precision="FP32">
					<dim>1</dim>
					<dim>96</dim>
					<dim>1</dim>
					<dim>1</dim>
				</port>
			</input>
			<output>
				<port id="2" precision="FP32" names="376">
					<dim>1</dim>
					<dim>96</dim>
					<dim>352</dim>
					<dim>352</dim>
				</port>
			</output>
		</layer>
		<layer id="36" name="377" type="Clamp" version="opset1">
			<data min="0" max="6"/>
			<rt_info>
				<attribute name="fused_names" version="0" value="377"/>
			</rt_info>
			<input>
				<port id="0" precision="FP32">
					<dim>1</dim>
					<dim>96</dim>
					<dim>352</dim>
					<dim>352</dim>
				</port>
			</input>
			<output>
				<port id="1" precision="FP32" names="377">
					<dim>1</dim>
					<dim>96</dim>
					<dim>352</dim>
					<dim>352</dim>
				</port>
			</output>
		</layer>
		<layer id="37" name="Multiply_68616_compressed" type="Const" version="opset1">
			<data element_type="f16" shape="96, 1, 1, 3, 3" offset="8866" size="1728"/>
			<output>
				<port id="0" precision="FP16">
					<dim>96</dim>
					<dim>1</dim>
					<dim>1</dim>
					<dim>3</dim>
					<dim>3</dim>
				</port>
			</output>
		</layer>
		<layer id="38" name="Multiply_68616" type="Convert" version="opset1">
			<data destination_type="f32"/>
			<rt_info>
				<attribute name="decompression" version="0"/>
			</rt_info>
			<input>
				<port id="0" precision="FP16">
					<dim>96</dim>
					<dim>1</dim>
					<dim>1</dim>
					<dim>3</dim>
					<dim>3</dim>
				</port>
			</input>
			<output>
				<port id="1" precision="FP32">
					<dim>96</dim>
					<dim>1</dim>
					<dim>1</dim>
					<dim>3</dim>
					<dim>3</dim>
				</port>
			</output>
		</layer>
		<layer id="39" name="Multiply_68210" type="GroupConvolution" version="opset1">
			<data strides="2, 2" pads_begin="1, 1" pads_end="1, 1" dilations="1, 1" auto_pad="explicit"/>
			<rt_info>
				<attribute name="fused_names" version="0" value="379, backbone.features.stage2.unit1.conv2.bn.bias, backbone.features.stage2.unit1.conv2.bn.running_mean, backbone.features.stage2.unit1.conv2.bn.running_var, backbone.features.stage2.unit1.conv2.bn.weight"/>
			</rt_info>
			<input>
				<port id="0" precision="FP32">
					<dim>1</dim>
					<dim>96</dim>
					<dim>352</dim>
					<dim>352</dim>
				</port>
				<port id="1" precision="FP32">
					<dim>96</dim>
					<dim>1</dim>
					<dim>1</dim>
					<dim>3</dim>
					<dim>3</dim>
				</port>
			</input>
			<output>
				<port id="2" precision="FP32" names="378">
					<dim>1</dim>
					<dim>96</dim>
					<dim>176</dim>
					<dim>176</dim>
				</port>
			</output>
		</layer>
		<layer id="40" name="Constant_68215_compressed" type="Const" version="opset1">
			<data element_type="f16" shape="1, 96, 1, 1" offset="10594" size="192"/>
			<output>
				<port id="0" precision="FP16">
					<dim>1</dim>
					<dim>96</dim>
					<dim>1</dim>
					<dim>1</dim>
				</port>
			</output>
		</layer>
		<layer id="41" name="Constant_68215" type="Convert" version="opset1">
			<data destination_type="f32"/>
			<rt_info>
				<attribute name="decompression" version="0"/>
			</rt_info>
			<input>
				<port id="0" precision="FP16">
					<dim>1</dim>
					<dim>96</dim>
					<dim>1</dim>
					<dim>1</dim>
				</port>
			</input>
			<output>
				<port id="1" precision="FP32">
					<dim>1</dim>
					<dim>96</dim>
					<dim>1</dim>
					<dim>1</dim>
				</port>
			</output>
		</layer>
		<layer id="42" name="379" type="Add" version="opset1">
			<data auto_broadcast="numpy"/>
			<rt_info>
				<attribute name="fused_names" version="0" value="379, backbone.features.stage2.unit1.conv2.bn.bias, backbone.features.stage2.unit1.conv2.bn.running_mean, backbone.features.stage2.unit1.conv2.bn.running_var, backbone.features.stage2.unit1.conv2.bn.weight"/>
			</rt_info>
			<input>
				<port id="0" precision="FP32">
					<dim>1</dim>
					<dim>96</dim>
					<dim>176</dim>
					<dim>176</dim>
				</port>
				<port id="1" precision="FP32">
					<dim>1</dim>
					<dim>96</dim>
					<dim>1</dim>
					<dim>1</dim>
				</port>
			</input>
			<output>
				<port id="2" precision="FP32" names="379">
					<dim>1</dim>
					<dim>96</dim>
					<dim>176</dim>
					<dim>176</dim>
				</port>
			</output>
		</layer>
		<layer id="43" name="380" type="Clamp" version="opset1">
			<data min="0" max="6"/>
			<rt_info>
				<attribute name="fused_names" version="0" value="380"/>
			</rt_info>
			<input>
				<port id="0" precision="FP32">
					<dim>1</dim>
					<dim>96</dim>
					<dim>176</dim>
					<dim>176</dim>
				</port>
			</input>
			<output>
				<port id="1" precision="FP32" names="380">
					<dim>1</dim>
					<dim>96</dim>
					<dim>176</dim>
					<dim>176</dim>
				</port>
			</output>
		</layer>
		<layer id="44" name="Multiply_68624_compressed" type="Const" version="opset1">
			<data element_type="f16" shape="24, 96, 1, 1" offset="10786" size="4608"/>
			<output>
				<port id="0" precision="FP16">
					<dim>24</dim>
					<dim>96</dim>
					<dim>1</dim>
					<dim>1</dim>
				</port>
			</output>
		</layer>
		<layer id="45" name="Multiply_68624" type="Convert" version="opset1">
			<data destination_type="f32"/>
			<rt_info>
				<attribute name="decompression" version="0"/>
			</rt_info>
			<input>
				<port id="0" precision="FP16">
					<dim>24</dim>
					<dim>96</dim>
					<dim>1</dim>
					<dim>1</dim>
				</port>
			</input>
			<output>
				<port id="1" precision="FP32">
					<dim>24</dim>
					<dim>96</dim>
					<dim>1</dim>
					<dim>1</dim>
				</port>
			</output>
		</layer>
		<layer id="46" name="Multiply_68217" type="Convolution" version="opset1">
			<data strides="1, 1" dilations="1, 1" pads_begin="0, 0" pads_end="0, 0" auto_pad="explicit"/>
			<rt_info>
				<attribute name="fused_names" version="0" value="381, 382, backbone.features.stage2.unit1.conv3.bn.bias, backbone.features.stage2.unit1.conv3.bn.running_mean, backbone.features.stage2.unit1.conv3.bn.running_var, backbone.features.stage2.unit1.conv3.bn.weight"/>
			</rt_info>
			<input>
				<port id="0" precision="FP32">
					<dim>1</dim>
					<dim>96</dim>
					<dim>176</dim>
					<dim>176</dim>
				</port>
				<port id="1" precision="FP32">
					<dim>24</dim>
					<dim>96</dim>
					<dim>1</dim>
					<dim>1</dim>
				</port>
			</input>
			<output>
				<port id="2" precision="FP32">
					<dim>1</dim>
					<dim>24</dim>
					<dim>176</dim>
					<dim>176</dim>
				</port>
			</output>
		</layer>
		<layer id="47" name="Constant_68222_compressed" type="Const" version="opset1">
			<data element_type="f16" shape="1, 24, 1, 1" offset="15394" size="48"/>
			<output>
				<port id="0" precision="FP16">
					<dim>1</dim>
					<dim>24</dim>
					<dim>1</dim>
					<dim>1</dim>
				</port>
			</output>
		</layer>
		<layer id="48" name="Constant_68222" type="Convert" version="opset1">
			<data destination_type="f32"/>
			<rt_info>
				<attribute name="decompression" version="0"/>
			</rt_info>
			<input>
				<port id="0" precision="FP16">
					<dim>1</dim>
					<dim>24</dim>
					<dim>1</dim>
					<dim>1</dim>
				</port>
			</input>
			<output>
				<port id="1" precision="FP32">
					<dim>1</dim>
					<dim>24</dim>
					<dim>1</dim>
					<dim>1</dim>
				</port>
			</output>
		</layer>
		<layer id="49" name="382" type="Add" version="opset1">
			<data auto_broadcast="numpy"/>
			<rt_info>
				<attribute name="fused_names" version="0" value="382, backbone.features.stage2.unit1.conv3.bn.bias, backbone.features.stage2.unit1.conv3.bn.running_mean, backbone.features.stage2.unit1.conv3.bn.running_var, backbone.features.stage2.unit1.conv3.bn.weight"/>
			</rt_info>
			<input>
				<port id="0" precision="FP32">
					<dim>1</dim>
					<dim>24</dim>
					<dim>176</dim>
					<dim>176</dim>
				</port>
				<port id="1" precision="FP32">
					<dim>1</dim>
					<dim>24</dim>
					<dim>1</dim>
					<dim>1</dim>
				</port>
			</input>
			<output>
				<port id="2" precision="FP32" names="382">
					<dim>1</dim>
					<dim>24</dim>
					<dim>176</dim>
					<dim>176</dim>
				</port>
			</output>
		</layer>
		<layer id="50" name="Multiply_68633_compressed" type="Const" version="opset1">
			<data element_type="f16" shape="144, 24, 1, 1" offset="15442" size="6912"/>
			<output>
				<port id="0" precision="FP16">
					<dim>144</dim>
					<dim>24</dim>
					<dim>1</dim>
					<dim>1</dim>
				</port>
			</output>
		</layer>
		<layer id="51" name="Multiply_68633" type="Convert" version="opset1">
			<data destination_type="f32"/>
			<rt_info>
				<attribute name="decompression" version="0"/>
			</rt_info>
			<input>
				<port id="0" precision="FP16">
					<dim>144</dim>
					<dim>24</dim>
					<dim>1</dim>
					<dim>1</dim>
				</port>
			</input>
			<output>
				<port id="1" precision="FP32">
					<dim>144</dim>
					<dim>24</dim>
					<dim>1</dim>
					<dim>1</dim>
				</port>
			</output>
		</layer>
		<layer id="52" name="Multiply_68224" type="Convolution" version="opset1">
			<data strides="1, 1" dilations="1, 1" pads_begin="0, 0" pads_end="0, 0" auto_pad="explicit"/>
			<rt_info>
				<attribute name="fused_names" version="0" value="383, 384, backbone.features.stage2.unit2.conv1.bn.bias, backbone.features.stage2.unit2.conv1.bn.running_mean, backbone.features.stage2.unit2.conv1.bn.running_var, backbone.features.stage2.unit2.conv1.bn.weight"/>
			</rt_info>
			<input>
				<port id="0" precision="FP32">
					<dim>1</dim>
					<dim>24</dim>
					<dim>176</dim>
					<dim>176</dim>
				</port>
				<port id="1" precision="FP32">
					<dim>144</dim>
					<dim>24</dim>
					<dim>1</dim>
					<dim>1</dim>
				</port>
			</input>
			<output>
				<port id="2" precision="FP32">
					<dim>1</dim>
					<dim>144</dim>
					<dim>176</dim>
					<dim>176</dim>
				</port>
			</output>
		</layer>
		<layer id="53" name="Constant_68229_compressed" type="Const" version="opset1">
			<data element_type="f16" shape="1, 144, 1, 1" offset="22354" size="288"/>
			<output>
				<port id="0" precision="FP16">
					<dim>1</dim>
					<dim>144</dim>
					<dim>1</dim>
					<dim>1</dim>
				</port>
			</output>
		</layer>
		<layer id="54" name="Constant_68229" type="Convert" version="opset1">
			<data destination_type="f32"/>
			<rt_info>
				<attribute name="decompression" version="0"/>
			</rt_info>
			<input>
				<port id="0" precision="FP16">
					<dim>1</dim>
					<dim>144</dim>
					<dim>1</dim>
					<dim>1</dim>
				</port>
			</input>
			<output>
				<port id="1" precision="FP32">
					<dim>1</dim>
					<dim>144</dim>
					<dim>1</dim>
					<dim>1</dim>
				</port>
			</output>
		</layer>
		<layer id="55" name="384" type="Add" version="opset1">
			<data auto_broadcast="numpy"/>
			<rt_info>
				<attribute name="fused_names" version="0" value="384, backbone.features.stage2.unit2.conv1.bn.bias, backbone.features.stage2.unit2.conv1.bn.running_mean, backbone.features.stage2.unit2.conv1.bn.running_var, backbone.features.stage2.unit2.conv1.bn.weight"/>
			</rt_info>
			<input>
				<port id="0" precision="FP32">
					<dim>1</dim>
					<dim>144</dim>
					<dim>176</dim>
					<dim>176</dim>
				</port>
				<port id="1" precision="FP32">
					<dim>1</dim>
					<dim>144</dim>
					<dim>1</dim>
					<dim>1</dim>
				</port>
			</input>
			<output>
				<port id="2" precision="FP32" names="384">
					<dim>1</dim>
					<dim>144</dim>
					<dim>176</dim>
					<dim>176</dim>
				</port>
			</output>
		</layer>
		<layer id="56" name="385" type="Clamp" version="opset1">
			<data min="0" max="6"/>
			<rt_info>
				<attribute name="fused_names" version="0" value="385"/>
			</rt_info>
			<input>
				<port id="0" precision="FP32">
					<dim>1</dim>
					<dim>144</dim>
					<dim>176</dim>
					<dim>176</dim>
				</port>
			</input>
			<output>
				<port id="1" precision="FP32" names="385">
					<dim>1</dim>
					<dim>144</dim>
					<dim>176</dim>
					<dim>176</dim>
				</port>
			</output>
		</layer>
		<layer id="57" name="Multiply_68642_compressed" type="Const" version="opset1">
			<data element_type="f16" shape="144, 1, 1, 3, 3" offset="22642" size="2592"/>
			<output>
				<port id="0" precision="FP16">
					<dim>144</dim>
					<dim>1</dim>
					<dim>1</dim>
					<dim>3</dim>
					<dim>3</dim>
				</port>
			</output>
		</layer>
		<layer id="58" name="Multiply_68642" type="Convert" version="opset1">
			<data destination_type="f32"/>
			<rt_info>
				<attribute name="decompression" version="0"/>
			</rt_info>
			<input>
				<port id="0" precision="FP16">
					<dim>144</dim>
					<dim>1</dim>
					<dim>1</dim>
					<dim>3</dim>
					<dim>3</dim>
				</port>
			</input>
			<output>
				<port id="1" precision="FP32">
					<dim>144</dim>
					<dim>1</dim>
					<dim>1</dim>
					<dim>3</dim>
					<dim>3</dim>
				</port>
			</output>
		</layer>
		<layer id="59" name="Multiply_68231" type="GroupConvolution" version="opset1">
			<data strides="1, 1" pads_begin="1, 1" pads_end="1, 1" dilations="1, 1" auto_pad="explicit"/>
			<rt_info>
				<attribute name="fused_names" version="0" value="387, backbone.features.stage2.unit2.conv2.bn.bias, backbone.features.stage2.unit2.conv2.bn.running_mean, backbone.features.stage2.unit2.conv2.bn.running_var, backbone.features.stage2.unit2.conv2.bn.weight"/>
			</rt_info>
			<input>
				<port id="0" precision="FP32">
					<dim>1</dim>
					<dim>144</dim>
					<dim>176</dim>
					<dim>176</dim>
				</port>
				<port id="1" precision="FP32">
					<dim>144</dim>
					<dim>1</dim>
					<dim>1</dim>
					<dim>3</dim>
					<dim>3</dim>
				</port>
			</input>
			<output>
				<port id="2" precision="FP32" names="386">
					<dim>1</dim>
					<dim>144</dim>
					<dim>176</dim>
					<dim>176</dim>
				</port>
			</output>
		</layer>
		<layer id="60" name="Constant_68236_compressed" type="Const" version="opset1">
			<data element_type="f16" shape="1, 144, 1, 1" offset="25234" size="288"/>
			<output>
				<port id="0" precision="FP16">
					<dim>1</dim>
					<dim>144</dim>
					<dim>1</dim>
					<dim>1</dim>
				</port>
			</output>
		</layer>
		<layer id="61" name="Constant_68236" type="Convert" version="opset1">
			<data destination_type="f32"/>
			<rt_info>
				<attribute name="decompression" version="0"/>
			</rt_info>
			<input>
				<port id="0" precision="FP16">
					<dim>1</dim>
					<dim>144</dim>
					<dim>1</dim>
					<dim>1</dim>
				</port>
			</input>
			<output>
				<port id="1" precision="FP32">
					<dim>1</dim>
					<dim>144</dim>
					<dim>1</dim>
					<dim>1</dim>
				</port>
			</output>
		</layer>
		<layer id="62" name="387" type="Add" version="opset1">
			<data auto_broadcast="numpy"/>
			<rt_info>
				<attribute name="fused_names" version="0" value="387, backbone.features.stage2.unit2.conv2.bn.bias, backbone.features.stage2.unit2.conv2.bn.running_mean, backbone.features.stage2.unit2.conv2.bn.running_var, backbone.features.stage2.unit2.conv2.bn.weight"/>
			</rt_info>
			<input>
				<port id="0" precision="FP32">
					<dim>1</dim>
					<dim>144</dim>
					<dim>176</dim>
					<dim>176</dim>
				</port>
				<port id="1" precision="FP32">
					<dim>1</dim>
					<dim>144</dim>
					<dim>1</dim>
					<dim>1</dim>
				</port>
			</input>
			<output>
				<port id="2" precision="FP32" names="387">
					<dim>1</dim>
					<dim>144</dim>
					<dim>176</dim>
					<dim>176</dim>
				</port>
			</output>
		</layer>
		<layer id="63" name="388" type="Clamp" version="opset1">
			<data min="0" max="6"/>
			<rt_info>
				<attribute name="fused_names" version="0" value="388"/>
			</rt_info>
			<input>
				<port id="0" precision="FP32">
					<dim>1</dim>
					<dim>144</dim>
					<dim>176</dim>
					<dim>176</dim>
				</port>
			</input>
			<output>
				<port id="1" precision="FP32" names="388">
					<dim>1</dim>
					<dim>144</dim>
					<dim>176</dim>
					<dim>176</dim>
				</port>
			</output>
		</layer>
		<layer id="64" name="Multiply_68650_compressed" type="Const" version="opset1">
			<data element_type="f16" shape="24, 144, 1, 1" offset="25522" size="6912"/>
			<output>
				<port id="0" precision="FP16">
					<dim>24</dim>
					<dim>144</dim>
					<dim>1</dim>
					<dim>1</dim>
				</port>
			</output>
		</layer>
		<layer id="65" name="Multiply_68650" type="Convert" version="opset1">
			<data destination_type="f32"/>
			<rt_info>
				<attribute name="decompression" version="0"/>
			</rt_info>
			<input>
				<port id="0" precision="FP16">
					<dim>24</dim>
					<dim>144</dim>
					<dim>1</dim>
					<dim>1</dim>
				</port>
			</input>
			<output>
				<port id="1" precision="FP32">
					<dim>24</dim>
					<dim>144</dim>
					<dim>1</dim>
					<dim>1</dim>
				</port>
			</output>
		</layer>
		<layer id="66" name="Multiply_68238" type="Convolution" version="opset1">
			<data strides="1, 1" dilations="1, 1" pads_begin="0, 0" pads_end="0, 0" auto_pad="explicit"/>
			<rt_info>
				<attribute name="fused_names" version="0" value="389, 390, backbone.features.stage2.unit2.conv3.bn.bias, backbone.features.stage2.unit2.conv3.bn.running_mean, backbone.features.stage2.unit2.conv3.bn.running_var, backbone.features.stage2.unit2.conv3.bn.weight"/>
			</rt_info>
			<input>
				<port id="0" precision="FP32">
					<dim>1</dim>
					<dim>144</dim>
					<dim>176</dim>
					<dim>176</dim>
				</port>
				<port id="1" precision="FP32">
					<dim>24</dim>
					<dim>144</dim>
					<dim>1</dim>
					<dim>1</dim>
				</port>
			</input>
			<output>
				<port id="2" precision="FP32">
					<dim>1</dim>
					<dim>24</dim>
					<dim>176</dim>
					<dim>176</dim>
				</port>
			</output>
		</layer>
		<layer id="67" name="Constant_68243_compressed" type="Const" version="opset1">
			<data element_type="f16" shape="1, 24, 1, 1" offset="32434" size="48"/>
			<output>
				<port id="0" precision="FP16">
					<dim>1</dim>
					<dim>24</dim>
					<dim>1</dim>
					<dim>1</dim>
				</port>
			</output>
		</layer>
		<layer id="68" name="Constant_68243" type="Convert" version="opset1">
			<data destination_type="f32"/>
			<rt_info>
				<attribute name="decompression" version="0"/>
			</rt_info>
			<input>
				<port id="0" precision="FP16">
					<dim>1</dim>
					<dim>24</dim>
					<dim>1</dim>
					<dim>1</dim>
				</port>
			</input>
			<output>
				<port id="1" precision="FP32">
					<dim>1</dim>
					<dim>24</dim>
					<dim>1</dim>
					<dim>1</dim>
				</port>
			</output>
		</layer>
		<layer id="69" name="390" type="Add" version="opset1">
			<data auto_broadcast="numpy"/>
			<rt_info>
				<attribute name="fused_names" version="0" value="390, backbone.features.stage2.unit2.conv3.bn.bias, backbone.features.stage2.unit2.conv3.bn.running_mean, backbone.features.stage2.unit2.conv3.bn.running_var, backbone.features.stage2.unit2.conv3.bn.weight"/>
			</rt_info>
			<input>
				<port id="0" precision="FP32">
					<dim>1</dim>
					<dim>24</dim>
					<dim>176</dim>
					<dim>176</dim>
				</port>
				<port id="1" precision="FP32">
					<dim>1</dim>
					<dim>24</dim>
					<dim>1</dim>
					<dim>1</dim>
				</port>
			</input>
			<output>
				<port id="2" precision="FP32" names="390">
					<dim>1</dim>
					<dim>24</dim>
					<dim>176</dim>
					<dim>176</dim>
				</port>
			</output>
		</layer>
		<layer id="70" name="391" type="Add" version="opset1">
			<data auto_broadcast="numpy"/>
			<rt_info>
				<attribute name="fused_names" version="0" value="391"/>
			</rt_info>
			<input>
				<port id="0" precision="FP32">
					<dim>1</dim>
					<dim>24</dim>
					<dim>176</dim>
					<dim>176</dim>
				</port>
				<port id="1" precision="FP32">
					<dim>1</dim>
					<dim>24</dim>
					<dim>176</dim>
					<dim>176</dim>
				</port>
			</input>
			<output>
				<port id="2" precision="FP32" names="391">
					<dim>1</dim>
					<dim>24</dim>
					<dim>176</dim>
					<dim>176</dim>
				</port>
			</output>
		</layer>
		<layer id="71" name="Multiply_68659_compressed" type="Const" version="opset1">
			<data element_type="f16" shape="144, 24, 1, 1" offset="32482" size="6912"/>
			<output>
				<port id="0" precision="FP16">
					<dim>144</dim>
					<dim>24</dim>
					<dim>1</dim>
					<dim>1</dim>
				</port>
			</output>
		</layer>
		<layer id="72" name="Multiply_68659" type="Convert" version="opset1">
			<data destination_type="f32"/>
			<rt_info>
				<attribute name="decompression" version="0"/>
			</rt_info>
			<input>
				<port id="0" precision="FP16">
					<dim>144</dim>
					<dim>24</dim>
					<dim>1</dim>
					<dim>1</dim>
				</port>
			</input>
			<output>
				<port id="1" precision="FP32">
					<dim>144</dim>
					<dim>24</dim>
					<dim>1</dim>
					<dim>1</dim>
				</port>
			</output>
		</layer>
		<layer id="73" name="Multiply_68245" type="Convolution" version="opset1">
			<data strides="1, 1" dilations="1, 1" pads_begin="0, 0" pads_end="0, 0" auto_pad="explicit"/>
			<rt_info>
				<attribute name="fused_names" version="0" value="392, 393, backbone.features.stage3.unit1.conv1.bn.bias, backbone.features.stage3.unit1.conv1.bn.running_mean, backbone.features.stage3.unit1.conv1.bn.running_var, backbone.features.stage3.unit1.conv1.bn.weight"/>
			</rt_info>
			<input>
				<port id="0" precision="FP32">
					<dim>1</dim>
					<dim>24</dim>
					<dim>176</dim>
					<dim>176</dim>
				</port>
				<port id="1" precision="FP32">
					<dim>144</dim>
					<dim>24</dim>
					<dim>1</dim>
					<dim>1</dim>
				</port>
			</input>
			<output>
				<port id="2" precision="FP32">
					<dim>1</dim>
					<dim>144</dim>
					<dim>176</dim>
					<dim>176</dim>
				</port>
			</output>
		</layer>
		<layer id="74" name="Constant_68250_compressed" type="Const" version="opset1">
			<data element_type="f16" shape="1, 144, 1, 1" offset="39394" size="288"/>
			<output>
				<port id="0" precision="FP16">
					<dim>1</dim>
					<dim>144</dim>
					<dim>1</dim>
					<dim>1</dim>
				</port>
			</output>
		</layer>
		<layer id="75" name="Constant_68250" type="Convert" version="opset1">
			<data destination_type="f32"/>
			<rt_info>
				<attribute name="decompression" version="0"/>
			</rt_info>
			<input>
				<port id="0" precision="FP16">
					<dim>1</dim>
					<dim>144</dim>
					<dim>1</dim>
					<dim>1</dim>
				</port>
			</input>
			<output>
				<port id="1" precision="FP32">
					<dim>1</dim>
					<dim>144</dim>
					<dim>1</dim>
					<dim>1</dim>
				</port>
			</output>
		</layer>
		<layer id="76" name="393" type="Add" version="opset1">
			<data auto_broadcast="numpy"/>
			<rt_info>
				<attribute name="fused_names" version="0" value="393, backbone.features.stage3.unit1.conv1.bn.bias, backbone.features.stage3.unit1.conv1.bn.running_mean, backbone.features.stage3.unit1.conv1.bn.running_var, backbone.features.stage3.unit1.conv1.bn.weight"/>
			</rt_info>
			<input>
				<port id="0" precision="FP32">
					<dim>1</dim>
					<dim>144</dim>
					<dim>176</dim>
					<dim>176</dim>
				</port>
				<port id="1" precision="FP32">
					<dim>1</dim>
					<dim>144</dim>
					<dim>1</dim>
					<dim>1</dim>
				</port>
			</input>
			<output>
				<port id="2" precision="FP32" names="393">
					<dim>1</dim>
					<dim>144</dim>
					<dim>176</dim>
					<dim>176</dim>
				</port>
			</output>
		</layer>
		<layer id="77" name="394" type="Clamp" version="opset1">
			<data min="0" max="6"/>
			<rt_info>
				<attribute name="fused_names" version="0" value="394"/>
			</rt_info>
			<input>
				<port id="0" precision="FP32">
					<dim>1</dim>
					<dim>144</dim>
					<dim>176</dim>
					<dim>176</dim>
				</port>
			</input>
			<output>
				<port id="1" precision="FP32" names="394">
					<dim>1</dim>
					<dim>144</dim>
					<dim>176</dim>
					<dim>176</dim>
				</port>
			</output>
		</layer>
		<layer id="78" name="Multiply_68668_compressed" type="Const" version="opset1">
			<data element_type="f16" shape="144, 1, 1, 3, 3" offset="39682" size="2592"/>
			<output>
				<port id="0" precision="FP16">
					<dim>144</dim>
					<dim>1</dim>
					<dim>1</dim>
					<dim>3</dim>
					<dim>3</dim>
				</port>
			</output>
		</layer>
		<layer id="79" name="Multiply_68668" type="Convert" version="opset1">
			<data destination_type="f32"/>
			<rt_info>
				<attribute name="decompression" version="0"/>
			</rt_info>
			<input>
				<port id="0" precision="FP16">
					<dim>144</dim>
					<dim>1</dim>
					<dim>1</dim>
					<dim>3</dim>
					<dim>3</dim>
				</port>
			</input>
			<output>
				<port id="1" precision="FP32">
					<dim>144</dim>
					<dim>1</dim>
					<dim>1</dim>
					<dim>3</dim>
					<dim>3</dim>
				</port>
			</output>
		</layer>
		<layer id="80" name="Multiply_68252" type="GroupConvolution" version="opset1">
			<data strides="2, 2" pads_begin="1, 1" pads_end="1, 1" dilations="1, 1" auto_pad="explicit"/>
			<rt_info>
				<attribute name="fused_names" version="0" value="396, backbone.features.stage3.unit1.conv2.bn.bias, backbone.features.stage3.unit1.conv2.bn.running_mean, backbone.features.stage3.unit1.conv2.bn.running_var, backbone.features.stage3.unit1.conv2.bn.weight"/>
			</rt_info>
			<input>
				<port id="0" precision="FP32">
					<dim>1</dim>
					<dim>144</dim>
					<dim>176</dim>
					<dim>176</dim>
				</port>
				<port id="1" precision="FP32">
					<dim>144</dim>
					<dim>1</dim>
					<dim>1</dim>
					<dim>3</dim>
					<dim>3</dim>
				</port>
			</input>
			<output>
				<port id="2" precision="FP32" names="395">
					<dim>1</dim>
					<dim>144</dim>
					<dim>88</dim>
					<dim>88</dim>
				</port>
			</output>
		</layer>
		<layer id="81" name="Constant_68257_compressed" type="Const" version="opset1">
			<data element_type="f16" shape="1, 144, 1, 1" offset="42274" size="288"/>
			<output>
				<port id="0" precision="FP16">
					<dim>1</dim>
					<dim>144</dim>
					<dim>1</dim>
					<dim>1</dim>
				</port>
			</output>
		</layer>
		<layer id="82" name="Constant_68257" type="Convert" version="opset1">
			<data destination_type="f32"/>
			<rt_info>
				<attribute name="decompression" version="0"/>
			</rt_info>
			<input>
				<port id="0" precision="FP16">
					<dim>1</dim>
					<dim>144</dim>
					<dim>1</dim>
					<dim>1</dim>
				</port>
			</input>
			<output>
				<port id="1" precision="FP32">
					<dim>1</dim>
					<dim>144</dim>
					<dim>1</dim>
					<dim>1</dim>
				</port>
			</output>
		</layer>
		<layer id="83" name="396" type="Add" version="opset1">
			<data auto_broadcast="numpy"/>
			<rt_info>
				<attribute name="fused_names" version="0" value="396, backbone.features.stage3.unit1.conv2.bn.bias, backbone.features.stage3.unit1.conv2.bn.running_mean, backbone.features.stage3.unit1.conv2.bn.running_var, backbone.features.stage3.unit1.conv2.bn.weight"/>
			</rt_info>
			<input>
				<port id="0" precision="FP32">
					<dim>1</dim>
					<dim>144</dim>
					<dim>88</dim>
					<dim>88</dim>
				</port>
				<port id="1" precision="FP32">
					<dim>1</dim>
					<dim>144</dim>
					<dim>1</dim>
					<dim>1</dim>
				</port>
			</input>
			<output>
				<port id="2" precision="FP32" names="396">
					<dim>1</dim>
					<dim>144</dim>
					<dim>88</dim>
					<dim>88</dim>
				</port>
			</output>
		</layer>
		<layer id="84" name="397" type="Clamp" version="opset1">
			<data min="0" max="6"/>
			<rt_info>
				<attribute name="fused_names" version="0" value="397"/>
			</rt_info>
			<input>
				<port id="0" precision="FP32">
					<dim>1</dim>
					<dim>144</dim>
					<dim>88</dim>
					<dim>88</dim>
				</port>
			</input>
			<output>
				<port id="1" precision="FP32" names="397">
					<dim>1</dim>
					<dim>144</dim>
					<dim>88</dim>
					<dim>88</dim>
				</port>
			</output>
		</layer>
		<layer id="85" name="Multiply_68676_compressed" type="Const" version="opset1">
			<data element_type="f16" shape="32, 144, 1, 1" offset="42562" size="9216"/>
			<output>
				<port id="0" precision="FP16">
					<dim>32</dim>
					<dim>144</dim>
					<dim>1</dim>
					<dim>1</dim>
				</port>
			</output>
		</layer>
		<layer id="86" name="Multiply_68676" type="Convert" version="opset1">
			<data destination_type="f32"/>
			<rt_info>
				<attribute name="decompression" version="0"/>
			</rt_info>
			<input>
				<port id="0" precision="FP16">
					<dim>32</dim>
					<dim>144</dim>
					<dim>1</dim>
					<dim>1</dim>
				</port>
			</input>
			<output>
				<port id="1" precision="FP32">
					<dim>32</dim>
					<dim>144</dim>
					<dim>1</dim>
					<dim>1</dim>
				</port>
			</output>
		</layer>
		<layer id="87" name="Multiply_68259" type="Convolution" version="opset1">
			<data strides="1, 1" dilations="1, 1" pads_begin="0, 0" pads_end="0, 0" auto_pad="explicit"/>
			<rt_info>
				<attribute name="fused_names" version="0" value="398, 399, backbone.features.stage3.unit1.conv3.bn.bias, backbone.features.stage3.unit1.conv3.bn.running_mean, backbone.features.stage3.unit1.conv3.bn.running_var, backbone.features.stage3.unit1.conv3.bn.weight"/>
			</rt_info>
			<input>
				<port id="0" precision="FP32">
					<dim>1</dim>
					<dim>144</dim>
					<dim>88</dim>
					<dim>88</dim>
				</port>
				<port id="1" precision="FP32">
					<dim>32</dim>
					<dim>144</dim>
					<dim>1</dim>
					<dim>1</dim>
				</port>
			</input>
			<output>
				<port id="2" precision="FP32">
					<dim>1</dim>
					<dim>32</dim>
					<dim>88</dim>
					<dim>88</dim>
				</port>
			</output>
		</layer>
		<layer id="88" name="Constant_68264_compressed" type="Const" version="opset1">
			<data element_type="f16" shape="1, 32, 1, 1" offset="51778" size="64"/>
			<output>
				<port id="0" precision="FP16">
					<dim>1</dim>
					<dim>32</dim>
					<dim>1</dim>
					<dim>1</dim>
				</port>
			</output>
		</layer>
		<layer id="89" name="Constant_68264" type="Convert" version="opset1">
			<data destination_type="f32"/>
			<rt_info>
				<attribute name="decompression" version="0"/>
			</rt_info>
			<input>
				<port id="0" precision="FP16">
					<dim>1</dim>
					<dim>32</dim>
					<dim>1</dim>
					<dim>1</dim>
				</port>
			</input>
			<output>
				<port id="1" precision="FP32">
					<dim>1</dim>
					<dim>32</dim>
					<dim>1</dim>
					<dim>1</dim>
				</port>
			</output>
		</layer>
		<layer id="90" name="399" type="Add" version="opset1">
			<data auto_broadcast="numpy"/>
			<rt_info>
				<attribute name="fused_names" version="0" value="399, backbone.features.stage3.unit1.conv3.bn.bias, backbone.features.stage3.unit1.conv3.bn.running_mean, backbone.features.stage3.unit1.conv3.bn.running_var, backbone.features.stage3.unit1.conv3.bn.weight"/>
			</rt_info>
			<input>
				<port id="0" precision="FP32">
					<dim>1</dim>
					<dim>32</dim>
					<dim>88</dim>
					<dim>88</dim>
				</port>
				<port id="1" precision="FP32">
					<dim>1</dim>
					<dim>32</dim>
					<dim>1</dim>
					<dim>1</dim>
				</port>
			</input>
			<output>
				<port id="2" precision="FP32" names="399">
					<dim>1</dim>
					<dim>32</dim>
					<dim>88</dim>
					<dim>88</dim>
				</port>
			</output>
		</layer>
		<layer id="91" name="Multiply_68685_compressed" type="Const" version="opset1">
			<data element_type="f16" shape="192, 32, 1, 1" offset="51842" size="12288"/>
			<output>
				<port id="0" precision="FP16">
					<dim>192</dim>
					<dim>32</dim>
					<dim>1</dim>
					<dim>1</dim>
				</port>
			</output>
		</layer>
		<layer id="92" name="Multiply_68685" type="Convert" version="opset1">
			<data destination_type="f32"/>
			<rt_info>
				<attribute name="decompression" version="0"/>
			</rt_info>
			<input>
				<port id="0" precision="FP16">
					<dim>192</dim>
					<dim>32</dim>
					<dim>1</dim>
					<dim>1</dim>
				</port>
			</input>
			<output>
				<port id="1" precision="FP32">
					<dim>192</dim>
					<dim>32</dim>
					<dim>1</dim>
					<dim>1</dim>
				</port>
			</output>
		</layer>
		<layer id="93" name="Multiply_68266" type="Convolution" version="opset1">
			<data strides="1, 1" dilations="1, 1" pads_begin="0, 0" pads_end="0, 0" auto_pad="explicit"/>
			<rt_info>
				<attribute name="fused_names" version="0" value="400, 401, backbone.features.stage3.unit2.conv1.bn.bias, backbone.features.stage3.unit2.conv1.bn.running_mean, backbone.features.stage3.unit2.conv1.bn.running_var, backbone.features.stage3.unit2.conv1.bn.weight"/>
			</rt_info>
			<input>
				<port id="0" precision="FP32">
					<dim>1</dim>
					<dim>32</dim>
					<dim>88</dim>
					<dim>88</dim>
				</port>
				<port id="1" precision="FP32">
					<dim>192</dim>
					<dim>32</dim>
					<dim>1</dim>
					<dim>1</dim>
				</port>
			</input>
			<output>
				<port id="2" precision="FP32">
					<dim>1</dim>
					<dim>192</dim>
					<dim>88</dim>
					<dim>88</dim>
				</port>
			</output>
		</layer>
		<layer id="94" name="Constant_68271_compressed" type="Const" version="opset1">
			<data element_type="f16" shape="1, 192, 1, 1" offset="64130" size="384"/>
			<output>
				<port id="0" precision="FP16">
					<dim>1</dim>
					<dim>192</dim>
					<dim>1</dim>
					<dim>1</dim>
				</port>
			</output>
		</layer>
		<layer id="95" name="Constant_68271" type="Convert" version="opset1">
			<data destination_type="f32"/>
			<rt_info>
				<attribute name="decompression" version="0"/>
			</rt_info>
			<input>
				<port id="0" precision="FP16">
					<dim>1</dim>
					<dim>192</dim>
					<dim>1</dim>
					<dim>1</dim>
				</port>
			</input>
			<output>
				<port id="1" precision="FP32">
					<dim>1</dim>
					<dim>192</dim>
					<dim>1</dim>
					<dim>1</dim>
				</port>
			</output>
		</layer>
		<layer id="96" name="401" type="Add" version="opset1">
			<data auto_broadcast="numpy"/>
			<rt_info>
				<attribute name="fused_names" version="0" value="401, backbone.features.stage3.unit2.conv1.bn.bias, backbone.features.stage3.unit2.conv1.bn.running_mean, backbone.features.stage3.unit2.conv1.bn.running_var, backbone.features.stage3.unit2.conv1.bn.weight"/>
			</rt_info>
			<input>
				<port id="0" precision="FP32">
					<dim>1</dim>
					<dim>192</dim>
					<dim>88</dim>
					<dim>88</dim>
				</port>
				<port id="1" precision="FP32">
					<dim>1</dim>
					<dim>192</dim>
					<dim>1</dim>
					<dim>1</dim>
				</port>
			</input>
			<output>
				<port id="2" precision="FP32" names="401">
					<dim>1</dim>
					<dim>192</dim>
					<dim>88</dim>
					<dim>88</dim>
				</port>
			</output>
		</layer>
		<layer id="97" name="402" type="Clamp" version="opset1">
			<data min="0" max="6"/>
			<rt_info>
				<attribute name="fused_names" version="0" value="402"/>
			</rt_info>
			<input>
				<port id="0" precision="FP32">
					<dim>1</dim>
					<dim>192</dim>
					<dim>88</dim>
					<dim>88</dim>
				</port>
			</input>
			<output>
				<port id="1" precision="FP32" names="402">
					<dim>1</dim>
					<dim>192</dim>
					<dim>88</dim>
					<dim>88</dim>
				</port>
			</output>
		</layer>
		<layer id="98" name="Multiply_68694_compressed" type="Const" version="opset1">
			<data element_type="f16" shape="192, 1, 1, 3, 3" offset="64514" size="3456"/>
			<output>
				<port id="0" precision="FP16">
					<dim>192</dim>
					<dim>1</dim>
					<dim>1</dim>
					<dim>3</dim>
					<dim>3</dim>
				</port>
			</output>
		</layer>
		<layer id="99" name="Multiply_68694" type="Convert" version="opset1">
			<data destination_type="f32"/>
			<rt_info>
				<attribute name="decompression" version="0"/>
			</rt_info>
			<input>
				<port id="0" precision="FP16">
					<dim>192</dim>
					<dim>1</dim>
					<dim>1</dim>
					<dim>3</dim>
					<dim>3</dim>
				</port>
			</input>
			<output>
				<port id="1" precision="FP32">
					<dim>192</dim>
					<dim>1</dim>
					<dim>1</dim>
					<dim>3</dim>
					<dim>3</dim>
				</port>
			</output>
		</layer>
		<layer id="100" name="Multiply_68273" type="GroupConvolution" version="opset1">
			<data strides="1, 1" pads_begin="1, 1" pads_end="1, 1" dilations="1, 1" auto_pad="explicit"/>
			<rt_info>
				<attribute name="fused_names" version="0" value="404, backbone.features.stage3.unit2.conv2.bn.bias, backbone.features.stage3.unit2.conv2.bn.running_mean, backbone.features.stage3.unit2.conv2.bn.running_var, backbone.features.stage3.unit2.conv2.bn.weight"/>
			</rt_info>
			<input>
				<port id="0" precision="FP32">
					<dim>1</dim>
					<dim>192</dim>
					<dim>88</dim>
					<dim>88</dim>
				</port>
				<port id="1" precision="FP32">
					<dim>192</dim>
					<dim>1</dim>
					<dim>1</dim>
					<dim>3</dim>
					<dim>3</dim>
				</port>
			</input>
			<output>
				<port id="2" precision="FP32" names="403">
					<dim>1</dim>
					<dim>192</dim>
					<dim>88</dim>
					<dim>88</dim>
				</port>
			</output>
		</layer>
		<layer id="101" name="Constant_68278_compressed" type="Const" version="opset1">
			<data element_type="f16" shape="1, 192, 1, 1" offset="67970" size="384"/>
			<output>
				<port id="0" precision="FP16">
					<dim>1</dim>
					<dim>192</dim>
					<dim>1</dim>
					<dim>1</dim>
				</port>
			</output>
		</layer>
		<layer id="102" name="Constant_68278" type="Convert" version="opset1">
			<data destination_type="f32"/>
			<rt_info>
				<attribute name="decompression" version="0"/>
			</rt_info>
			<input>
				<port id="0" precision="FP16">
					<dim>1</dim>
					<dim>192</dim>
					<dim>1</dim>
					<dim>1</dim>
				</port>
			</input>
			<output>
				<port id="1" precision="FP32">
					<dim>1</dim>
					<dim>192</dim>
					<dim>1</dim>
					<dim>1</dim>
				</port>
			</output>
		</layer>
		<layer id="103" name="404" type="Add" version="opset1">
			<data auto_broadcast="numpy"/>
			<rt_info>
				<attribute name="fused_names" version="0" value="404, backbone.features.stage3.unit2.conv2.bn.bias, backbone.features.stage3.unit2.conv2.bn.running_mean, backbone.features.stage3.unit2.conv2.bn.running_var, backbone.features.stage3.unit2.conv2.bn.weight"/>
			</rt_info>
			<input>
				<port id="0" precision="FP32">
					<dim>1</dim>
					<dim>192</dim>
					<dim>88</dim>
					<dim>88</dim>
				</port>
				<port id="1" precision="FP32">
					<dim>1</dim>
					<dim>192</dim>
					<dim>1</dim>
					<dim>1</dim>
				</port>
			</input>
			<output>
				<port id="2" precision="FP32" names="404">
					<dim>1</dim>
					<dim>192</dim>
					<dim>88</dim>
					<dim>88</dim>
				</port>
			</output>
		</layer>
		<layer id="104" name="405" type="Clamp" version="opset1">
			<data min="0" max="6"/>
			<rt_info>
				<attribute name="fused_names" version="0" value="405"/>
			</rt_info>
			<input>
				<port id="0" precision="FP32">
					<dim>1</dim>
					<dim>192</dim>
					<dim>88</dim>
					<dim>88</dim>
				</port>
			</input>
			<output>
				<port id="1" precision="FP32" names="405">
					<dim>1</dim>
					<dim>192</dim>
					<dim>88</dim>
					<dim>88</dim>
				</port>
			</output>
		</layer>
		<layer id="105" name="Multiply_68702_compressed" type="Const" version="opset1">
			<data element_type="f16" shape="32, 192, 1, 1" offset="68354" size="12288"/>
			<output>
				<port id="0" precision="FP16">
					<dim>32</dim>
					<dim>192</dim>
					<dim>1</dim>
					<dim>1</dim>
				</port>
			</output>
		</layer>
		<layer id="106" name="Multiply_68702" type="Convert" version="opset1">
			<data destination_type="f32"/>
			<rt_info>
				<attribute name="decompression" version="0"/>
			</rt_info>
			<input>
				<port id="0" precision="FP16">
					<dim>32</dim>
					<dim>192</dim>
					<dim>1</dim>
					<dim>1</dim>
				</port>
			</input>
			<output>
				<port id="1" precision="FP32">
					<dim>32</dim>
					<dim>192</dim>
					<dim>1</dim>
					<dim>1</dim>
				</port>
			</output>
		</layer>
		<layer id="107" name="Multiply_68280" type="Convolution" version="opset1">
			<data strides="1, 1" dilations="1, 1" pads_begin="0, 0" pads_end="0, 0" auto_pad="explicit"/>
			<rt_info>
				<attribute name="fused_names" version="0" value="406, 407, backbone.features.stage3.unit2.conv3.bn.bias, backbone.features.stage3.unit2.conv3.bn.running_mean, backbone.features.stage3.unit2.conv3.bn.running_var, backbone.features.stage3.unit2.conv3.bn.weight"/>
			</rt_info>
			<input>
				<port id="0" precision="FP32">
					<dim>1</dim>
					<dim>192</dim>
					<dim>88</dim>
					<dim>88</dim>
				</port>
				<port id="1" precision="FP32">
					<dim>32</dim>
					<dim>192</dim>
					<dim>1</dim>
					<dim>1</dim>
				</port>
			</input>
			<output>
				<port id="2" precision="FP32">
					<dim>1</dim>
					<dim>32</dim>
					<dim>88</dim>
					<dim>88</dim>
				</port>
			</output>
		</layer>
		<layer id="108" name="Constant_68285_compressed" type="Const" version="opset1">
			<data element_type="f16" shape="1, 32, 1, 1" offset="80642" size="64"/>
			<output>
				<port id="0" precision="FP16">
					<dim>1</dim>
					<dim>32</dim>
					<dim>1</dim>
					<dim>1</dim>
				</port>
			</output>
		</layer>
		<layer id="109" name="Constant_68285" type="Convert" version="opset1">
			<data destination_type="f32"/>
			<rt_info>
				<attribute name="decompression" version="0"/>
			</rt_info>
			<input>
				<port id="0" precision="FP16">
					<dim>1</dim>
					<dim>32</dim>
					<dim>1</dim>
					<dim>1</dim>
				</port>
			</input>
			<output>
				<port id="1" precision="FP32">
					<dim>1</dim>
					<dim>32</dim>
					<dim>1</dim>
					<dim>1</dim>
				</port>
			</output>
		</layer>
		<layer id="110" name="407" type="Add" version="opset1">
			<data auto_broadcast="numpy"/>
			<rt_info>
				<attribute name="fused_names" version="0" value="407, backbone.features.stage3.unit2.conv3.bn.bias, backbone.features.stage3.unit2.conv3.bn.running_mean, backbone.features.stage3.unit2.conv3.bn.running_var, backbone.features.stage3.unit2.conv3.bn.weight"/>
			</rt_info>
			<input>
				<port id="0" precision="FP32">
					<dim>1</dim>
					<dim>32</dim>
					<dim>88</dim>
					<dim>88</dim>
				</port>
				<port id="1" precision="FP32">
					<dim>1</dim>
					<dim>32</dim>
					<dim>1</dim>
					<dim>1</dim>
				</port>
			</input>
			<output>
				<port id="2" precision="FP32" names="407">
					<dim>1</dim>
					<dim>32</dim>
					<dim>88</dim>
					<dim>88</dim>
				</port>
			</output>
		</layer>
		<layer id="111" name="408" type="Add" version="opset1">
			<data auto_broadcast="numpy"/>
			<rt_info>
				<attribute name="fused_names" version="0" value="408"/>
			</rt_info>
			<input>
				<port id="0" precision="FP32">
					<dim>1</dim>
					<dim>32</dim>
					<dim>88</dim>
					<dim>88</dim>
				</port>
				<port id="1" precision="FP32">
					<dim>1</dim>
					<dim>32</dim>
					<dim>88</dim>
					<dim>88</dim>
				</port>
			</input>
			<output>
				<port id="2" precision="FP32" names="408">
					<dim>1</dim>
					<dim>32</dim>
					<dim>88</dim>
					<dim>88</dim>
				</port>
			</output>
		</layer>
		<layer id="112" name="Multiply_68711_compressed" type="Const" version="opset1">
			<data element_type="f16" shape="192, 32, 1, 1" offset="80706" size="12288"/>
			<output>
				<port id="0" precision="FP16">
					<dim>192</dim>
					<dim>32</dim>
					<dim>1</dim>
					<dim>1</dim>
				</port>
			</output>
		</layer>
		<layer id="113" name="Multiply_68711" type="Convert" version="opset1">
			<data destination_type="f32"/>
			<rt_info>
				<attribute name="decompression" version="0"/>
			</rt_info>
			<input>
				<port id="0" precision="FP16">
					<dim>192</dim>
					<dim>32</dim>
					<dim>1</dim>
					<dim>1</dim>
				</port>
			</input>
			<output>
				<port id="1" precision="FP32">
					<dim>192</dim>
					<dim>32</dim>
					<dim>1</dim>
					<dim>1</dim>
				</port>
			</output>
		</layer>
		<layer id="114" name="Multiply_68287" type="Convolution" version="opset1">
			<data strides="1, 1" dilations="1, 1" pads_begin="0, 0" pads_end="0, 0" auto_pad="explicit"/>
			<rt_info>
				<attribute name="fused_names" version="0" value="409, 410, backbone.features.stage3.unit3.conv1.bn.bias, backbone.features.stage3.unit3.conv1.bn.running_mean, backbone.features.stage3.unit3.conv1.bn.running_var, backbone.features.stage3.unit3.conv1.bn.weight"/>
			</rt_info>
			<input>
				<port id="0" precision="FP32">
					<dim>1</dim>
					<dim>32</dim>
					<dim>88</dim>
					<dim>88</dim>
				</port>
				<port id="1" precision="FP32">
					<dim>192</dim>
					<dim>32</dim>
					<dim>1</dim>
					<dim>1</dim>
				</port>
			</input>
			<output>
				<port id="2" precision="FP32">
					<dim>1</dim>
					<dim>192</dim>
					<dim>88</dim>
					<dim>88</dim>
				</port>
			</output>
		</layer>
		<layer id="115" name="Constant_68292_compressed" type="Const" version="opset1">
			<data element_type="f16" shape="1, 192, 1, 1" offset="92994" size="384"/>
			<output>
				<port id="0" precision="FP16">
					<dim>1</dim>
					<dim>192</dim>
					<dim>1</dim>
					<dim>1</dim>
				</port>
			</output>
		</layer>
		<layer id="116" name="Constant_68292" type="Convert" version="opset1">
			<data destination_type="f32"/>
			<rt_info>
				<attribute name="decompression" version="0"/>
			</rt_info>
			<input>
				<port id="0" precision="FP16">
					<dim>1</dim>
					<dim>192</dim>
					<dim>1</dim>
					<dim>1</dim>
				</port>
			</input>
			<output>
				<port id="1" precision="FP32">
					<dim>1</dim>
					<dim>192</dim>
					<dim>1</dim>
					<dim>1</dim>
				</port>
			</output>
		</layer>
		<layer id="117" name="410" type="Add" version="opset1">
			<data auto_broadcast="numpy"/>
			<rt_info>
				<attribute name="fused_names" version="0" value="410, backbone.features.stage3.unit3.conv1.bn.bias, backbone.features.stage3.unit3.conv1.bn.running_mean, backbone.features.stage3.unit3.conv1.bn.running_var, backbone.features.stage3.unit3.conv1.bn.weight"/>
			</rt_info>
			<input>
				<port id="0" precision="FP32">
					<dim>1</dim>
					<dim>192</dim>
					<dim>88</dim>
					<dim>88</dim>
				</port>
				<port id="1" precision="FP32">
					<dim>1</dim>
					<dim>192</dim>
					<dim>1</dim>
					<dim>1</dim>
				</port>
			</input>
			<output>
				<port id="2" precision="FP32" names="410">
					<dim>1</dim>
					<dim>192</dim>
					<dim>88</dim>
					<dim>88</dim>
				</port>
			</output>
		</layer>
		<layer id="118" name="411" type="Clamp" version="opset1">
			<data min="0" max="6"/>
			<rt_info>
				<attribute name="fused_names" version="0" value="411"/>
			</rt_info>
			<input>
				<port id="0" precision="FP32">
					<dim>1</dim>
					<dim>192</dim>
					<dim>88</dim>
					<dim>88</dim>
				</port>
			</input>
			<output>
				<port id="1" precision="FP32" names="411">
					<dim>1</dim>
					<dim>192</dim>
					<dim>88</dim>
					<dim>88</dim>
				</port>
			</output>
		</layer>
		<layer id="119" name="Multiply_68720_compressed" type="Const" version="opset1">
			<data element_type="f16" shape="192, 1, 1, 3, 3" offset="93378" size="3456"/>
			<output>
				<port id="0" precision="FP16">
					<dim>192</dim>
					<dim>1</dim>
					<dim>1</dim>
					<dim>3</dim>
					<dim>3</dim>
				</port>
			</output>
		</layer>
		<layer id="120" name="Multiply_68720" type="Convert" version="opset1">
			<data destination_type="f32"/>
			<rt_info>
				<attribute name="decompression" version="0"/>
			</rt_info>
			<input>
				<port id="0" precision="FP16">
					<dim>192</dim>
					<dim>1</dim>
					<dim>1</dim>
					<dim>3</dim>
					<dim>3</dim>
				</port>
			</input>
			<output>
				<port id="1" precision="FP32">
					<dim>192</dim>
					<dim>1</dim>
					<dim>1</dim>
					<dim>3</dim>
					<dim>3</dim>
				</port>
			</output>
		</layer>
		<layer id="121" name="Multiply_68294" type="GroupConvolution" version="opset1">
			<data strides="1, 1" pads_begin="1, 1" pads_end="1, 1" dilations="1, 1" auto_pad="explicit"/>
			<rt_info>
				<attribute name="fused_names" version="0" value="413, backbone.features.stage3.unit3.conv2.bn.bias, backbone.features.stage3.unit3.conv2.bn.running_mean, backbone.features.stage3.unit3.conv2.bn.running_var, backbone.features.stage3.unit3.conv2.bn.weight"/>
			</rt_info>
			<input>
				<port id="0" precision="FP32">
					<dim>1</dim>
					<dim>192</dim>
					<dim>88</dim>
					<dim>88</dim>
				</port>
				<port id="1" precision="FP32">
					<dim>192</dim>
					<dim>1</dim>
					<dim>1</dim>
					<dim>3</dim>
					<dim>3</dim>
				</port>
			</input>
			<output>
				<port id="2" precision="FP32" names="412">
					<dim>1</dim>
					<dim>192</dim>
					<dim>88</dim>
					<dim>88</dim>
				</port>
			</output>
		</layer>
		<layer id="122" name="Constant_68299_compressed" type="Const" version="opset1">
			<data element_type="f16" shape="1, 192, 1, 1" offset="96834" size="384"/>
			<output>
				<port id="0" precision="FP16">
					<dim>1</dim>
					<dim>192</dim>
					<dim>1</dim>
					<dim>1</dim>
				</port>
			</output>
		</layer>
		<layer id="123" name="Constant_68299" type="Convert" version="opset1">
			<data destination_type="f32"/>
			<rt_info>
				<attribute name="decompression" version="0"/>
			</rt_info>
			<input>
				<port id="0" precision="FP16">
					<dim>1</dim>
					<dim>192</dim>
					<dim>1</dim>
					<dim>1</dim>
				</port>
			</input>
			<output>
				<port id="1" precision="FP32">
					<dim>1</dim>
					<dim>192</dim>
					<dim>1</dim>
					<dim>1</dim>
				</port>
			</output>
		</layer>
		<layer id="124" name="413" type="Add" version="opset1">
			<data auto_broadcast="numpy"/>
			<rt_info>
				<attribute name="fused_names" version="0" value="413, backbone.features.stage3.unit3.conv2.bn.bias, backbone.features.stage3.unit3.conv2.bn.running_mean, backbone.features.stage3.unit3.conv2.bn.running_var, backbone.features.stage3.unit3.conv2.bn.weight"/>
			</rt_info>
			<input>
				<port id="0" precision="FP32">
					<dim>1</dim>
					<dim>192</dim>
					<dim>88</dim>
					<dim>88</dim>
				</port>
				<port id="1" precision="FP32">
					<dim>1</dim>
					<dim>192</dim>
					<dim>1</dim>
					<dim>1</dim>
				</port>
			</input>
			<output>
				<port id="2" precision="FP32" names="413">
					<dim>1</dim>
					<dim>192</dim>
					<dim>88</dim>
					<dim>88</dim>
				</port>
			</output>
		</layer>
		<layer id="125" name="414" type="Clamp" version="opset1">
			<data min="0" max="6"/>
			<rt_info>
				<attribute name="fused_names" version="0" value="414"/>
			</rt_info>
			<input>
				<port id="0" precision="FP32">
					<dim>1</dim>
					<dim>192</dim>
					<dim>88</dim>
					<dim>88</dim>
				</port>
			</input>
			<output>
				<port id="1" precision="FP32" names="414">
					<dim>1</dim>
					<dim>192</dim>
					<dim>88</dim>
					<dim>88</dim>
				</port>
			</output>
		</layer>
		<layer id="126" name="Multiply_68728_compressed" type="Const" version="opset1">
			<data element_type="f16" shape="32, 192, 1, 1" offset="97218" size="12288"/>
			<output>
				<port id="0" precision="FP16">
					<dim>32</dim>
					<dim>192</dim>
					<dim>1</dim>
					<dim>1</dim>
				</port>
			</output>
		</layer>
		<layer id="127" name="Multiply_68728" type="Convert" version="opset1">
			<data destination_type="f32"/>
			<rt_info>
				<attribute name="decompression" version="0"/>
			</rt_info>
			<input>
				<port id="0" precision="FP16">
					<dim>32</dim>
					<dim>192</dim>
					<dim>1</dim>
					<dim>1</dim>
				</port>
			</input>
			<output>
				<port id="1" precision="FP32">
					<dim>32</dim>
					<dim>192</dim>
					<dim>1</dim>
					<dim>1</dim>
				</port>
			</output>
		</layer>
		<layer id="128" name="Multiply_68301" type="Convolution" version="opset1">
			<data strides="1, 1" dilations="1, 1" pads_begin="0, 0" pads_end="0, 0" auto_pad="explicit"/>
			<rt_info>
				<attribute name="fused_names" version="0" value="415, 416, backbone.features.stage3.unit3.conv3.bn.bias, backbone.features.stage3.unit3.conv3.bn.running_mean, backbone.features.stage3.unit3.conv3.bn.running_var, backbone.features.stage3.unit3.conv3.bn.weight"/>
			</rt_info>
			<input>
				<port id="0" precision="FP32">
					<dim>1</dim>
					<dim>192</dim>
					<dim>88</dim>
					<dim>88</dim>
				</port>
				<port id="1" precision="FP32">
					<dim>32</dim>
					<dim>192</dim>
					<dim>1</dim>
					<dim>1</dim>
				</port>
			</input>
			<output>
				<port id="2" precision="FP32">
					<dim>1</dim>
					<dim>32</dim>
					<dim>88</dim>
					<dim>88</dim>
				</port>
			</output>
		</layer>
		<layer id="129" name="Constant_68306_compressed" type="Const" version="opset1">
			<data element_type="f16" shape="1, 32, 1, 1" offset="109506" size="64"/>
			<output>
				<port id="0" precision="FP16">
					<dim>1</dim>
					<dim>32</dim>
					<dim>1</dim>
					<dim>1</dim>
				</port>
			</output>
		</layer>
		<layer id="130" name="Constant_68306" type="Convert" version="opset1">
			<data destination_type="f32"/>
			<rt_info>
				<attribute name="decompression" version="0"/>
			</rt_info>
			<input>
				<port id="0" precision="FP16">
					<dim>1</dim>
					<dim>32</dim>
					<dim>1</dim>
					<dim>1</dim>
				</port>
			</input>
			<output>
				<port id="1" precision="FP32">
					<dim>1</dim>
					<dim>32</dim>
					<dim>1</dim>
					<dim>1</dim>
				</port>
			</output>
		</layer>
		<layer id="131" name="416" type="Add" version="opset1">
			<data auto_broadcast="numpy"/>
			<rt_info>
				<attribute name="fused_names" version="0" value="416, backbone.features.stage3.unit3.conv3.bn.bias, backbone.features.stage3.unit3.conv3.bn.running_mean, backbone.features.stage3.unit3.conv3.bn.running_var, backbone.features.stage3.unit3.conv3.bn.weight"/>
			</rt_info>
			<input>
				<port id="0" precision="FP32">
					<dim>1</dim>
					<dim>32</dim>
					<dim>88</dim>
					<dim>88</dim>
				</port>
				<port id="1" precision="FP32">
					<dim>1</dim>
					<dim>32</dim>
					<dim>1</dim>
					<dim>1</dim>
				</port>
			</input>
			<output>
				<port id="2" precision="FP32" names="416">
					<dim>1</dim>
					<dim>32</dim>
					<dim>88</dim>
					<dim>88</dim>
				</port>
			</output>
		</layer>
		<layer id="132" name="417" type="Add" version="opset1">
			<data auto_broadcast="numpy"/>
			<rt_info>
				<attribute name="fused_names" version="0" value="417"/>
			</rt_info>
			<input>
				<port id="0" precision="FP32">
					<dim>1</dim>
					<dim>32</dim>
					<dim>88</dim>
					<dim>88</dim>
				</port>
				<port id="1" precision="FP32">
					<dim>1</dim>
					<dim>32</dim>
					<dim>88</dim>
					<dim>88</dim>
				</port>
			</input>
			<output>
				<port id="2" precision="FP32" names="417">
					<dim>1</dim>
					<dim>32</dim>
					<dim>88</dim>
					<dim>88</dim>
				</port>
			</output>
		</layer>
		<layer id="133" name="neck.lateral_convs.0.conv.weight_compressed" type="Const" version="opset1">
			<data element_type="f16" shape="32, 32, 1, 1" offset="109570" size="2048"/>
			<output>
				<port id="0" precision="FP16">
					<dim>32</dim>
					<dim>32</dim>
					<dim>1</dim>
					<dim>1</dim>
				</port>
			</output>
		</layer>
		<layer id="134" name="neck.lateral_convs.0.conv.weight" type="Convert" version="opset1">
			<data destination_type="f32"/>
			<rt_info>
				<attribute name="decompression" version="0"/>
				<attribute name="fused_names" version="0" value="neck.lateral_convs.0.conv.weight"/>
			</rt_info>
			<input>
				<port id="0" precision="FP16">
					<dim>32</dim>
					<dim>32</dim>
					<dim>1</dim>
					<dim>1</dim>
				</port>
			</input>
			<output>
				<port id="1" precision="FP32" names="neck.lateral_convs.0.conv.weight">
					<dim>32</dim>
					<dim>32</dim>
					<dim>1</dim>
					<dim>1</dim>
				</port>
			</output>
		</layer>
		<layer id="135" name="Convolution_1806" type="Convolution" version="opset1">
			<data strides="1, 1" dilations="1, 1" pads_begin="0, 0" pads_end="0, 0" auto_pad="explicit"/>
			<rt_info>
				<attribute name="fused_names" version="0" value="Convolution_1806"/>
			</rt_info>
			<input>
				<port id="0" precision="FP32">
					<dim>1</dim>
					<dim>32</dim>
					<dim>88</dim>
					<dim>88</dim>
				</port>
				<port id="1" precision="FP32">
					<dim>32</dim>
					<dim>32</dim>
					<dim>1</dim>
					<dim>1</dim>
				</port>
			</input>
			<output>
				<port id="2" precision="FP32">
					<dim>1</dim>
					<dim>32</dim>
					<dim>88</dim>
					<dim>88</dim>
				</port>
			</output>
		</layer>
		<layer id="136" name="Reshape_1826_compressed" type="Const" version="opset1">
			<data element_type="f16" shape="1, 32, 1, 1" offset="111618" size="64"/>
			<output>
				<port id="0" precision="FP16">
					<dim>1</dim>
					<dim>32</dim>
					<dim>1</dim>
					<dim>1</dim>
				</port>
			</output>
		</layer>
		<layer id="137" name="Reshape_1826" type="Convert" version="opset1">
			<data destination_type="f32"/>
			<rt_info>
				<attribute name="decompression" version="0"/>
			</rt_info>
			<input>
				<port id="0" precision="FP16">
					<dim>1</dim>
					<dim>32</dim>
					<dim>1</dim>
					<dim>1</dim>
				</port>
			</input>
			<output>
				<port id="1" precision="FP32">
					<dim>1</dim>
					<dim>32</dim>
					<dim>1</dim>
					<dim>1</dim>
				</port>
			</output>
		</layer>
		<layer id="138" name="513" type="Add" version="opset1">
			<data auto_broadcast="numpy"/>
			<rt_info>
				<attribute name="fused_names" version="0" value="513, Concat_1825, Reshape_1826"/>
			</rt_info>
			<input>
				<port id="0" precision="FP32">
					<dim>1</dim>
					<dim>32</dim>
					<dim>88</dim>
					<dim>88</dim>
				</port>
				<port id="1" precision="FP32">
					<dim>1</dim>
					<dim>32</dim>
					<dim>1</dim>
					<dim>1</dim>
				</port>
			</input>
			<output>
				<port id="2" precision="FP32" names="513">
					<dim>1</dim>
					<dim>32</dim>
					<dim>88</dim>
					<dim>88</dim>
				</port>
			</output>
		</layer>
		<layer id="139" name="Multiply_68737_compressed" type="Const" version="opset1">
			<data element_type="f16" shape="192, 32, 1, 1" offset="111682" size="12288"/>
			<output>
				<port id="0" precision="FP16">
					<dim>192</dim>
					<dim>32</dim>
					<dim>1</dim>
					<dim>1</dim>
				</port>
			</output>
		</layer>
		<layer id="140" name="Multiply_68737" type="Convert" version="opset1">
			<data destination_type="f32"/>
			<rt_info>
				<attribute name="decompression" version="0"/>
			</rt_info>
			<input>
				<port id="0" precision="FP16">
					<dim>192</dim>
					<dim>32</dim>
					<dim>1</dim>
					<dim>1</dim>
				</port>
			</input>
			<output>
				<port id="1" precision="FP32">
					<dim>192</dim>
					<dim>32</dim>
					<dim>1</dim>
					<dim>1</dim>
				</port>
			</output>
		</layer>
		<layer id="141" name="Multiply_68308" type="Convolution" version="opset1">
			<data strides="1, 1" dilations="1, 1" pads_begin="0, 0" pads_end="0, 0" auto_pad="explicit"/>
			<rt_info>
				<attribute name="fused_names" version="0" value="418, 419, backbone.features.stage4.unit1.conv1.bn.bias, backbone.features.stage4.unit1.conv1.bn.running_mean, backbone.features.stage4.unit1.conv1.bn.running_var, backbone.features.stage4.unit1.conv1.bn.weight"/>
			</rt_info>
			<input>
				<port id="0" precision="FP32">
					<dim>1</dim>
					<dim>32</dim>
					<dim>88</dim>
					<dim>88</dim>
				</port>
				<port id="1" precision="FP32">
					<dim>192</dim>
					<dim>32</dim>
					<dim>1</dim>
					<dim>1</dim>
				</port>
			</input>
			<output>
				<port id="2" precision="FP32">
					<dim>1</dim>
					<dim>192</dim>
					<dim>88</dim>
					<dim>88</dim>
				</port>
			</output>
		</layer>
		<layer id="142" name="Constant_68313_compressed" type="Const" version="opset1">
			<data element_type="f16" shape="1, 192, 1, 1" offset="123970" size="384"/>
			<output>
				<port id="0" precision="FP16">
					<dim>1</dim>
					<dim>192</dim>
					<dim>1</dim>
					<dim>1</dim>
				</port>
			</output>
		</layer>
		<layer id="143" name="Constant_68313" type="Convert" version="opset1">
			<data destination_type="f32"/>
			<rt_info>
				<attribute name="decompression" version="0"/>
			</rt_info>
			<input>
				<port id="0" precision="FP16">
					<dim>1</dim>
					<dim>192</dim>
					<dim>1</dim>
					<dim>1</dim>
				</port>
			</input>
			<output>
				<port id="1" precision="FP32">
					<dim>1</dim>
					<dim>192</dim>
					<dim>1</dim>
					<dim>1</dim>
				</port>
			</output>
		</layer>
		<layer id="144" name="419" type="Add" version="opset1">
			<data auto_broadcast="numpy"/>
			<rt_info>
				<attribute name="fused_names" version="0" value="419, backbone.features.stage4.unit1.conv1.bn.bias, backbone.features.stage4.unit1.conv1.bn.running_mean, backbone.features.stage4.unit1.conv1.bn.running_var, backbone.features.stage4.unit1.conv1.bn.weight"/>
			</rt_info>
			<input>
				<port id="0" precision="FP32">
					<dim>1</dim>
					<dim>192</dim>
					<dim>88</dim>
					<dim>88</dim>
				</port>
				<port id="1" precision="FP32">
					<dim>1</dim>
					<dim>192</dim>
					<dim>1</dim>
					<dim>1</dim>
				</port>
			</input>
			<output>
				<port id="2" precision="FP32" names="419">
					<dim>1</dim>
					<dim>192</dim>
					<dim>88</dim>
					<dim>88</dim>
				</port>
			</output>
		</layer>
		<layer id="145" name="420" type="Clamp" version="opset1">
			<data min="0" max="6"/>
			<rt_info>
				<attribute name="fused_names" version="0" value="420"/>
			</rt_info>
			<input>
				<port id="0" precision="FP32">
					<dim>1</dim>
					<dim>192</dim>
					<dim>88</dim>
					<dim>88</dim>
				</port>
			</input>
			<output>
				<port id="1" precision="FP32" names="420">
					<dim>1</dim>
					<dim>192</dim>
					<dim>88</dim>
					<dim>88</dim>
				</port>
			</output>
		</layer>
		<layer id="146" name="Multiply_68746_compressed" type="Const" version="opset1">
			<data element_type="f16" shape="192, 1, 1, 3, 3" offset="124354" size="3456"/>
			<output>
				<port id="0" precision="FP16">
					<dim>192</dim>
					<dim>1</dim>
					<dim>1</dim>
					<dim>3</dim>
					<dim>3</dim>
				</port>
			</output>
		</layer>
		<layer id="147" name="Multiply_68746" type="Convert" version="opset1">
			<data destination_type="f32"/>
			<rt_info>
				<attribute name="decompression" version="0"/>
			</rt_info>
			<input>
				<port id="0" precision="FP16">
					<dim>192</dim>
					<dim>1</dim>
					<dim>1</dim>
					<dim>3</dim>
					<dim>3</dim>
				</port>
			</input>
			<output>
				<port id="1" precision="FP32">
					<dim>192</dim>
					<dim>1</dim>
					<dim>1</dim>
					<dim>3</dim>
					<dim>3</dim>
				</port>
			</output>
		</layer>
		<layer id="148" name="Multiply_68315" type="GroupConvolution" version="opset1">
			<data strides="2, 2" pads_begin="1, 1" pads_end="1, 1" dilations="1, 1" auto_pad="explicit"/>
			<rt_info>
				<attribute name="fused_names" version="0" value="422, backbone.features.stage4.unit1.conv2.bn.bias, backbone.features.stage4.unit1.conv2.bn.running_mean, backbone.features.stage4.unit1.conv2.bn.running_var, backbone.features.stage4.unit1.conv2.bn.weight"/>
			</rt_info>
			<input>
				<port id="0" precision="FP32">
					<dim>1</dim>
					<dim>192</dim>
					<dim>88</dim>
					<dim>88</dim>
				</port>
				<port id="1" precision="FP32">
					<dim>192</dim>
					<dim>1</dim>
					<dim>1</dim>
					<dim>3</dim>
					<dim>3</dim>
				</port>
			</input>
			<output>
				<port id="2" precision="FP32" names="421">
					<dim>1</dim>
					<dim>192</dim>
					<dim>44</dim>
					<dim>44</dim>
				</port>
			</output>
		</layer>
		<layer id="149" name="Constant_68320_compressed" type="Const" version="opset1">
			<data element_type="f16" shape="1, 192, 1, 1" offset="127810" size="384"/>
			<output>
				<port id="0" precision="FP16">
					<dim>1</dim>
					<dim>192</dim>
					<dim>1</dim>
					<dim>1</dim>
				</port>
			</output>
		</layer>
		<layer id="150" name="Constant_68320" type="Convert" version="opset1">
			<data destination_type="f32"/>
			<rt_info>
				<attribute name="decompression" version="0"/>
			</rt_info>
			<input>
				<port id="0" precision="FP16">
					<dim>1</dim>
					<dim>192</dim>
					<dim>1</dim>
					<dim>1</dim>
				</port>
			</input>
			<output>
				<port id="1" precision="FP32">
					<dim>1</dim>
					<dim>192</dim>
					<dim>1</dim>
					<dim>1</dim>
				</port>
			</output>
		</layer>
		<layer id="151" name="422" type="Add" version="opset1">
			<data auto_broadcast="numpy"/>
			<rt_info>
				<attribute name="fused_names" version="0" value="422, backbone.features.stage4.unit1.conv2.bn.bias, backbone.features.stage4.unit1.conv2.bn.running_mean, backbone.features.stage4.unit1.conv2.bn.running_var, backbone.features.stage4.unit1.conv2.bn.weight"/>
			</rt_info>
			<input>
				<port id="0" precision="FP32">
					<dim>1</dim>
					<dim>192</dim>
					<dim>44</dim>
					<dim>44</dim>
				</port>
				<port id="1" precision="FP32">
					<dim>1</dim>
					<dim>192</dim>
					<dim>1</dim>
					<dim>1</dim>
				</port>
			</input>
			<output>
				<port id="2" precision="FP32" names="422">
					<dim>1</dim>
					<dim>192</dim>
					<dim>44</dim>
					<dim>44</dim>
				</port>
			</output>
		</layer>
		<layer id="152" name="423" type="Clamp" version="opset1">
			<data min="0" max="6"/>
			<rt_info>
				<attribute name="fused_names" version="0" value="423"/>
			</rt_info>
			<input>
				<port id="0" precision="FP32">
					<dim>1</dim>
					<dim>192</dim>
					<dim>44</dim>
					<dim>44</dim>
				</port>
			</input>
			<output>
				<port id="1" precision="FP32" names="423">
					<dim>1</dim>
					<dim>192</dim>
					<dim>44</dim>
					<dim>44</dim>
				</port>
			</output>
		</layer>
		<layer id="153" name="Multiply_68754_compressed" type="Const" version="opset1">
			<data element_type="f16" shape="64, 192, 1, 1" offset="128194" size="24576"/>
			<output>
				<port id="0" precision="FP16">
					<dim>64</dim>
					<dim>192</dim>
					<dim>1</dim>
					<dim>1</dim>
				</port>
			</output>
		</layer>
		<layer id="154" name="Multiply_68754" type="Convert" version="opset1">
			<data destination_type="f32"/>
			<rt_info>
				<attribute name="decompression" version="0"/>
			</rt_info>
			<input>
				<port id="0" precision="FP16">
					<dim>64</dim>
					<dim>192</dim>
					<dim>1</dim>
					<dim>1</dim>
				</port>
			</input>
			<output>
				<port id="1" precision="FP32">
					<dim>64</dim>
					<dim>192</dim>
					<dim>1</dim>
					<dim>1</dim>
				</port>
			</output>
		</layer>
		<layer id="155" name="Multiply_68322" type="Convolution" version="opset1">
			<data strides="1, 1" dilations="1, 1" pads_begin="0, 0" pads_end="0, 0" auto_pad="explicit"/>
			<rt_info>
				<attribute name="fused_names" version="0" value="424, 425, backbone.features.stage4.unit1.conv3.bn.bias, backbone.features.stage4.unit1.conv3.bn.running_mean, backbone.features.stage4.unit1.conv3.bn.running_var, backbone.features.stage4.unit1.conv3.bn.weight"/>
			</rt_info>
			<input>
				<port id="0" precision="FP32">
					<dim>1</dim>
					<dim>192</dim>
					<dim>44</dim>
					<dim>44</dim>
				</port>
				<port id="1" precision="FP32">
					<dim>64</dim>
					<dim>192</dim>
					<dim>1</dim>
					<dim>1</dim>
				</port>
			</input>
			<output>
				<port id="2" precision="FP32">
					<dim>1</dim>
					<dim>64</dim>
					<dim>44</dim>
					<dim>44</dim>
				</port>
			</output>
		</layer>
		<layer id="156" name="Constant_68327_compressed" type="Const" version="opset1">
			<data element_type="f16" shape="1, 64, 1, 1" offset="152770" size="128"/>
			<output>
				<port id="0" precision="FP16">
					<dim>1</dim>
					<dim>64</dim>
					<dim>1</dim>
					<dim>1</dim>
				</port>
			</output>
		</layer>
		<layer id="157" name="Constant_68327" type="Convert" version="opset1">
			<data destination_type="f32"/>
			<rt_info>
				<attribute name="decompression" version="0"/>
			</rt_info>
			<input>
				<port id="0" precision="FP16">
					<dim>1</dim>
					<dim>64</dim>
					<dim>1</dim>
					<dim>1</dim>
				</port>
			</input>
			<output>
				<port id="1" precision="FP32">
					<dim>1</dim>
					<dim>64</dim>
					<dim>1</dim>
					<dim>1</dim>
				</port>
			</output>
		</layer>
		<layer id="158" name="425" type="Add" version="opset1">
			<data auto_broadcast="numpy"/>
			<rt_info>
				<attribute name="fused_names" version="0" value="425, backbone.features.stage4.unit1.conv3.bn.bias, backbone.features.stage4.unit1.conv3.bn.running_mean, backbone.features.stage4.unit1.conv3.bn.running_var, backbone.features.stage4.unit1.conv3.bn.weight"/>
			</rt_info>
			<input>
				<port id="0" precision="FP32">
					<dim>1</dim>
					<dim>64</dim>
					<dim>44</dim>
					<dim>44</dim>
				</port>
				<port id="1" precision="FP32">
					<dim>1</dim>
					<dim>64</dim>
					<dim>1</dim>
					<dim>1</dim>
				</port>
			</input>
			<output>
				<port id="2" precision="FP32" names="425">
					<dim>1</dim>
					<dim>64</dim>
					<dim>44</dim>
					<dim>44</dim>
				</port>
			</output>
		</layer>
		<layer id="159" name="Multiply_68763_compressed" type="Const" version="opset1">
			<data element_type="f16" shape="384, 64, 1, 1" offset="152898" size="49152"/>
			<output>
				<port id="0" precision="FP16">
					<dim>384</dim>
					<dim>64</dim>
					<dim>1</dim>
					<dim>1</dim>
				</port>
			</output>
		</layer>
		<layer id="160" name="Multiply_68763" type="Convert" version="opset1">
			<data destination_type="f32"/>
			<rt_info>
				<attribute name="decompression" version="0"/>
			</rt_info>
			<input>
				<port id="0" precision="FP16">
					<dim>384</dim>
					<dim>64</dim>
					<dim>1</dim>
					<dim>1</dim>
				</port>
			</input>
			<output>
				<port id="1" precision="FP32">
					<dim>384</dim>
					<dim>64</dim>
					<dim>1</dim>
					<dim>1</dim>
				</port>
			</output>
		</layer>
		<layer id="161" name="Multiply_68329" type="Convolution" version="opset1">
			<data strides="1, 1" dilations="1, 1" pads_begin="0, 0" pads_end="0, 0" auto_pad="explicit"/>
			<rt_info>
				<attribute name="fused_names" version="0" value="426, 427, backbone.features.stage4.unit2.conv1.bn.bias, backbone.features.stage4.unit2.conv1.bn.running_mean, backbone.features.stage4.unit2.conv1.bn.running_var, backbone.features.stage4.unit2.conv1.bn.weight"/>
			</rt_info>
			<input>
				<port id="0" precision="FP32">
					<dim>1</dim>
					<dim>64</dim>
					<dim>44</dim>
					<dim>44</dim>
				</port>
				<port id="1" precision="FP32">
					<dim>384</dim>
					<dim>64</dim>
					<dim>1</dim>
					<dim>1</dim>
				</port>
			</input>
			<output>
				<port id="2" precision="FP32">
					<dim>1</dim>
					<dim>384</dim>
					<dim>44</dim>
					<dim>44</dim>
				</port>
			</output>
		</layer>
		<layer id="162" name="Constant_68334_compressed" type="Const" version="opset1">
			<data element_type="f16" shape="1, 384, 1, 1" offset="202050" size="768"/>
			<output>
				<port id="0" precision="FP16">
					<dim>1</dim>
					<dim>384</dim>
					<dim>1</dim>
					<dim>1</dim>
				</port>
			</output>
		</layer>
		<layer id="163" name="Constant_68334" type="Convert" version="opset1">
			<data destination_type="f32"/>
			<rt_info>
				<attribute name="decompression" version="0"/>
			</rt_info>
			<input>
				<port id="0" precision="FP16">
					<dim>1</dim>
					<dim>384</dim>
					<dim>1</dim>
					<dim>1</dim>
				</port>
			</input>
			<output>
				<port id="1" precision="FP32">
					<dim>1</dim>
					<dim>384</dim>
					<dim>1</dim>
					<dim>1</dim>
				</port>
			</output>
		</layer>
		<layer id="164" name="427" type="Add" version="opset1">
			<data auto_broadcast="numpy"/>
			<rt_info>
				<attribute name="fused_names" version="0" value="427, backbone.features.stage4.unit2.conv1.bn.bias, backbone.features.stage4.unit2.conv1.bn.running_mean, backbone.features.stage4.unit2.conv1.bn.running_var, backbone.features.stage4.unit2.conv1.bn.weight"/>
			</rt_info>
			<input>
				<port id="0" precision="FP32">
					<dim>1</dim>
					<dim>384</dim>
					<dim>44</dim>
					<dim>44</dim>
				</port>
				<port id="1" precision="FP32">
					<dim>1</dim>
					<dim>384</dim>
					<dim>1</dim>
					<dim>1</dim>
				</port>
			</input>
			<output>
				<port id="2" precision="FP32" names="427">
					<dim>1</dim>
					<dim>384</dim>
					<dim>44</dim>
					<dim>44</dim>
				</port>
			</output>
		</layer>
		<layer id="165" name="428" type="Clamp" version="opset1">
			<data min="0" max="6"/>
			<rt_info>
				<attribute name="fused_names" version="0" value="428"/>
			</rt_info>
			<input>
				<port id="0" precision="FP32">
					<dim>1</dim>
					<dim>384</dim>
					<dim>44</dim>
					<dim>44</dim>
				</port>
			</input>
			<output>
				<port id="1" precision="FP32" names="428">
					<dim>1</dim>
					<dim>384</dim>
					<dim>44</dim>
					<dim>44</dim>
				</port>
			</output>
		</layer>
		<layer id="166" name="Multiply_68772_compressed" type="Const" version="opset1">
			<data element_type="f16" shape="384, 1, 1, 3, 3" offset="202818" size="6912"/>
			<output>
				<port id="0" precision="FP16">
					<dim>384</dim>
					<dim>1</dim>
					<dim>1</dim>
					<dim>3</dim>
					<dim>3</dim>
				</port>
			</output>
		</layer>
		<layer id="167" name="Multiply_68772" type="Convert" version="opset1">
			<data destination_type="f32"/>
			<rt_info>
				<attribute name="decompression" version="0"/>
			</rt_info>
			<input>
				<port id="0" precision="FP16">
					<dim>384</dim>
					<dim>1</dim>
					<dim>1</dim>
					<dim>3</dim>
					<dim>3</dim>
				</port>
			</input>
			<output>
				<port id="1" precision="FP32">
					<dim>384</dim>
					<dim>1</dim>
					<dim>1</dim>
					<dim>3</dim>
					<dim>3</dim>
				</port>
			</output>
		</layer>
		<layer id="168" name="Multiply_68336" type="GroupConvolution" version="opset1">
			<data strides="1, 1" pads_begin="1, 1" pads_end="1, 1" dilations="1, 1" auto_pad="explicit"/>
			<rt_info>
				<attribute name="fused_names" version="0" value="430, backbone.features.stage4.unit2.conv2.bn.bias, backbone.features.stage4.unit2.conv2.bn.running_mean, backbone.features.stage4.unit2.conv2.bn.running_var, backbone.features.stage4.unit2.conv2.bn.weight"/>
			</rt_info>
			<input>
				<port id="0" precision="FP32">
					<dim>1</dim>
					<dim>384</dim>
					<dim>44</dim>
					<dim>44</dim>
				</port>
				<port id="1" precision="FP32">
					<dim>384</dim>
					<dim>1</dim>
					<dim>1</dim>
					<dim>3</dim>
					<dim>3</dim>
				</port>
			</input>
			<output>
				<port id="2" precision="FP32" names="429">
					<dim>1</dim>
					<dim>384</dim>
					<dim>44</dim>
					<dim>44</dim>
				</port>
			</output>
		</layer>
		<layer id="169" name="Constant_68341_compressed" type="Const" version="opset1">
			<data element_type="f16" shape="1, 384, 1, 1" offset="209730" size="768"/>
			<output>
				<port id="0" precision="FP16">
					<dim>1</dim>
					<dim>384</dim>
					<dim>1</dim>
					<dim>1</dim>
				</port>
			</output>
		</layer>
		<layer id="170" name="Constant_68341" type="Convert" version="opset1">
			<data destination_type="f32"/>
			<rt_info>
				<attribute name="decompression" version="0"/>
			</rt_info>
			<input>
				<port id="0" precision="FP16">
					<dim>1</dim>
					<dim>384</dim>
					<dim>1</dim>
					<dim>1</dim>
				</port>
			</input>
			<output>
				<port id="1" precision="FP32">
					<dim>1</dim>
					<dim>384</dim>
					<dim>1</dim>
					<dim>1</dim>
				</port>
			</output>
		</layer>
		<layer id="171" name="430" type="Add" version="opset1">
			<data auto_broadcast="numpy"/>
			<rt_info>
				<attribute name="fused_names" version="0" value="430, backbone.features.stage4.unit2.conv2.bn.bias, backbone.features.stage4.unit2.conv2.bn.running_mean, backbone.features.stage4.unit2.conv2.bn.running_var, backbone.features.stage4.unit2.conv2.bn.weight"/>
			</rt_info>
			<input>
				<port id="0" precision="FP32">
					<dim>1</dim>
					<dim>384</dim>
					<dim>44</dim>
					<dim>44</dim>
				</port>
				<port id="1" precision="FP32">
					<dim>1</dim>
					<dim>384</dim>
					<dim>1</dim>
					<dim>1</dim>
				</port>
			</input>
			<output>
				<port id="2" precision="FP32" names="430">
					<dim>1</dim>
					<dim>384</dim>
					<dim>44</dim>
					<dim>44</dim>
				</port>
			</output>
		</layer>
		<layer id="172" name="431" type="Clamp" version="opset1">
			<data min="0" max="6"/>
			<rt_info>
				<attribute name="fused_names" version="0" value="431"/>
			</rt_info>
			<input>
				<port id="0" precision="FP32">
					<dim>1</dim>
					<dim>384</dim>
					<dim>44</dim>
					<dim>44</dim>
				</port>
			</input>
			<output>
				<port id="1" precision="FP32" names="431">
					<dim>1</dim>
					<dim>384</dim>
					<dim>44</dim>
					<dim>44</dim>
				</port>
			</output>
		</layer>
		<layer id="173" name="Multiply_68780_compressed" type="Const" version="opset1">
			<data element_type="f16" shape="64, 384, 1, 1" offset="210498" size="49152"/>
			<output>
				<port id="0" precision="FP16">
					<dim>64</dim>
					<dim>384</dim>
					<dim>1</dim>
					<dim>1</dim>
				</port>
			</output>
		</layer>
		<layer id="174" name="Multiply_68780" type="Convert" version="opset1">
			<data destination_type="f32"/>
			<rt_info>
				<attribute name="decompression" version="0"/>
			</rt_info>
			<input>
				<port id="0" precision="FP16">
					<dim>64</dim>
					<dim>384</dim>
					<dim>1</dim>
					<dim>1</dim>
				</port>
			</input>
			<output>
				<port id="1" precision="FP32">
					<dim>64</dim>
					<dim>384</dim>
					<dim>1</dim>
					<dim>1</dim>
				</port>
			</output>
		</layer>
		<layer id="175" name="Multiply_68343" type="Convolution" version="opset1">
			<data strides="1, 1" dilations="1, 1" pads_begin="0, 0" pads_end="0, 0" auto_pad="explicit"/>
			<rt_info>
				<attribute name="fused_names" version="0" value="432, 433, backbone.features.stage4.unit2.conv3.bn.bias, backbone.features.stage4.unit2.conv3.bn.running_mean, backbone.features.stage4.unit2.conv3.bn.running_var, backbone.features.stage4.unit2.conv3.bn.weight"/>
			</rt_info>
			<input>
				<port id="0" precision="FP32">
					<dim>1</dim>
					<dim>384</dim>
					<dim>44</dim>
					<dim>44</dim>
				</port>
				<port id="1" precision="FP32">
					<dim>64</dim>
					<dim>384</dim>
					<dim>1</dim>
					<dim>1</dim>
				</port>
			</input>
			<output>
				<port id="2" precision="FP32">
					<dim>1</dim>
					<dim>64</dim>
					<dim>44</dim>
					<dim>44</dim>
				</port>
			</output>
		</layer>
		<layer id="176" name="Constant_68348_compressed" type="Const" version="opset1">
			<data element_type="f16" shape="1, 64, 1, 1" offset="259650" size="128"/>
			<output>
				<port id="0" precision="FP16">
					<dim>1</dim>
					<dim>64</dim>
					<dim>1</dim>
					<dim>1</dim>
				</port>
			</output>
		</layer>
		<layer id="177" name="Constant_68348" type="Convert" version="opset1">
			<data destination_type="f32"/>
			<rt_info>
				<attribute name="decompression" version="0"/>
			</rt_info>
			<input>
				<port id="0" precision="FP16">
					<dim>1</dim>
					<dim>64</dim>
					<dim>1</dim>
					<dim>1</dim>
				</port>
			</input>
			<output>
				<port id="1" precision="FP32">
					<dim>1</dim>
					<dim>64</dim>
					<dim>1</dim>
					<dim>1</dim>
				</port>
			</output>
		</layer>
		<layer id="178" name="433" type="Add" version="opset1">
			<data auto_broadcast="numpy"/>
			<rt_info>
				<attribute name="fused_names" version="0" value="433, backbone.features.stage4.unit2.conv3.bn.bias, backbone.features.stage4.unit2.conv3.bn.running_mean, backbone.features.stage4.unit2.conv3.bn.running_var, backbone.features.stage4.unit2.conv3.bn.weight"/>
			</rt_info>
			<input>
				<port id="0" precision="FP32">
					<dim>1</dim>
					<dim>64</dim>
					<dim>44</dim>
					<dim>44</dim>
				</port>
				<port id="1" precision="FP32">
					<dim>1</dim>
					<dim>64</dim>
					<dim>1</dim>
					<dim>1</dim>
				</port>
			</input>
			<output>
				<port id="2" precision="FP32" names="433">
					<dim>1</dim>
					<dim>64</dim>
					<dim>44</dim>
					<dim>44</dim>
				</port>
			</output>
		</layer>
		<layer id="179" name="434" type="Add" version="opset1">
			<data auto_broadcast="numpy"/>
			<rt_info>
				<attribute name="fused_names" version="0" value="434"/>
			</rt_info>
			<input>
				<port id="0" precision="FP32">
					<dim>1</dim>
					<dim>64</dim>
					<dim>44</dim>
					<dim>44</dim>
				</port>
				<port id="1" precision="FP32">
					<dim>1</dim>
					<dim>64</dim>
					<dim>44</dim>
					<dim>44</dim>
				</port>
			</input>
			<output>
				<port id="2" precision="FP32" names="434">
					<dim>1</dim>
					<dim>64</dim>
					<dim>44</dim>
					<dim>44</dim>
				</port>
			</output>
		</layer>
		<layer id="180" name="Multiply_68789_compressed" type="Const" version="opset1">
			<data element_type="f16" shape="384, 64, 1, 1" offset="259778" size="49152"/>
			<output>
				<port id="0" precision="FP16">
					<dim>384</dim>
					<dim>64</dim>
					<dim>1</dim>
					<dim>1</dim>
				</port>
			</output>
		</layer>
		<layer id="181" name="Multiply_68789" type="Convert" version="opset1">
			<data destination_type="f32"/>
			<rt_info>
				<attribute name="decompression" version="0"/>
			</rt_info>
			<input>
				<port id="0" precision="FP16">
					<dim>384</dim>
					<dim>64</dim>
					<dim>1</dim>
					<dim>1</dim>
				</port>
			</input>
			<output>
				<port id="1" precision="FP32">
					<dim>384</dim>
					<dim>64</dim>
					<dim>1</dim>
					<dim>1</dim>
				</port>
			</output>
		</layer>
		<layer id="182" name="Multiply_68350" type="Convolution" version="opset1">
			<data strides="1, 1" dilations="1, 1" pads_begin="0, 0" pads_end="0, 0" auto_pad="explicit"/>
			<rt_info>
				<attribute name="fused_names" version="0" value="435, 436, backbone.features.stage4.unit3.conv1.bn.bias, backbone.features.stage4.unit3.conv1.bn.running_mean, backbone.features.stage4.unit3.conv1.bn.running_var, backbone.features.stage4.unit3.conv1.bn.weight"/>
			</rt_info>
			<input>
				<port id="0" precision="FP32">
					<dim>1</dim>
					<dim>64</dim>
					<dim>44</dim>
					<dim>44</dim>
				</port>
				<port id="1" precision="FP32">
					<dim>384</dim>
					<dim>64</dim>
					<dim>1</dim>
					<dim>1</dim>
				</port>
			</input>
			<output>
				<port id="2" precision="FP32">
					<dim>1</dim>
					<dim>384</dim>
					<dim>44</dim>
					<dim>44</dim>
				</port>
			</output>
		</layer>
		<layer id="183" name="Constant_68355_compressed" type="Const" version="opset1">
			<data element_type="f16" shape="1, 384, 1, 1" offset="308930" size="768"/>
			<output>
				<port id="0" precision="FP16">
					<dim>1</dim>
					<dim>384</dim>
					<dim>1</dim>
					<dim>1</dim>
				</port>
			</output>
		</layer>
		<layer id="184" name="Constant_68355" type="Convert" version="opset1">
			<data destination_type="f32"/>
			<rt_info>
				<attribute name="decompression" version="0"/>
			</rt_info>
			<input>
				<port id="0" precision="FP16">
					<dim>1</dim>
					<dim>384</dim>
					<dim>1</dim>
					<dim>1</dim>
				</port>
			</input>
			<output>
				<port id="1" precision="FP32">
					<dim>1</dim>
					<dim>384</dim>
					<dim>1</dim>
					<dim>1</dim>
				</port>
			</output>
		</layer>
		<layer id="185" name="436" type="Add" version="opset1">
			<data auto_broadcast="numpy"/>
			<rt_info>
				<attribute name="fused_names" version="0" value="436, backbone.features.stage4.unit3.conv1.bn.bias, backbone.features.stage4.unit3.conv1.bn.running_mean, backbone.features.stage4.unit3.conv1.bn.running_var, backbone.features.stage4.unit3.conv1.bn.weight"/>
			</rt_info>
			<input>
				<port id="0" precision="FP32">
					<dim>1</dim>
					<dim>384</dim>
					<dim>44</dim>
					<dim>44</dim>
				</port>
				<port id="1" precision="FP32">
					<dim>1</dim>
					<dim>384</dim>
					<dim>1</dim>
					<dim>1</dim>
				</port>
			</input>
			<output>
				<port id="2" precision="FP32" names="436">
					<dim>1</dim>
					<dim>384</dim>
					<dim>44</dim>
					<dim>44</dim>
				</port>
			</output>
		</layer>
		<layer id="186" name="437" type="Clamp" version="opset1">
			<data min="0" max="6"/>
			<rt_info>
				<attribute name="fused_names" version="0" value="437"/>
			</rt_info>
			<input>
				<port id="0" precision="FP32">
					<dim>1</dim>
					<dim>384</dim>
					<dim>44</dim>
					<dim>44</dim>
				</port>
			</input>
			<output>
				<port id="1" precision="FP32" names="437">
					<dim>1</dim>
					<dim>384</dim>
					<dim>44</dim>
					<dim>44</dim>
				</port>
			</output>
		</layer>
		<layer id="187" name="Multiply_68798_compressed" type="Const" version="opset1">
			<data element_type="f16" shape="384, 1, 1, 3, 3" offset="309698" size="6912"/>
			<output>
				<port id="0" precision="FP16">
					<dim>384</dim>
					<dim>1</dim>
					<dim>1</dim>
					<dim>3</dim>
					<dim>3</dim>
				</port>
			</output>
		</layer>
		<layer id="188" name="Multiply_68798" type="Convert" version="opset1">
			<data destination_type="f32"/>
			<rt_info>
				<attribute name="decompression" version="0"/>
			</rt_info>
			<input>
				<port id="0" precision="FP16">
					<dim>384</dim>
					<dim>1</dim>
					<dim>1</dim>
					<dim>3</dim>
					<dim>3</dim>
				</port>
			</input>
			<output>
				<port id="1" precision="FP32">
					<dim>384</dim>
					<dim>1</dim>
					<dim>1</dim>
					<dim>3</dim>
					<dim>3</dim>
				</port>
			</output>
		</layer>
		<layer id="189" name="Multiply_68357" type="GroupConvolution" version="opset1">
			<data strides="1, 1" pads_begin="1, 1" pads_end="1, 1" dilations="1, 1" auto_pad="explicit"/>
			<rt_info>
				<attribute name="fused_names" version="0" value="439, backbone.features.stage4.unit3.conv2.bn.bias, backbone.features.stage4.unit3.conv2.bn.running_mean, backbone.features.stage4.unit3.conv2.bn.running_var, backbone.features.stage4.unit3.conv2.bn.weight"/>
			</rt_info>
			<input>
				<port id="0" precision="FP32">
					<dim>1</dim>
					<dim>384</dim>
					<dim>44</dim>
					<dim>44</dim>
				</port>
				<port id="1" precision="FP32">
					<dim>384</dim>
					<dim>1</dim>
					<dim>1</dim>
					<dim>3</dim>
					<dim>3</dim>
				</port>
			</input>
			<output>
				<port id="2" precision="FP32" names="438">
					<dim>1</dim>
					<dim>384</dim>
					<dim>44</dim>
					<dim>44</dim>
				</port>
			</output>
		</layer>
		<layer id="190" name="Constant_68362_compressed" type="Const" version="opset1">
			<data element_type="f16" shape="1, 384, 1, 1" offset="316610" size="768"/>
			<output>
				<port id="0" precision="FP16">
					<dim>1</dim>
					<dim>384</dim>
					<dim>1</dim>
					<dim>1</dim>
				</port>
			</output>
		</layer>
		<layer id="191" name="Constant_68362" type="Convert" version="opset1">
			<data destination_type="f32"/>
			<rt_info>
				<attribute name="decompression" version="0"/>
			</rt_info>
			<input>
				<port id="0" precision="FP16">
					<dim>1</dim>
					<dim>384</dim>
					<dim>1</dim>
					<dim>1</dim>
				</port>
			</input>
			<output>
				<port id="1" precision="FP32">
					<dim>1</dim>
					<dim>384</dim>
					<dim>1</dim>
					<dim>1</dim>
				</port>
			</output>
		</layer>
		<layer id="192" name="439" type="Add" version="opset1">
			<data auto_broadcast="numpy"/>
			<rt_info>
				<attribute name="fused_names" version="0" value="439, backbone.features.stage4.unit3.conv2.bn.bias, backbone.features.stage4.unit3.conv2.bn.running_mean, backbone.features.stage4.unit3.conv2.bn.running_var, backbone.features.stage4.unit3.conv2.bn.weight"/>
			</rt_info>
			<input>
				<port id="0" precision="FP32">
					<dim>1</dim>
					<dim>384</dim>
					<dim>44</dim>
					<dim>44</dim>
				</port>
				<port id="1" precision="FP32">
					<dim>1</dim>
					<dim>384</dim>
					<dim>1</dim>
					<dim>1</dim>
				</port>
			</input>
			<output>
				<port id="2" precision="FP32" names="439">
					<dim>1</dim>
					<dim>384</dim>
					<dim>44</dim>
					<dim>44</dim>
				</port>
			</output>
		</layer>
		<layer id="193" name="440" type="Clamp" version="opset1">
			<data min="0" max="6"/>
			<rt_info>
				<attribute name="fused_names" version="0" value="440"/>
			</rt_info>
			<input>
				<port id="0" precision="FP32">
					<dim>1</dim>
					<dim>384</dim>
					<dim>44</dim>
					<dim>44</dim>
				</port>
			</input>
			<output>
				<port id="1" precision="FP32" names="440">
					<dim>1</dim>
					<dim>384</dim>
					<dim>44</dim>
					<dim>44</dim>
				</port>
			</output>
		</layer>
		<layer id="194" name="Multiply_68806_compressed" type="Const" version="opset1">
			<data element_type="f16" shape="64, 384, 1, 1" offset="317378" size="49152"/>
			<output>
				<port id="0" precision="FP16">
					<dim>64</dim>
					<dim>384</dim>
					<dim>1</dim>
					<dim>1</dim>
				</port>
			</output>
		</layer>
		<layer id="195" name="Multiply_68806" type="Convert" version="opset1">
			<data destination_type="f32"/>
			<rt_info>
				<attribute name="decompression" version="0"/>
			</rt_info>
			<input>
				<port id="0" precision="FP16">
					<dim>64</dim>
					<dim>384</dim>
					<dim>1</dim>
					<dim>1</dim>
				</port>
			</input>
			<output>
				<port id="1" precision="FP32">
					<dim>64</dim>
					<dim>384</dim>
					<dim>1</dim>
					<dim>1</dim>
				</port>
			</output>
		</layer>
		<layer id="196" name="Multiply_68364" type="Convolution" version="opset1">
			<data strides="1, 1" dilations="1, 1" pads_begin="0, 0" pads_end="0, 0" auto_pad="explicit"/>
			<rt_info>
				<attribute name="fused_names" version="0" value="441, 442, backbone.features.stage4.unit3.conv3.bn.bias, backbone.features.stage4.unit3.conv3.bn.running_mean, backbone.features.stage4.unit3.conv3.bn.running_var, backbone.features.stage4.unit3.conv3.bn.weight"/>
			</rt_info>
			<input>
				<port id="0" precision="FP32">
					<dim>1</dim>
					<dim>384</dim>
					<dim>44</dim>
					<dim>44</dim>
				</port>
				<port id="1" precision="FP32">
					<dim>64</dim>
					<dim>384</dim>
					<dim>1</dim>
					<dim>1</dim>
				</port>
			</input>
			<output>
				<port id="2" precision="FP32">
					<dim>1</dim>
					<dim>64</dim>
					<dim>44</dim>
					<dim>44</dim>
				</port>
			</output>
		</layer>
		<layer id="197" name="Constant_68369_compressed" type="Const" version="opset1">
			<data element_type="f16" shape="1, 64, 1, 1" offset="366530" size="128"/>
			<output>
				<port id="0" precision="FP16">
					<dim>1</dim>
					<dim>64</dim>
					<dim>1</dim>
					<dim>1</dim>
				</port>
			</output>
		</layer>
		<layer id="198" name="Constant_68369" type="Convert" version="opset1">
			<data destination_type="f32"/>
			<rt_info>
				<attribute name="decompression" version="0"/>
			</rt_info>
			<input>
				<port id="0" precision="FP16">
					<dim>1</dim>
					<dim>64</dim>
					<dim>1</dim>
					<dim>1</dim>
				</port>
			</input>
			<output>
				<port id="1" precision="FP32">
					<dim>1</dim>
					<dim>64</dim>
					<dim>1</dim>
					<dim>1</dim>
				</port>
			</output>
		</layer>
		<layer id="199" name="442" type="Add" version="opset1">
			<data auto_broadcast="numpy"/>
			<rt_info>
				<attribute name="fused_names" version="0" value="442, backbone.features.stage4.unit3.conv3.bn.bias, backbone.features.stage4.unit3.conv3.bn.running_mean, backbone.features.stage4.unit3.conv3.bn.running_var, backbone.features.stage4.unit3.conv3.bn.weight"/>
			</rt_info>
			<input>
				<port id="0" precision="FP32">
					<dim>1</dim>
					<dim>64</dim>
					<dim>44</dim>
					<dim>44</dim>
				</port>
				<port id="1" precision="FP32">
					<dim>1</dim>
					<dim>64</dim>
					<dim>1</dim>
					<dim>1</dim>
				</port>
			</input>
			<output>
				<port id="2" precision="FP32" names="442">
					<dim>1</dim>
					<dim>64</dim>
					<dim>44</dim>
					<dim>44</dim>
				</port>
			</output>
		</layer>
		<layer id="200" name="443" type="Add" version="opset1">
			<data auto_broadcast="numpy"/>
			<rt_info>
				<attribute name="fused_names" version="0" value="443"/>
			</rt_info>
			<input>
				<port id="0" precision="FP32">
					<dim>1</dim>
					<dim>64</dim>
					<dim>44</dim>
					<dim>44</dim>
				</port>
				<port id="1" precision="FP32">
					<dim>1</dim>
					<dim>64</dim>
					<dim>44</dim>
					<dim>44</dim>
				</port>
			</input>
			<output>
				<port id="2" precision="FP32" names="443">
					<dim>1</dim>
					<dim>64</dim>
					<dim>44</dim>
					<dim>44</dim>
				</port>
			</output>
		</layer>
		<layer id="201" name="Multiply_68815_compressed" type="Const" version="opset1">
			<data element_type="f16" shape="384, 64, 1, 1" offset="366658" size="49152"/>
			<output>
				<port id="0" precision="FP16">
					<dim>384</dim>
					<dim>64</dim>
					<dim>1</dim>
					<dim>1</dim>
				</port>
			</output>
		</layer>
		<layer id="202" name="Multiply_68815" type="Convert" version="opset1">
			<data destination_type="f32"/>
			<rt_info>
				<attribute name="decompression" version="0"/>
			</rt_info>
			<input>
				<port id="0" precision="FP16">
					<dim>384</dim>
					<dim>64</dim>
					<dim>1</dim>
					<dim>1</dim>
				</port>
			</input>
			<output>
				<port id="1" precision="FP32">
					<dim>384</dim>
					<dim>64</dim>
					<dim>1</dim>
					<dim>1</dim>
				</port>
			</output>
		</layer>
		<layer id="203" name="Multiply_68371" type="Convolution" version="opset1">
			<data strides="1, 1" dilations="1, 1" pads_begin="0, 0" pads_end="0, 0" auto_pad="explicit"/>
			<rt_info>
				<attribute name="fused_names" version="0" value="444, 445, backbone.features.stage4.unit4.conv1.bn.bias, backbone.features.stage4.unit4.conv1.bn.running_mean, backbone.features.stage4.unit4.conv1.bn.running_var, backbone.features.stage4.unit4.conv1.bn.weight"/>
			</rt_info>
			<input>
				<port id="0" precision="FP32">
					<dim>1</dim>
					<dim>64</dim>
					<dim>44</dim>
					<dim>44</dim>
				</port>
				<port id="1" precision="FP32">
					<dim>384</dim>
					<dim>64</dim>
					<dim>1</dim>
					<dim>1</dim>
				</port>
			</input>
			<output>
				<port id="2" precision="FP32">
					<dim>1</dim>
					<dim>384</dim>
					<dim>44</dim>
					<dim>44</dim>
				</port>
			</output>
		</layer>
		<layer id="204" name="Constant_68376_compressed" type="Const" version="opset1">
			<data element_type="f16" shape="1, 384, 1, 1" offset="415810" size="768"/>
			<output>
				<port id="0" precision="FP16">
					<dim>1</dim>
					<dim>384</dim>
					<dim>1</dim>
					<dim>1</dim>
				</port>
			</output>
		</layer>
		<layer id="205" name="Constant_68376" type="Convert" version="opset1">
			<data destination_type="f32"/>
			<rt_info>
				<attribute name="decompression" version="0"/>
			</rt_info>
			<input>
				<port id="0" precision="FP16">
					<dim>1</dim>
					<dim>384</dim>
					<dim>1</dim>
					<dim>1</dim>
				</port>
			</input>
			<output>
				<port id="1" precision="FP32">
					<dim>1</dim>
					<dim>384</dim>
					<dim>1</dim>
					<dim>1</dim>
				</port>
			</output>
		</layer>
		<layer id="206" name="445" type="Add" version="opset1">
			<data auto_broadcast="numpy"/>
			<rt_info>
				<attribute name="fused_names" version="0" value="445, backbone.features.stage4.unit4.conv1.bn.bias, backbone.features.stage4.unit4.conv1.bn.running_mean, backbone.features.stage4.unit4.conv1.bn.running_var, backbone.features.stage4.unit4.conv1.bn.weight"/>
			</rt_info>
			<input>
				<port id="0" precision="FP32">
					<dim>1</dim>
					<dim>384</dim>
					<dim>44</dim>
					<dim>44</dim>
				</port>
				<port id="1" precision="FP32">
					<dim>1</dim>
					<dim>384</dim>
					<dim>1</dim>
					<dim>1</dim>
				</port>
			</input>
			<output>
				<port id="2" precision="FP32" names="445">
					<dim>1</dim>
					<dim>384</dim>
					<dim>44</dim>
					<dim>44</dim>
				</port>
			</output>
		</layer>
		<layer id="207" name="446" type="Clamp" version="opset1">
			<data min="0" max="6"/>
			<rt_info>
				<attribute name="fused_names" version="0" value="446"/>
			</rt_info>
			<input>
				<port id="0" precision="FP32">
					<dim>1</dim>
					<dim>384</dim>
					<dim>44</dim>
					<dim>44</dim>
				</port>
			</input>
			<output>
				<port id="1" precision="FP32" names="446">
					<dim>1</dim>
					<dim>384</dim>
					<dim>44</dim>
					<dim>44</dim>
				</port>
			</output>
		</layer>
		<layer id="208" name="Multiply_68824_compressed" type="Const" version="opset1">
			<data element_type="f16" shape="384, 1, 1, 3, 3" offset="416578" size="6912"/>
			<output>
				<port id="0" precision="FP16">
					<dim>384</dim>
					<dim>1</dim>
					<dim>1</dim>
					<dim>3</dim>
					<dim>3</dim>
				</port>
			</output>
		</layer>
		<layer id="209" name="Multiply_68824" type="Convert" version="opset1">
			<data destination_type="f32"/>
			<rt_info>
				<attribute name="decompression" version="0"/>
			</rt_info>
			<input>
				<port id="0" precision="FP16">
					<dim>384</dim>
					<dim>1</dim>
					<dim>1</dim>
					<dim>3</dim>
					<dim>3</dim>
				</port>
			</input>
			<output>
				<port id="1" precision="FP32">
					<dim>384</dim>
					<dim>1</dim>
					<dim>1</dim>
					<dim>3</dim>
					<dim>3</dim>
				</port>
			</output>
		</layer>
		<layer id="210" name="Multiply_68378" type="GroupConvolution" version="opset1">
			<data strides="1, 1" pads_begin="1, 1" pads_end="1, 1" dilations="1, 1" auto_pad="explicit"/>
			<rt_info>
				<attribute name="fused_names" version="0" value="448, backbone.features.stage4.unit4.conv2.bn.bias, backbone.features.stage4.unit4.conv2.bn.running_mean, backbone.features.stage4.unit4.conv2.bn.running_var, backbone.features.stage4.unit4.conv2.bn.weight"/>
			</rt_info>
			<input>
				<port id="0" precision="FP32">
					<dim>1</dim>
					<dim>384</dim>
					<dim>44</dim>
					<dim>44</dim>
				</port>
				<port id="1" precision="FP32">
					<dim>384</dim>
					<dim>1</dim>
					<dim>1</dim>
					<dim>3</dim>
					<dim>3</dim>
				</port>
			</input>
			<output>
				<port id="2" precision="FP32" names="447">
					<dim>1</dim>
					<dim>384</dim>
					<dim>44</dim>
					<dim>44</dim>
				</port>
			</output>
		</layer>
		<layer id="211" name="Constant_68383_compressed" type="Const" version="opset1">
			<data element_type="f16" shape="1, 384, 1, 1" offset="423490" size="768"/>
			<output>
				<port id="0" precision="FP16">
					<dim>1</dim>
					<dim>384</dim>
					<dim>1</dim>
					<dim>1</dim>
				</port>
			</output>
		</layer>
		<layer id="212" name="Constant_68383" type="Convert" version="opset1">
			<data destination_type="f32"/>
			<rt_info>
				<attribute name="decompression" version="0"/>
			</rt_info>
			<input>
				<port id="0" precision="FP16">
					<dim>1</dim>
					<dim>384</dim>
					<dim>1</dim>
					<dim>1</dim>
				</port>
			</input>
			<output>
				<port id="1" precision="FP32">
					<dim>1</dim>
					<dim>384</dim>
					<dim>1</dim>
					<dim>1</dim>
				</port>
			</output>
		</layer>
		<layer id="213" name="448" type="Add" version="opset1">
			<data auto_broadcast="numpy"/>
			<rt_info>
				<attribute name="fused_names" version="0" value="448, backbone.features.stage4.unit4.conv2.bn.bias, backbone.features.stage4.unit4.conv2.bn.running_mean, backbone.features.stage4.unit4.conv2.bn.running_var, backbone.features.stage4.unit4.conv2.bn.weight"/>
			</rt_info>
			<input>
				<port id="0" precision="FP32">
					<dim>1</dim>
					<dim>384</dim>
					<dim>44</dim>
					<dim>44</dim>
				</port>
				<port id="1" precision="FP32">
					<dim>1</dim>
					<dim>384</dim>
					<dim>1</dim>
					<dim>1</dim>
				</port>
			</input>
			<output>
				<port id="2" precision="FP32" names="448">
					<dim>1</dim>
					<dim>384</dim>
					<dim>44</dim>
					<dim>44</dim>
				</port>
			</output>
		</layer>
		<layer id="214" name="449" type="Clamp" version="opset1">
			<data min="0" max="6"/>
			<rt_info>
				<attribute name="fused_names" version="0" value="449"/>
			</rt_info>
			<input>
				<port id="0" precision="FP32">
					<dim>1</dim>
					<dim>384</dim>
					<dim>44</dim>
					<dim>44</dim>
				</port>
			</input>
			<output>
				<port id="1" precision="FP32" names="449">
					<dim>1</dim>
					<dim>384</dim>
					<dim>44</dim>
					<dim>44</dim>
				</port>
			</output>
		</layer>
		<layer id="215" name="Multiply_68832_compressed" type="Const" version="opset1">
			<data element_type="f16" shape="64, 384, 1, 1" offset="424258" size="49152"/>
			<output>
				<port id="0" precision="FP16">
					<dim>64</dim>
					<dim>384</dim>
					<dim>1</dim>
					<dim>1</dim>
				</port>
			</output>
		</layer>
		<layer id="216" name="Multiply_68832" type="Convert" version="opset1">
			<data destination_type="f32"/>
			<rt_info>
				<attribute name="decompression" version="0"/>
			</rt_info>
			<input>
				<port id="0" precision="FP16">
					<dim>64</dim>
					<dim>384</dim>
					<dim>1</dim>
					<dim>1</dim>
				</port>
			</input>
			<output>
				<port id="1" precision="FP32">
					<dim>64</dim>
					<dim>384</dim>
					<dim>1</dim>
					<dim>1</dim>
				</port>
			</output>
		</layer>
		<layer id="217" name="Multiply_68385" type="Convolution" version="opset1">
			<data strides="1, 1" dilations="1, 1" pads_begin="0, 0" pads_end="0, 0" auto_pad="explicit"/>
			<rt_info>
				<attribute name="fused_names" version="0" value="450, 451, backbone.features.stage4.unit4.conv3.bn.bias, backbone.features.stage4.unit4.conv3.bn.running_mean, backbone.features.stage4.unit4.conv3.bn.running_var, backbone.features.stage4.unit4.conv3.bn.weight"/>
			</rt_info>
			<input>
				<port id="0" precision="FP32">
					<dim>1</dim>
					<dim>384</dim>
					<dim>44</dim>
					<dim>44</dim>
				</port>
				<port id="1" precision="FP32">
					<dim>64</dim>
					<dim>384</dim>
					<dim>1</dim>
					<dim>1</dim>
				</port>
			</input>
			<output>
				<port id="2" precision="FP32">
					<dim>1</dim>
					<dim>64</dim>
					<dim>44</dim>
					<dim>44</dim>
				</port>
			</output>
		</layer>
		<layer id="218" name="Constant_68390_compressed" type="Const" version="opset1">
			<data element_type="f16" shape="1, 64, 1, 1" offset="473410" size="128"/>
			<output>
				<port id="0" precision="FP16">
					<dim>1</dim>
					<dim>64</dim>
					<dim>1</dim>
					<dim>1</dim>
				</port>
			</output>
		</layer>
		<layer id="219" name="Constant_68390" type="Convert" version="opset1">
			<data destination_type="f32"/>
			<rt_info>
				<attribute name="decompression" version="0"/>
			</rt_info>
			<input>
				<port id="0" precision="FP16">
					<dim>1</dim>
					<dim>64</dim>
					<dim>1</dim>
					<dim>1</dim>
				</port>
			</input>
			<output>
				<port id="1" precision="FP32">
					<dim>1</dim>
					<dim>64</dim>
					<dim>1</dim>
					<dim>1</dim>
				</port>
			</output>
		</layer>
		<layer id="220" name="451" type="Add" version="opset1">
			<data auto_broadcast="numpy"/>
			<rt_info>
				<attribute name="fused_names" version="0" value="451, backbone.features.stage4.unit4.conv3.bn.bias, backbone.features.stage4.unit4.conv3.bn.running_mean, backbone.features.stage4.unit4.conv3.bn.running_var, backbone.features.stage4.unit4.conv3.bn.weight"/>
			</rt_info>
			<input>
				<port id="0" precision="FP32">
					<dim>1</dim>
					<dim>64</dim>
					<dim>44</dim>
					<dim>44</dim>
				</port>
				<port id="1" precision="FP32">
					<dim>1</dim>
					<dim>64</dim>
					<dim>1</dim>
					<dim>1</dim>
				</port>
			</input>
			<output>
				<port id="2" precision="FP32" names="451">
					<dim>1</dim>
					<dim>64</dim>
					<dim>44</dim>
					<dim>44</dim>
				</port>
			</output>
		</layer>
		<layer id="221" name="452" type="Add" version="opset1">
			<data auto_broadcast="numpy"/>
			<rt_info>
				<attribute name="fused_names" version="0" value="452"/>
			</rt_info>
			<input>
				<port id="0" precision="FP32">
					<dim>1</dim>
					<dim>64</dim>
					<dim>44</dim>
					<dim>44</dim>
				</port>
				<port id="1" precision="FP32">
					<dim>1</dim>
					<dim>64</dim>
					<dim>44</dim>
					<dim>44</dim>
				</port>
			</input>
			<output>
				<port id="2" precision="FP32" names="452">
					<dim>1</dim>
					<dim>64</dim>
					<dim>44</dim>
					<dim>44</dim>
				</port>
			</output>
		</layer>
		<layer id="222" name="Multiply_68841_compressed" type="Const" version="opset1">
			<data element_type="f16" shape="384, 64, 1, 1" offset="473538" size="49152"/>
			<output>
				<port id="0" precision="FP16">
					<dim>384</dim>
					<dim>64</dim>
					<dim>1</dim>
					<dim>1</dim>
				</port>
			</output>
		</layer>
		<layer id="223" name="Multiply_68841" type="Convert" version="opset1">
			<data destination_type="f32"/>
			<rt_info>
				<attribute name="decompression" version="0"/>
			</rt_info>
			<input>
				<port id="0" precision="FP16">
					<dim>384</dim>
					<dim>64</dim>
					<dim>1</dim>
					<dim>1</dim>
				</port>
			</input>
			<output>
				<port id="1" precision="FP32">
					<dim>384</dim>
					<dim>64</dim>
					<dim>1</dim>
					<dim>1</dim>
				</port>
			</output>
		</layer>
		<layer id="224" name="Multiply_68392" type="Convolution" version="opset1">
			<data strides="1, 1" dilations="1, 1" pads_begin="0, 0" pads_end="0, 0" auto_pad="explicit"/>
			<rt_info>
				<attribute name="fused_names" version="0" value="453, 454, backbone.features.stage4.unit5.conv1.bn.bias, backbone.features.stage4.unit5.conv1.bn.running_mean, backbone.features.stage4.unit5.conv1.bn.running_var, backbone.features.stage4.unit5.conv1.bn.weight"/>
			</rt_info>
			<input>
				<port id="0" precision="FP32">
					<dim>1</dim>
					<dim>64</dim>
					<dim>44</dim>
					<dim>44</dim>
				</port>
				<port id="1" precision="FP32">
					<dim>384</dim>
					<dim>64</dim>
					<dim>1</dim>
					<dim>1</dim>
				</port>
			</input>
			<output>
				<port id="2" precision="FP32">
					<dim>1</dim>
					<dim>384</dim>
					<dim>44</dim>
					<dim>44</dim>
				</port>
			</output>
		</layer>
		<layer id="225" name="Constant_68397_compressed" type="Const" version="opset1">
			<data element_type="f16" shape="1, 384, 1, 1" offset="522690" size="768"/>
			<output>
				<port id="0" precision="FP16">
					<dim>1</dim>
					<dim>384</dim>
					<dim>1</dim>
					<dim>1</dim>
				</port>
			</output>
		</layer>
		<layer id="226" name="Constant_68397" type="Convert" version="opset1">
			<data destination_type="f32"/>
			<rt_info>
				<attribute name="decompression" version="0"/>
			</rt_info>
			<input>
				<port id="0" precision="FP16">
					<dim>1</dim>
					<dim>384</dim>
					<dim>1</dim>
					<dim>1</dim>
				</port>
			</input>
			<output>
				<port id="1" precision="FP32">
					<dim>1</dim>
					<dim>384</dim>
					<dim>1</dim>
					<dim>1</dim>
				</port>
			</output>
		</layer>
		<layer id="227" name="454" type="Add" version="opset1">
			<data auto_broadcast="numpy"/>
			<rt_info>
				<attribute name="fused_names" version="0" value="454, backbone.features.stage4.unit5.conv1.bn.bias, backbone.features.stage4.unit5.conv1.bn.running_mean, backbone.features.stage4.unit5.conv1.bn.running_var, backbone.features.stage4.unit5.conv1.bn.weight"/>
			</rt_info>
			<input>
				<port id="0" precision="FP32">
					<dim>1</dim>
					<dim>384</dim>
					<dim>44</dim>
					<dim>44</dim>
				</port>
				<port id="1" precision="FP32">
					<dim>1</dim>
					<dim>384</dim>
					<dim>1</dim>
					<dim>1</dim>
				</port>
			</input>
			<output>
				<port id="2" precision="FP32" names="454">
					<dim>1</dim>
					<dim>384</dim>
					<dim>44</dim>
					<dim>44</dim>
				</port>
			</output>
		</layer>
		<layer id="228" name="455" type="Clamp" version="opset1">
			<data min="0" max="6"/>
			<rt_info>
				<attribute name="fused_names" version="0" value="455"/>
			</rt_info>
			<input>
				<port id="0" precision="FP32">
					<dim>1</dim>
					<dim>384</dim>
					<dim>44</dim>
					<dim>44</dim>
				</port>
			</input>
			<output>
				<port id="1" precision="FP32" names="455">
					<dim>1</dim>
					<dim>384</dim>
					<dim>44</dim>
					<dim>44</dim>
				</port>
			</output>
		</layer>
		<layer id="229" name="Multiply_68850_compressed" type="Const" version="opset1">
			<data element_type="f16" shape="384, 1, 1, 3, 3" offset="523458" size="6912"/>
			<output>
				<port id="0" precision="FP16">
					<dim>384</dim>
					<dim>1</dim>
					<dim>1</dim>
					<dim>3</dim>
					<dim>3</dim>
				</port>
			</output>
		</layer>
		<layer id="230" name="Multiply_68850" type="Convert" version="opset1">
			<data destination_type="f32"/>
			<rt_info>
				<attribute name="decompression" version="0"/>
			</rt_info>
			<input>
				<port id="0" precision="FP16">
					<dim>384</dim>
					<dim>1</dim>
					<dim>1</dim>
					<dim>3</dim>
					<dim>3</dim>
				</port>
			</input>
			<output>
				<port id="1" precision="FP32">
					<dim>384</dim>
					<dim>1</dim>
					<dim>1</dim>
					<dim>3</dim>
					<dim>3</dim>
				</port>
			</output>
		</layer>
		<layer id="231" name="Multiply_68399" type="GroupConvolution" version="opset1">
			<data strides="1, 1" pads_begin="1, 1" pads_end="1, 1" dilations="1, 1" auto_pad="explicit"/>
			<rt_info>
				<attribute name="fused_names" version="0" value="457, backbone.features.stage4.unit5.conv2.bn.bias, backbone.features.stage4.unit5.conv2.bn.running_mean, backbone.features.stage4.unit5.conv2.bn.running_var, backbone.features.stage4.unit5.conv2.bn.weight"/>
			</rt_info>
			<input>
				<port id="0" precision="FP32">
					<dim>1</dim>
					<dim>384</dim>
					<dim>44</dim>
					<dim>44</dim>
				</port>
				<port id="1" precision="FP32">
					<dim>384</dim>
					<dim>1</dim>
					<dim>1</dim>
					<dim>3</dim>
					<dim>3</dim>
				</port>
			</input>
			<output>
				<port id="2" precision="FP32" names="456">
					<dim>1</dim>
					<dim>384</dim>
					<dim>44</dim>
					<dim>44</dim>
				</port>
			</output>
		</layer>
		<layer id="232" name="Constant_68404_compressed" type="Const" version="opset1">
			<data element_type="f16" shape="1, 384, 1, 1" offset="530370" size="768"/>
			<output>
				<port id="0" precision="FP16">
					<dim>1</dim>
					<dim>384</dim>
					<dim>1</dim>
					<dim>1</dim>
				</port>
			</output>
		</layer>
		<layer id="233" name="Constant_68404" type="Convert" version="opset1">
			<data destination_type="f32"/>
			<rt_info>
				<attribute name="decompression" version="0"/>
			</rt_info>
			<input>
				<port id="0" precision="FP16">
					<dim>1</dim>
					<dim>384</dim>
					<dim>1</dim>
					<dim>1</dim>
				</port>
			</input>
			<output>
				<port id="1" precision="FP32">
					<dim>1</dim>
					<dim>384</dim>
					<dim>1</dim>
					<dim>1</dim>
				</port>
			</output>
		</layer>
		<layer id="234" name="457" type="Add" version="opset1">
			<data auto_broadcast="numpy"/>
			<rt_info>
				<attribute name="fused_names" version="0" value="457, backbone.features.stage4.unit5.conv2.bn.bias, backbone.features.stage4.unit5.conv2.bn.running_mean, backbone.features.stage4.unit5.conv2.bn.running_var, backbone.features.stage4.unit5.conv2.bn.weight"/>
			</rt_info>
			<input>
				<port id="0" precision="FP32">
					<dim>1</dim>
					<dim>384</dim>
					<dim>44</dim>
					<dim>44</dim>
				</port>
				<port id="1" precision="FP32">
					<dim>1</dim>
					<dim>384</dim>
					<dim>1</dim>
					<dim>1</dim>
				</port>
			</input>
			<output>
				<port id="2" precision="FP32" names="457">
					<dim>1</dim>
					<dim>384</dim>
					<dim>44</dim>
					<dim>44</dim>
				</port>
			</output>
		</layer>
		<layer id="235" name="458" type="Clamp" version="opset1">
			<data min="0" max="6"/>
			<rt_info>
				<attribute name="fused_names" version="0" value="458"/>
			</rt_info>
			<input>
				<port id="0" precision="FP32">
					<dim>1</dim>
					<dim>384</dim>
					<dim>44</dim>
					<dim>44</dim>
				</port>
			</input>
			<output>
				<port id="1" precision="FP32" names="458">
					<dim>1</dim>
					<dim>384</dim>
					<dim>44</dim>
					<dim>44</dim>
				</port>
			</output>
		</layer>
		<layer id="236" name="Multiply_68858_compressed" type="Const" version="opset1">
			<data element_type="f16" shape="96, 384, 1, 1" offset="531138" size="73728"/>
			<output>
				<port id="0" precision="FP16">
					<dim>96</dim>
					<dim>384</dim>
					<dim>1</dim>
					<dim>1</dim>
				</port>
			</output>
		</layer>
		<layer id="237" name="Multiply_68858" type="Convert" version="opset1">
			<data destination_type="f32"/>
			<rt_info>
				<attribute name="decompression" version="0"/>
			</rt_info>
			<input>
				<port id="0" precision="FP16">
					<dim>96</dim>
					<dim>384</dim>
					<dim>1</dim>
					<dim>1</dim>
				</port>
			</input>
			<output>
				<port id="1" precision="FP32">
					<dim>96</dim>
					<dim>384</dim>
					<dim>1</dim>
					<dim>1</dim>
				</port>
			</output>
		</layer>
		<layer id="238" name="Multiply_68406" type="Convolution" version="opset1">
			<data strides="1, 1" dilations="1, 1" pads_begin="0, 0" pads_end="0, 0" auto_pad="explicit"/>
			<rt_info>
				<attribute name="fused_names" version="0" value="459, 460, backbone.features.stage4.unit5.conv3.bn.bias, backbone.features.stage4.unit5.conv3.bn.running_mean, backbone.features.stage4.unit5.conv3.bn.running_var, backbone.features.stage4.unit5.conv3.bn.weight"/>
			</rt_info>
			<input>
				<port id="0" precision="FP32">
					<dim>1</dim>
					<dim>384</dim>
					<dim>44</dim>
					<dim>44</dim>
				</port>
				<port id="1" precision="FP32">
					<dim>96</dim>
					<dim>384</dim>
					<dim>1</dim>
					<dim>1</dim>
				</port>
			</input>
			<output>
				<port id="2" precision="FP32">
					<dim>1</dim>
					<dim>96</dim>
					<dim>44</dim>
					<dim>44</dim>
				</port>
			</output>
		</layer>
		<layer id="239" name="Constant_68411_compressed" type="Const" version="opset1">
			<data element_type="f16" shape="1, 96, 1, 1" offset="604866" size="192"/>
			<output>
				<port id="0" precision="FP16">
					<dim>1</dim>
					<dim>96</dim>
					<dim>1</dim>
					<dim>1</dim>
				</port>
			</output>
		</layer>
		<layer id="240" name="Constant_68411" type="Convert" version="opset1">
			<data destination_type="f32"/>
			<rt_info>
				<attribute name="decompression" version="0"/>
			</rt_info>
			<input>
				<port id="0" precision="FP16">
					<dim>1</dim>
					<dim>96</dim>
					<dim>1</dim>
					<dim>1</dim>
				</port>
			</input>
			<output>
				<port id="1" precision="FP32">
					<dim>1</dim>
					<dim>96</dim>
					<dim>1</dim>
					<dim>1</dim>
				</port>
			</output>
		</layer>
		<layer id="241" name="460" type="Add" version="opset1">
			<data auto_broadcast="numpy"/>
			<rt_info>
				<attribute name="fused_names" version="0" value="460, backbone.features.stage4.unit5.conv3.bn.bias, backbone.features.stage4.unit5.conv3.bn.running_mean, backbone.features.stage4.unit5.conv3.bn.running_var, backbone.features.stage4.unit5.conv3.bn.weight"/>
			</rt_info>
			<input>
				<port id="0" precision="FP32">
					<dim>1</dim>
					<dim>96</dim>
					<dim>44</dim>
					<dim>44</dim>
				</port>
				<port id="1" precision="FP32">
					<dim>1</dim>
					<dim>96</dim>
					<dim>1</dim>
					<dim>1</dim>
				</port>
			</input>
			<output>
				<port id="2" precision="FP32" names="460">
					<dim>1</dim>
					<dim>96</dim>
					<dim>44</dim>
					<dim>44</dim>
				</port>
			</output>
		</layer>
		<layer id="242" name="Multiply_68867_compressed" type="Const" version="opset1">
			<data element_type="f16" shape="576, 96, 1, 1" offset="605058" size="110592"/>
			<output>
				<port id="0" precision="FP16">
					<dim>576</dim>
					<dim>96</dim>
					<dim>1</dim>
					<dim>1</dim>
				</port>
			</output>
		</layer>
		<layer id="243" name="Multiply_68867" type="Convert" version="opset1">
			<data destination_type="f32"/>
			<rt_info>
				<attribute name="decompression" version="0"/>
			</rt_info>
			<input>
				<port id="0" precision="FP16">
					<dim>576</dim>
					<dim>96</dim>
					<dim>1</dim>
					<dim>1</dim>
				</port>
			</input>
			<output>
				<port id="1" precision="FP32">
					<dim>576</dim>
					<dim>96</dim>
					<dim>1</dim>
					<dim>1</dim>
				</port>
			</output>
		</layer>
		<layer id="244" name="Multiply_68413" type="Convolution" version="opset1">
			<data strides="1, 1" dilations="1, 1" pads_begin="0, 0" pads_end="0, 0" auto_pad="explicit"/>
			<rt_info>
				<attribute name="fused_names" version="0" value="461, 462, backbone.features.stage4.unit6.conv1.bn.bias, backbone.features.stage4.unit6.conv1.bn.running_mean, backbone.features.stage4.unit6.conv1.bn.running_var, backbone.features.stage4.unit6.conv1.bn.weight"/>
			</rt_info>
			<input>
				<port id="0" precision="FP32">
					<dim>1</dim>
					<dim>96</dim>
					<dim>44</dim>
					<dim>44</dim>
				</port>
				<port id="1" precision="FP32">
					<dim>576</dim>
					<dim>96</dim>
					<dim>1</dim>
					<dim>1</dim>
				</port>
			</input>
			<output>
				<port id="2" precision="FP32">
					<dim>1</dim>
					<dim>576</dim>
					<dim>44</dim>
					<dim>44</dim>
				</port>
			</output>
		</layer>
		<layer id="245" name="Constant_68418_compressed" type="Const" version="opset1">
			<data element_type="f16" shape="1, 576, 1, 1" offset="715650" size="1152"/>
			<output>
				<port id="0" precision="FP16">
					<dim>1</dim>
					<dim>576</dim>
					<dim>1</dim>
					<dim>1</dim>
				</port>
			</output>
		</layer>
		<layer id="246" name="Constant_68418" type="Convert" version="opset1">
			<data destination_type="f32"/>
			<rt_info>
				<attribute name="decompression" version="0"/>
			</rt_info>
			<input>
				<port id="0" precision="FP16">
					<dim>1</dim>
					<dim>576</dim>
					<dim>1</dim>
					<dim>1</dim>
				</port>
			</input>
			<output>
				<port id="1" precision="FP32">
					<dim>1</dim>
					<dim>576</dim>
					<dim>1</dim>
					<dim>1</dim>
				</port>
			</output>
		</layer>
		<layer id="247" name="462" type="Add" version="opset1">
			<data auto_broadcast="numpy"/>
			<rt_info>
				<attribute name="fused_names" version="0" value="462, backbone.features.stage4.unit6.conv1.bn.bias, backbone.features.stage4.unit6.conv1.bn.running_mean, backbone.features.stage4.unit6.conv1.bn.running_var, backbone.features.stage4.unit6.conv1.bn.weight"/>
			</rt_info>
			<input>
				<port id="0" precision="FP32">
					<dim>1</dim>
					<dim>576</dim>
					<dim>44</dim>
					<dim>44</dim>
				</port>
				<port id="1" precision="FP32">
					<dim>1</dim>
					<dim>576</dim>
					<dim>1</dim>
					<dim>1</dim>
				</port>
			</input>
			<output>
				<port id="2" precision="FP32" names="462">
					<dim>1</dim>
					<dim>576</dim>
					<dim>44</dim>
					<dim>44</dim>
				</port>
			</output>
		</layer>
		<layer id="248" name="463" type="Clamp" version="opset1">
			<data min="0" max="6"/>
			<rt_info>
				<attribute name="fused_names" version="0" value="463"/>
			</rt_info>
			<input>
				<port id="0" precision="FP32">
					<dim>1</dim>
					<dim>576</dim>
					<dim>44</dim>
					<dim>44</dim>
				</port>
			</input>
			<output>
				<port id="1" precision="FP32" names="463">
					<dim>1</dim>
					<dim>576</dim>
					<dim>44</dim>
					<dim>44</dim>
				</port>
			</output>
		</layer>
		<layer id="249" name="Multiply_68876_compressed" type="Const" version="opset1">
			<data element_type="f16" shape="576, 1, 1, 3, 3" offset="716802" size="10368"/>
			<output>
				<port id="0" precision="FP16">
					<dim>576</dim>
					<dim>1</dim>
					<dim>1</dim>
					<dim>3</dim>
					<dim>3</dim>
				</port>
			</output>
		</layer>
		<layer id="250" name="Multiply_68876" type="Convert" version="opset1">
			<data destination_type="f32"/>
			<rt_info>
				<attribute name="decompression" version="0"/>
			</rt_info>
			<input>
				<port id="0" precision="FP16">
					<dim>576</dim>
					<dim>1</dim>
					<dim>1</dim>
					<dim>3</dim>
					<dim>3</dim>
				</port>
			</input>
			<output>
				<port id="1" precision="FP32">
					<dim>576</dim>
					<dim>1</dim>
					<dim>1</dim>
					<dim>3</dim>
					<dim>3</dim>
				</port>
			</output>
		</layer>
		<layer id="251" name="Multiply_68420" type="GroupConvolution" version="opset1">
			<data strides="1, 1" pads_begin="1, 1" pads_end="1, 1" dilations="1, 1" auto_pad="explicit"/>
			<rt_info>
				<attribute name="fused_names" version="0" value="465, backbone.features.stage4.unit6.conv2.bn.bias, backbone.features.stage4.unit6.conv2.bn.running_mean, backbone.features.stage4.unit6.conv2.bn.running_var, backbone.features.stage4.unit6.conv2.bn.weight"/>
			</rt_info>
			<input>
				<port id="0" precision="FP32">
					<dim>1</dim>
					<dim>576</dim>
					<dim>44</dim>
					<dim>44</dim>
				</port>
				<port id="1" precision="FP32">
					<dim>576</dim>
					<dim>1</dim>
					<dim>1</dim>
					<dim>3</dim>
					<dim>3</dim>
				</port>
			</input>
			<output>
				<port id="2" precision="FP32" names="464">
					<dim>1</dim>
					<dim>576</dim>
					<dim>44</dim>
					<dim>44</dim>
				</port>
			</output>
		</layer>
		<layer id="252" name="Constant_68425_compressed" type="Const" version="opset1">
			<data element_type="f16" shape="1, 576, 1, 1" offset="727170" size="1152"/>
			<output>
				<port id="0" precision="FP16">
					<dim>1</dim>
					<dim>576</dim>
					<dim>1</dim>
					<dim>1</dim>
				</port>
			</output>
		</layer>
		<layer id="253" name="Constant_68425" type="Convert" version="opset1">
			<data destination_type="f32"/>
			<rt_info>
				<attribute name="decompression" version="0"/>
			</rt_info>
			<input>
				<port id="0" precision="FP16">
					<dim>1</dim>
					<dim>576</dim>
					<dim>1</dim>
					<dim>1</dim>
				</port>
			</input>
			<output>
				<port id="1" precision="FP32">
					<dim>1</dim>
					<dim>576</dim>
					<dim>1</dim>
					<dim>1</dim>
				</port>
			</output>
		</layer>
		<layer id="254" name="465" type="Add" version="opset1">
			<data auto_broadcast="numpy"/>
			<rt_info>
				<attribute name="fused_names" version="0" value="465, backbone.features.stage4.unit6.conv2.bn.bias, backbone.features.stage4.unit6.conv2.bn.running_mean, backbone.features.stage4.unit6.conv2.bn.running_var, backbone.features.stage4.unit6.conv2.bn.weight"/>
			</rt_info>
			<input>
				<port id="0" precision="FP32">
					<dim>1</dim>
					<dim>576</dim>
					<dim>44</dim>
					<dim>44</dim>
				</port>
				<port id="1" precision="FP32">
					<dim>1</dim>
					<dim>576</dim>
					<dim>1</dim>
					<dim>1</dim>
				</port>
			</input>
			<output>
				<port id="2" precision="FP32" names="465">
					<dim>1</dim>
					<dim>576</dim>
					<dim>44</dim>
					<dim>44</dim>
				</port>
			</output>
		</layer>
		<layer id="255" name="466" type="Clamp" version="opset1">
			<data min="0" max="6"/>
			<rt_info>
				<attribute name="fused_names" version="0" value="466"/>
			</rt_info>
			<input>
				<port id="0" precision="FP32">
					<dim>1</dim>
					<dim>576</dim>
					<dim>44</dim>
					<dim>44</dim>
				</port>
			</input>
			<output>
				<port id="1" precision="FP32" names="466">
					<dim>1</dim>
					<dim>576</dim>
					<dim>44</dim>
					<dim>44</dim>
				</port>
			</output>
		</layer>
		<layer id="256" name="Multiply_68884_compressed" type="Const" version="opset1">
			<data element_type="f16" shape="96, 576, 1, 1" offset="728322" size="110592"/>
			<output>
				<port id="0" precision="FP16">
					<dim>96</dim>
					<dim>576</dim>
					<dim>1</dim>
					<dim>1</dim>
				</port>
			</output>
		</layer>
		<layer id="257" name="Multiply_68884" type="Convert" version="opset1">
			<data destination_type="f32"/>
			<rt_info>
				<attribute name="decompression" version="0"/>
			</rt_info>
			<input>
				<port id="0" precision="FP16">
					<dim>96</dim>
					<dim>576</dim>
					<dim>1</dim>
					<dim>1</dim>
				</port>
			</input>
			<output>
				<port id="1" precision="FP32">
					<dim>96</dim>
					<dim>576</dim>
					<dim>1</dim>
					<dim>1</dim>
				</port>
			</output>
		</layer>
		<layer id="258" name="Multiply_68427" type="Convolution" version="opset1">
			<data strides="1, 1" dilations="1, 1" pads_begin="0, 0" pads_end="0, 0" auto_pad="explicit"/>
			<rt_info>
				<attribute name="fused_names" version="0" value="467, 468, backbone.features.stage4.unit6.conv3.bn.bias, backbone.features.stage4.unit6.conv3.bn.running_mean, backbone.features.stage4.unit6.conv3.bn.running_var, backbone.features.stage4.unit6.conv3.bn.weight"/>
			</rt_info>
			<input>
				<port id="0" precision="FP32">
					<dim>1</dim>
					<dim>576</dim>
					<dim>44</dim>
					<dim>44</dim>
				</port>
				<port id="1" precision="FP32">
					<dim>96</dim>
					<dim>576</dim>
					<dim>1</dim>
					<dim>1</dim>
				</port>
			</input>
			<output>
				<port id="2" precision="FP32">
					<dim>1</dim>
					<dim>96</dim>
					<dim>44</dim>
					<dim>44</dim>
				</port>
			</output>
		</layer>
		<layer id="259" name="Constant_68432_compressed" type="Const" version="opset1">
			<data element_type="f16" shape="1, 96, 1, 1" offset="838914" size="192"/>
			<output>
				<port id="0" precision="FP16">
					<dim>1</dim>
					<dim>96</dim>
					<dim>1</dim>
					<dim>1</dim>
				</port>
			</output>
		</layer>
		<layer id="260" name="Constant_68432" type="Convert" version="opset1">
			<data destination_type="f32"/>
			<rt_info>
				<attribute name="decompression" version="0"/>
			</rt_info>
			<input>
				<port id="0" precision="FP16">
					<dim>1</dim>
					<dim>96</dim>
					<dim>1</dim>
					<dim>1</dim>
				</port>
			</input>
			<output>
				<port id="1" precision="FP32">
					<dim>1</dim>
					<dim>96</dim>
					<dim>1</dim>
					<dim>1</dim>
				</port>
			</output>
		</layer>
		<layer id="261" name="468" type="Add" version="opset1">
			<data auto_broadcast="numpy"/>
			<rt_info>
				<attribute name="fused_names" version="0" value="468, backbone.features.stage4.unit6.conv3.bn.bias, backbone.features.stage4.unit6.conv3.bn.running_mean, backbone.features.stage4.unit6.conv3.bn.running_var, backbone.features.stage4.unit6.conv3.bn.weight"/>
			</rt_info>
			<input>
				<port id="0" precision="FP32">
					<dim>1</dim>
					<dim>96</dim>
					<dim>44</dim>
					<dim>44</dim>
				</port>
				<port id="1" precision="FP32">
					<dim>1</dim>
					<dim>96</dim>
					<dim>1</dim>
					<dim>1</dim>
				</port>
			</input>
			<output>
				<port id="2" precision="FP32" names="468">
					<dim>1</dim>
					<dim>96</dim>
					<dim>44</dim>
					<dim>44</dim>
				</port>
			</output>
		</layer>
		<layer id="262" name="469" type="Add" version="opset1">
			<data auto_broadcast="numpy"/>
			<rt_info>
				<attribute name="fused_names" version="0" value="469"/>
			</rt_info>
			<input>
				<port id="0" precision="FP32">
					<dim>1</dim>
					<dim>96</dim>
					<dim>44</dim>
					<dim>44</dim>
				</port>
				<port id="1" precision="FP32">
					<dim>1</dim>
					<dim>96</dim>
					<dim>44</dim>
					<dim>44</dim>
				</port>
			</input>
			<output>
				<port id="2" precision="FP32" names="469">
					<dim>1</dim>
					<dim>96</dim>
					<dim>44</dim>
					<dim>44</dim>
				</port>
			</output>
		</layer>
		<layer id="263" name="Multiply_68893_compressed" type="Const" version="opset1">
			<data element_type="f16" shape="576, 96, 1, 1" offset="839106" size="110592"/>
			<output>
				<port id="0" precision="FP16">
					<dim>576</dim>
					<dim>96</dim>
					<dim>1</dim>
					<dim>1</dim>
				</port>
			</output>
		</layer>
		<layer id="264" name="Multiply_68893" type="Convert" version="opset1">
			<data destination_type="f32"/>
			<rt_info>
				<attribute name="decompression" version="0"/>
			</rt_info>
			<input>
				<port id="0" precision="FP16">
					<dim>576</dim>
					<dim>96</dim>
					<dim>1</dim>
					<dim>1</dim>
				</port>
			</input>
			<output>
				<port id="1" precision="FP32">
					<dim>576</dim>
					<dim>96</dim>
					<dim>1</dim>
					<dim>1</dim>
				</port>
			</output>
		</layer>
		<layer id="265" name="Multiply_68434" type="Convolution" version="opset1">
			<data strides="1, 1" dilations="1, 1" pads_begin="0, 0" pads_end="0, 0" auto_pad="explicit"/>
			<rt_info>
				<attribute name="fused_names" version="0" value="470, 471, backbone.features.stage4.unit7.conv1.bn.bias, backbone.features.stage4.unit7.conv1.bn.running_mean, backbone.features.stage4.unit7.conv1.bn.running_var, backbone.features.stage4.unit7.conv1.bn.weight"/>
			</rt_info>
			<input>
				<port id="0" precision="FP32">
					<dim>1</dim>
					<dim>96</dim>
					<dim>44</dim>
					<dim>44</dim>
				</port>
				<port id="1" precision="FP32">
					<dim>576</dim>
					<dim>96</dim>
					<dim>1</dim>
					<dim>1</dim>
				</port>
			</input>
			<output>
				<port id="2" precision="FP32">
					<dim>1</dim>
					<dim>576</dim>
					<dim>44</dim>
					<dim>44</dim>
				</port>
			</output>
		</layer>
		<layer id="266" name="Constant_68439_compressed" type="Const" version="opset1">
			<data element_type="f16" shape="1, 576, 1, 1" offset="949698" size="1152"/>
			<output>
				<port id="0" precision="FP16">
					<dim>1</dim>
					<dim>576</dim>
					<dim>1</dim>
					<dim>1</dim>
				</port>
			</output>
		</layer>
		<layer id="267" name="Constant_68439" type="Convert" version="opset1">
			<data destination_type="f32"/>
			<rt_info>
				<attribute name="decompression" version="0"/>
			</rt_info>
			<input>
				<port id="0" precision="FP16">
					<dim>1</dim>
					<dim>576</dim>
					<dim>1</dim>
					<dim>1</dim>
				</port>
			</input>
			<output>
				<port id="1" precision="FP32">
					<dim>1</dim>
					<dim>576</dim>
					<dim>1</dim>
					<dim>1</dim>
				</port>
			</output>
		</layer>
		<layer id="268" name="471" type="Add" version="opset1">
			<data auto_broadcast="numpy"/>
			<rt_info>
				<attribute name="fused_names" version="0" value="471, backbone.features.stage4.unit7.conv1.bn.bias, backbone.features.stage4.unit7.conv1.bn.running_mean, backbone.features.stage4.unit7.conv1.bn.running_var, backbone.features.stage4.unit7.conv1.bn.weight"/>
			</rt_info>
			<input>
				<port id="0" precision="FP32">
					<dim>1</dim>
					<dim>576</dim>
					<dim>44</dim>
					<dim>44</dim>
				</port>
				<port id="1" precision="FP32">
					<dim>1</dim>
					<dim>576</dim>
					<dim>1</dim>
					<dim>1</dim>
				</port>
			</input>
			<output>
				<port id="2" precision="FP32" names="471">
					<dim>1</dim>
					<dim>576</dim>
					<dim>44</dim>
					<dim>44</dim>
				</port>
			</output>
		</layer>
		<layer id="269" name="472" type="Clamp" version="opset1">
			<data min="0" max="6"/>
			<rt_info>
				<attribute name="fused_names" version="0" value="472"/>
			</rt_info>
			<input>
				<port id="0" precision="FP32">
					<dim>1</dim>
					<dim>576</dim>
					<dim>44</dim>
					<dim>44</dim>
				</port>
			</input>
			<output>
				<port id="1" precision="FP32" names="472">
					<dim>1</dim>
					<dim>576</dim>
					<dim>44</dim>
					<dim>44</dim>
				</port>
			</output>
		</layer>
		<layer id="270" name="Multiply_68902_compressed" type="Const" version="opset1">
			<data element_type="f16" shape="576, 1, 1, 3, 3" offset="950850" size="10368"/>
			<output>
				<port id="0" precision="FP16">
					<dim>576</dim>
					<dim>1</dim>
					<dim>1</dim>
					<dim>3</dim>
					<dim>3</dim>
				</port>
			</output>
		</layer>
		<layer id="271" name="Multiply_68902" type="Convert" version="opset1">
			<data destination_type="f32"/>
			<rt_info>
				<attribute name="decompression" version="0"/>
			</rt_info>
			<input>
				<port id="0" precision="FP16">
					<dim>576</dim>
					<dim>1</dim>
					<dim>1</dim>
					<dim>3</dim>
					<dim>3</dim>
				</port>
			</input>
			<output>
				<port id="1" precision="FP32">
					<dim>576</dim>
					<dim>1</dim>
					<dim>1</dim>
					<dim>3</dim>
					<dim>3</dim>
				</port>
			</output>
		</layer>
		<layer id="272" name="Multiply_68441" type="GroupConvolution" version="opset1">
			<data strides="1, 1" pads_begin="1, 1" pads_end="1, 1" dilations="1, 1" auto_pad="explicit"/>
			<rt_info>
				<attribute name="fused_names" version="0" value="474, backbone.features.stage4.unit7.conv2.bn.bias, backbone.features.stage4.unit7.conv2.bn.running_mean, backbone.features.stage4.unit7.conv2.bn.running_var, backbone.features.stage4.unit7.conv2.bn.weight"/>
			</rt_info>
			<input>
				<port id="0" precision="FP32">
					<dim>1</dim>
					<dim>576</dim>
					<dim>44</dim>
					<dim>44</dim>
				</port>
				<port id="1" precision="FP32">
					<dim>576</dim>
					<dim>1</dim>
					<dim>1</dim>
					<dim>3</dim>
					<dim>3</dim>
…
		<edge from-layer="1215" from-port="0" to-layer="1216" to-port="1"/>
		<edge from-layer="1216" from-port="2" to-layer="1219" to-port="0"/>
		<edge from-layer="1217" from-port="0" to-layer="1218" to-port="0"/>
		<edge from-layer="1218" from-port="1" to-layer="1219" to-port="1"/>
		<edge from-layer="1219" from-port="2" to-layer="1222" to-port="0"/>
		<edge from-layer="1220" from-port="0" to-layer="1221" to-port="0"/>
		<edge from-layer="1221" from-port="1" to-layer="1222" to-port="1"/>
		<edge from-layer="1222" from-port="2" to-layer="1223" to-port="0"/>
		<edge from-layer="1223" from-port="1" to-layer="1224" to-port="0"/>
		<edge from-layer="1224" from-port="2" to-layer="1226" to-port="0"/>
		<edge from-layer="1225" from-port="0" to-layer="1226" to-port="1"/>
		<edge from-layer="1226" from-port="2" to-layer="1229" to-port="0"/>
		<edge from-layer="1227" from-port="0" to-layer="1228" to-port="0"/>
		<edge from-layer="1228" from-port="1" to-layer="1229" to-port="1"/>
		<edge from-layer="1229" from-port="2" to-layer="1232" to-port="0"/>
		<edge from-layer="1230" from-port="0" to-layer="1231" to-port="0"/>
		<edge from-layer="1231" from-port="1" to-layer="1232" to-port="1"/>
		<edge from-layer="1232" from-port="2" to-layer="1233" to-port="0"/>
		<edge from-layer="1233" from-port="1" to-layer="1234" to-port="0"/>
		<edge from-layer="1234" from-port="2" to-layer="1236" to-port="0"/>
		<edge from-layer="1235" from-port="0" to-layer="1236" to-port="1"/>
		<edge from-layer="1236" from-port="2" to-layer="1239" to-port="0"/>
		<edge from-layer="1237" from-port="0" to-layer="1238" to-port="0"/>
		<edge from-layer="1238" from-port="1" to-layer="1239" to-port="1"/>
		<edge from-layer="1239" from-port="2" to-layer="1242" to-port="0"/>
		<edge from-layer="1240" from-port="0" to-layer="1241" to-port="0"/>
		<edge from-layer="1241" from-port="1" to-layer="1242" to-port="1"/>
		<edge from-layer="1242" from-port="2" to-layer="1243" to-port="0"/>
		<edge from-layer="1243" from-port="1" to-layer="1319" to-port="0"/>
		<edge from-layer="1243" from-port="1" to-layer="1244" to-port="0"/>
		<edge from-layer="1244" from-port="2" to-layer="1247" to-port="0"/>
		<edge from-layer="1245" from-port="0" to-layer="1246" to-port="0"/>
		<edge from-layer="1246" from-port="1" to-layer="1247" to-port="1"/>
		<edge from-layer="1247" from-port="2" to-layer="1310" to-port="0"/>
		<edge from-layer="1247" from-port="2" to-layer="1248" to-port="0"/>
		<edge from-layer="1248" from-port="1" to-layer="1251" to-port="0"/>
		<edge from-layer="1248" from-port="1" to-layer="1274" to-port="0"/>
		<edge from-layer="1249" from-port="0" to-layer="1251" to-port="1"/>
		<edge from-layer="1250" from-port="0" to-layer="1251" to-port="2"/>
		<edge from-layer="1251" from-port="3" to-layer="1253" to-port="0"/>
		<edge from-layer="1252" from-port="0" to-layer="1253" to-port="1"/>
		<edge from-layer="1253" from-port="2" to-layer="1255" to-port="0"/>
		<edge from-layer="1254" from-port="0" to-layer="1255" to-port="1"/>
		<edge from-layer="1255" from-port="2" to-layer="1257" to-port="0"/>
		<edge from-layer="1256" from-port="0" to-layer="1262" to-port="1"/>
		<edge from-layer="1256" from-port="0" to-layer="1257" to-port="1"/>
		<edge from-layer="1257" from-port="2" to-layer="1258" to-port="1"/>
		<edge from-layer="1258" from-port="2" to-layer="1259" to-port="0"/>
		<edge from-layer="1259" from-port="1" to-layer="1261" to-port="0"/>
		<edge from-layer="1260" from-port="0" to-layer="1261" to-port="1"/>
		<edge from-layer="1261" from-port="2" to-layer="1262" to-port="0"/>
		<edge from-layer="1262" from-port="2" to-layer="1263" to-port="0"/>
		<edge from-layer="1263" from-port="1" to-layer="1265" to-port="0"/>
		<edge from-layer="1264" from-port="0" to-layer="1265" to-port="1"/>
		<edge from-layer="1265" from-port="2" to-layer="1269" to-port="0"/>
		<edge from-layer="1265" from-port="2" to-layer="1267" to-port="0"/>
		<edge from-layer="1266" from-port="0" to-layer="1268" to-port="0"/>
		<edge from-layer="1267" from-port="1" to-layer="1290" to-port="1"/>
		<edge from-layer="1267" from-port="1" to-layer="1268" to-port="1"/>
		<edge from-layer="1268" from-port="2" to-layer="1269" to-port="1"/>
		<edge from-layer="1269" from-port="2" to-layer="1291" to-port="0"/>
		<edge from-layer="1270" from-port="0" to-layer="1271" to-port="0"/>
		<edge from-layer="1271" from-port="1" to-layer="1281" to-port="0"/>
		<edge from-layer="1272" from-port="0" to-layer="1274" to-port="1"/>
		<edge from-layer="1273" from-port="0" to-layer="1274" to-port="2"/>
		<edge from-layer="1274" from-port="3" to-layer="1276" to-port="0"/>
		<edge from-layer="1275" from-port="0" to-layer="1276" to-port="1"/>
		<edge from-layer="1276" from-port="2" to-layer="1278" to-port="0"/>
		<edge from-layer="1277" from-port="0" to-layer="1278" to-port="1"/>
		<edge from-layer="1278" from-port="2" to-layer="1280" to-port="0"/>
		<edge from-layer="1279" from-port="0" to-layer="1285" to-port="1"/>
		<edge from-layer="1279" from-port="0" to-layer="1280" to-port="1"/>
		<edge from-layer="1280" from-port="2" to-layer="1281" to-port="1"/>
		<edge from-layer="1281" from-port="2" to-layer="1282" to-port="0"/>
		<edge from-layer="1282" from-port="1" to-layer="1284" to-port="0"/>
		<edge from-layer="1283" from-port="0" to-layer="1284" to-port="1"/>
		<edge from-layer="1284" from-port="2" to-layer="1285" to-port="0"/>
		<edge from-layer="1285" from-port="2" to-layer="1286" to-port="0"/>
		<edge from-layer="1286" from-port="1" to-layer="1288" to-port="0"/>
		<edge from-layer="1287" from-port="0" to-layer="1288" to-port="1"/>
		<edge from-layer="1288" from-port="2" to-layer="1298" to-port="0"/>
		<edge from-layer="1288" from-port="2" to-layer="1289" to-port="0"/>
		<edge from-layer="1289" from-port="1" to-layer="1297" to-port="0"/>
		<edge from-layer="1289" from-port="1" to-layer="1290" to-port="0"/>
		<edge from-layer="1290" from-port="2" to-layer="1299" to-port="1"/>
		<edge from-layer="1290" from-port="2" to-layer="1291" to-port="1"/>
		<edge from-layer="1291" from-port="2" to-layer="1293" to-port="0"/>
		<edge from-layer="1292" from-port="0" to-layer="1293" to-port="1"/>
		<edge from-layer="1293" from-port="2" to-layer="1295" to-port="0"/>
		<edge from-layer="1294" from-port="0" to-layer="1295" to-port="1"/>
		<edge from-layer="1295" from-port="2" to-layer="1304" to-port="0"/>
		<edge from-layer="1296" from-port="0" to-layer="1297" to-port="1"/>
		<edge from-layer="1297" from-port="2" to-layer="1298" to-port="1"/>
		<edge from-layer="1298" from-port="2" to-layer="1299" to-port="0"/>
		<edge from-layer="1299" from-port="2" to-layer="1301" to-port="0"/>
		<edge from-layer="1300" from-port="0" to-layer="1301" to-port="1"/>
		<edge from-layer="1301" from-port="2" to-layer="1303" to-port="0"/>
		<edge from-layer="1302" from-port="0" to-layer="1303" to-port="1"/>
		<edge from-layer="1303" from-port="2" to-layer="1304" to-port="1"/>
		<edge from-layer="1304" from-port="2" to-layer="1307" to-port="0"/>
		<edge from-layer="1305" from-port="0" to-layer="1306" to-port="0"/>
		<edge from-layer="1306" from-port="1" to-layer="1307" to-port="1"/>
		<edge from-layer="1307" from-port="2" to-layer="1352" to-port="0"/>
		<edge from-layer="1308" from-port="0" to-layer="1310" to-port="1"/>
		<edge from-layer="1309" from-port="0" to-layer="1310" to-port="2"/>
		<edge from-layer="1310" from-port="3" to-layer="1315" to-port="0"/>
		<edge from-layer="1310" from-port="3" to-layer="1311" to-port="0"/>
		<edge from-layer="1311" from-port="1" to-layer="1314" to-port="0"/>
		<edge from-layer="1312" from-port="0" to-layer="1314" to-port="1"/>
		<edge from-layer="1313" from-port="0" to-layer="1314" to-port="2"/>
		<edge from-layer="1314" from-port="3" to-layer="1315" to-port="1"/>
		<edge from-layer="1315" from-port="2" to-layer="1317" to-port="0"/>
		<edge from-layer="1316" from-port="0" to-layer="1317" to-port="1"/>
		<edge from-layer="1317" from-port="2" to-layer="1318" to-port="0"/>
		<edge from-layer="1318" from-port="1" to-layer="1336" to-port="0"/>
		<edge from-layer="1318" from-port="1" to-layer="1719" to-port="0"/>
		<edge from-layer="1319" from-port="2" to-layer="1322" to-port="0"/>
		<edge from-layer="1320" from-port="0" to-layer="1321" to-port="0"/>
		<edge from-layer="1321" from-port="1" to-layer="1322" to-port="1"/>
		<edge from-layer="1322" from-port="2" to-layer="1325" to-port="0"/>
		<edge from-layer="1323" from-port="0" to-layer="1325" to-port="1"/>
		<edge from-layer="1324" from-port="0" to-layer="1325" to-port="2"/>
		<edge from-layer="1325" from-port="3" to-layer="1326" to-port="0"/>
		<edge from-layer="1325" from-port="3" to-layer="1330" to-port="0"/>
		<edge from-layer="1326" from-port="1" to-layer="1329" to-port="0"/>
		<edge from-layer="1327" from-port="0" to-layer="1329" to-port="1"/>
		<edge from-layer="1328" from-port="0" to-layer="1329" to-port="2"/>
		<edge from-layer="1329" from-port="3" to-layer="1330" to-port="1"/>
		<edge from-layer="1330" from-port="2" to-layer="1332" to-port="0"/>
		<edge from-layer="1331" from-port="0" to-layer="1332" to-port="1"/>
		<edge from-layer="1332" from-port="2" to-layer="1333" to-port="0"/>
		<edge from-layer="1333" from-port="1" to-layer="1335" to-port="0"/>
		<edge from-layer="1333" from-port="1" to-layer="1730" to-port="0"/>
		<edge from-layer="1334" from-port="0" to-layer="1335" to-port="1"/>
		<edge from-layer="1335" from-port="2" to-layer="1336" to-port="1"/>
		<edge from-layer="1336" from-port="2" to-layer="1338" to-port="0"/>
		<edge from-layer="1337" from-port="0" to-layer="1338" to-port="1"/>
		<edge from-layer="1338" from-port="2" to-layer="1340" to-port="0"/>
		<edge from-layer="1338" from-port="2" to-layer="1350" to-port="0"/>
		<edge from-layer="1339" from-port="0" to-layer="1341" to-port="0"/>
		<edge from-layer="1340" from-port="1" to-layer="1341" to-port="1"/>
		<edge from-layer="1341" from-port="2" to-layer="1342" to-port="0"/>
		<edge from-layer="1342" from-port="1" to-layer="1344" to-port="0"/>
		<edge from-layer="1343" from-port="0" to-layer="1344" to-port="1"/>
		<edge from-layer="1344" from-port="2" to-layer="1345" to-port="0"/>
		<edge from-layer="1345" from-port="1" to-layer="1347" to-port="0"/>
		<edge from-layer="1346" from-port="0" to-layer="1347" to-port="1"/>
		<edge from-layer="1347" from-port="2" to-layer="1349" to-port="0"/>
		<edge from-layer="1348" from-port="0" to-layer="1349" to-port="1"/>
		<edge from-layer="1349" from-port="2" to-layer="1350" to-port="1"/>
		<edge from-layer="1350" from-port="3" to-layer="1411" to-port="1"/>
		<edge from-layer="1350" from-port="3" to-layer="1730" to-port="1"/>
		<edge from-layer="1350" from-port="3" to-layer="1719" to-port="1"/>
		<edge from-layer="1350" from-port="3" to-layer="1352" to-port="1"/>
		<edge from-layer="1351" from-port="0" to-layer="1352" to-port="2"/>
		<edge from-layer="1352" from-port="3" to-layer="1355" to-port="0"/>
		<edge from-layer="1352" from-port="3" to-layer="1421" to-port="0"/>
		<edge from-layer="1352" from-port="3" to-layer="1441" to-port="0"/>
		<edge from-layer="1352" from-port="3" to-layer="1431" to-port="0"/>
		<edge from-layer="1353" from-port="0" to-layer="1355" to-port="1"/>
		<edge from-layer="1354" from-port="0" to-layer="1355" to-port="2"/>
		<edge from-layer="1355" from-port="3" to-layer="1415" to-port="0"/>
		<edge from-layer="1356" from-port="2" to-layer="1358" to-port="0"/>
		<edge from-layer="1357" from-port="0" to-layer="1358" to-port="1"/>
		<edge from-layer="1358" from-port="2" to-layer="1361" to-port="0"/>
		<edge from-layer="1359" from-port="0" to-layer="1360" to-port="0"/>
		<edge from-layer="1360" from-port="1" to-layer="1361" to-port="1"/>
		<edge from-layer="1361" from-port="2" to-layer="1364" to-port="0"/>
		<edge from-layer="1362" from-port="0" to-layer="1363" to-port="0"/>
		<edge from-layer="1363" from-port="1" to-layer="1364" to-port="1"/>
		<edge from-layer="1364" from-port="2" to-layer="1365" to-port="0"/>
		<edge from-layer="1365" from-port="1" to-layer="1366" to-port="0"/>
		<edge from-layer="1366" from-port="2" to-layer="1368" to-port="0"/>
		<edge from-layer="1367" from-port="0" to-layer="1368" to-port="1"/>
		<edge from-layer="1368" from-port="2" to-layer="1371" to-port="0"/>
		<edge from-layer="1369" from-port="0" to-layer="1370" to-port="0"/>
		<edge from-layer="1370" from-port="1" to-layer="1371" to-port="1"/>
		<edge from-layer="1371" from-port="2" to-layer="1374" to-port="0"/>
		<edge from-layer="1372" from-port="0" to-layer="1373" to-port="0"/>
		<edge from-layer="1373" from-port="1" to-layer="1374" to-port="1"/>
		<edge from-layer="1374" from-port="2" to-layer="1375" to-port="0"/>
		<edge from-layer="1375" from-port="1" to-layer="1376" to-port="0"/>
		<edge from-layer="1376" from-port="2" to-layer="1378" to-port="0"/>
		<edge from-layer="1377" from-port="0" to-layer="1378" to-port="1"/>
		<edge from-layer="1378" from-port="2" to-layer="1381" to-port="0"/>
		<edge from-layer="1379" from-port="0" to-layer="1380" to-port="0"/>
		<edge from-layer="1380" from-port="1" to-layer="1381" to-port="1"/>
		<edge from-layer="1381" from-port="2" to-layer="1384" to-port="0"/>
		<edge from-layer="1382" from-port="0" to-layer="1383" to-port="0"/>
		<edge from-layer="1383" from-port="1" to-layer="1384" to-port="1"/>
		<edge from-layer="1384" from-port="2" to-layer="1385" to-port="0"/>
		<edge from-layer="1385" from-port="1" to-layer="1386" to-port="0"/>
		<edge from-layer="1386" from-port="2" to-layer="1388" to-port="0"/>
		<edge from-layer="1387" from-port="0" to-layer="1388" to-port="1"/>
		<edge from-layer="1388" from-port="2" to-layer="1391" to-port="0"/>
		<edge from-layer="1389" from-port="0" to-layer="1390" to-port="0"/>
		<edge from-layer="1390" from-port="1" to-layer="1391" to-port="1"/>
		<edge from-layer="1391" from-port="2" to-layer="1394" to-port="0"/>
		<edge from-layer="1392" from-port="0" to-layer="1393" to-port="0"/>
		<edge from-layer="1393" from-port="1" to-layer="1394" to-port="1"/>
		<edge from-layer="1394" from-port="2" to-layer="1395" to-port="0"/>
		<edge from-layer="1395" from-port="1" to-layer="1398" to-port="0"/>
		<edge from-layer="1396" from-port="0" to-layer="1397" to-port="0"/>
		<edge from-layer="1397" from-port="1" to-layer="1398" to-port="1"/>
		<edge from-layer="1398" from-port="2" to-layer="1401" to-port="0"/>
		<edge from-layer="1399" from-port="0" to-layer="1400" to-port="0"/>
		<edge from-layer="1400" from-port="1" to-layer="1401" to-port="1"/>
		<edge from-layer="1401" from-port="2" to-layer="1402" to-port="0"/>
		<edge from-layer="1402" from-port="1" to-layer="1405" to-port="0"/>
		<edge from-layer="1403" from-port="0" to-layer="1405" to-port="1"/>
		<edge from-layer="1404" from-port="0" to-layer="1405" to-port="2"/>
		<edge from-layer="1405" from-port="3" to-layer="1407" to-port="0"/>
		<edge from-layer="1406" from-port="0" to-layer="1407" to-port="1"/>
		<edge from-layer="1407" from-port="2" to-layer="1409" to-port="0"/>
		<edge from-layer="1408" from-port="0" to-layer="1409" to-port="1"/>
		<edge from-layer="1409" from-port="2" to-layer="1411" to-port="0"/>
		<edge from-layer="1410" from-port="0" to-layer="1411" to-port="2"/>
		<edge from-layer="1411" from-port="3" to-layer="1414" to-port="0"/>
		<edge from-layer="1411" from-port="3" to-layer="1444" to-port="0"/>
		<edge from-layer="1411" from-port="3" to-layer="1434" to-port="0"/>
		<edge from-layer="1411" from-port="3" to-layer="1424" to-port="0"/>
		<edge from-layer="1412" from-port="0" to-layer="1414" to-port="1"/>
		<edge from-layer="1413" from-port="0" to-layer="1414" to-port="2"/>
		<edge from-layer="1414" from-port="3" to-layer="1415" to-port="1"/>
		<edge from-layer="1415" from-port="2" to-layer="1416" to-port="0"/>
		<edge from-layer="1416" from-port="1" to-layer="1418" to-port="0"/>
		<edge from-layer="1417" from-port="0" to-layer="1418" to-port="1"/>
		<edge from-layer="1418" from-port="2" to-layer="1449" to-port="0"/>
		<edge from-layer="1419" from-port="0" to-layer="1421" to-port="1"/>
		<edge from-layer="1420" from-port="0" to-layer="1421" to-port="2"/>
		<edge from-layer="1421" from-port="3" to-layer="1425" to-port="0"/>
		<edge from-layer="1422" from-port="0" to-layer="1424" to-port="1"/>
		<edge from-layer="1423" from-port="0" to-layer="1424" to-port="2"/>
		<edge from-layer="1424" from-port="3" to-layer="1425" to-port="1"/>
		<edge from-layer="1425" from-port="2" to-layer="1426" to-port="0"/>
		<edge from-layer="1426" from-port="1" to-layer="1428" to-port="0"/>
		<edge from-layer="1427" from-port="0" to-layer="1428" to-port="1"/>
		<edge from-layer="1428" from-port="2" to-layer="1449" to-port="1"/>
		<edge from-layer="1429" from-port="0" to-layer="1431" to-port="1"/>
		<edge from-layer="1430" from-port="0" to-layer="1431" to-port="2"/>
		<edge from-layer="1431" from-port="3" to-layer="1435" to-port="0"/>
		<edge from-layer="1432" from-port="0" to-layer="1434" to-port="1"/>
		<edge from-layer="1433" from-port="0" to-layer="1434" to-port="2"/>
		<edge from-layer="1434" from-port="3" to-layer="1435" to-port="1"/>
		<edge from-layer="1435" from-port="2" to-layer="1436" to-port="0"/>
		<edge from-layer="1436" from-port="1" to-layer="1438" to-port="0"/>
		<edge from-layer="1437" from-port="0" to-layer="1438" to-port="1"/>
		<edge from-layer="1438" from-port="2" to-layer="1449" to-port="2"/>
		<edge from-layer="1439" from-port="0" to-layer="1441" to-port="1"/>
		<edge from-layer="1440" from-port="0" to-layer="1441" to-port="2"/>
		<edge from-layer="1441" from-port="3" to-layer="1445" to-port="0"/>
		<edge from-layer="1442" from-port="0" to-layer="1444" to-port="1"/>
		<edge from-layer="1443" from-port="0" to-layer="1444" to-port="2"/>
		<edge from-layer="1444" from-port="3" to-layer="1445" to-port="1"/>
		<edge from-layer="1445" from-port="2" to-layer="1446" to-port="0"/>
		<edge from-layer="1446" from-port="1" to-layer="1448" to-port="0"/>
		<edge from-layer="1447" from-port="0" to-layer="1448" to-port="1"/>
		<edge from-layer="1448" from-port="2" to-layer="1449" to-port="3"/>
		<edge from-layer="1449" from-port="4" to-layer="1705" to-port="3"/>
		<edge from-layer="1450" from-port="0" to-layer="1451" to-port="0"/>
		<edge from-layer="1451" from-port="1" to-layer="1513" to-port="0"/>
		<edge from-layer="1452" from-port="1" to-layer="1455" to-port="0"/>
		<edge from-layer="1453" from-port="0" to-layer="1454" to-port="0"/>
		<edge from-layer="1454" from-port="1" to-layer="1455" to-port="1"/>
		<edge from-layer="1455" from-port="2" to-layer="1458" to-port="0"/>
		<edge from-layer="1456" from-port="0" to-layer="1457" to-port="0"/>
		<edge from-layer="1457" from-port="1" to-layer="1458" to-port="1"/>
		<edge from-layer="1458" from-port="2" to-layer="1611" to-port="0"/>
		<edge from-layer="1458" from-port="2" to-layer="1459" to-port="0"/>
		<edge from-layer="1459" from-port="2" to-layer="1461" to-port="0"/>
		<edge from-layer="1460" from-port="0" to-layer="1461" to-port="1"/>
		<edge from-layer="1461" from-port="2" to-layer="1464" to-port="0"/>
		<edge from-layer="1462" from-port="0" to-layer="1463" to-port="0"/>
		<edge from-layer="1463" from-port="1" to-layer="1464" to-port="1"/>
		<edge from-layer="1464" from-port="2" to-layer="1467" to-port="0"/>
		<edge from-layer="1465" from-port="0" to-layer="1466" to-port="0"/>
		<edge from-layer="1466" from-port="1" to-layer="1467" to-port="1"/>
		<edge from-layer="1467" from-port="2" to-layer="1468" to-port="0"/>
		<edge from-layer="1468" from-port="1" to-layer="1469" to-port="0"/>
		<edge from-layer="1469" from-port="2" to-layer="1471" to-port="0"/>
		<edge from-layer="1470" from-port="0" to-layer="1471" to-port="1"/>
		<edge from-layer="1471" from-port="2" to-layer="1474" to-port="0"/>
		<edge from-layer="1472" from-port="0" to-layer="1473" to-port="0"/>
		<edge from-layer="1473" from-port="1" to-layer="1474" to-port="1"/>
		<edge from-layer="1474" from-port="2" to-layer="1477" to-port="0"/>
		<edge from-layer="1475" from-port="0" to-layer="1476" to-port="0"/>
		<edge from-layer="1476" from-port="1" to-layer="1477" to-port="1"/>
		<edge from-layer="1477" from-port="2" to-layer="1478" to-port="0"/>
		<edge from-layer="1478" from-port="1" to-layer="1479" to-port="0"/>
		<edge from-layer="1479" from-port="2" to-layer="1481" to-port="0"/>
		<edge from-layer="1480" from-port="0" to-layer="1481" to-port="1"/>
		<edge from-layer="1481" from-port="2" to-layer="1484" to-port="0"/>
		<edge from-layer="1482" from-port="0" to-layer="1483" to-port="0"/>
		<edge from-layer="1483" from-port="1" to-layer="1484" to-port="1"/>
		<edge from-layer="1484" from-port="2" to-layer="1487" to-port="0"/>
		<edge from-layer="1485" from-port="0" to-layer="1486" to-port="0"/>
		<edge from-layer="1486" from-port="1" to-layer="1487" to-port="1"/>
		<edge from-layer="1487" from-port="2" to-layer="1488" to-port="0"/>
		<edge from-layer="1488" from-port="1" to-layer="1489" to-port="0"/>
		<edge from-layer="1489" from-port="2" to-layer="1491" to-port="0"/>
		<edge from-layer="1490" from-port="0" to-layer="1491" to-port="1"/>
		<edge from-layer="1491" from-port="2" to-layer="1494" to-port="0"/>
		<edge from-layer="1492" from-port="0" to-layer="1493" to-port="0"/>
		<edge from-layer="1493" from-port="1" to-layer="1494" to-port="1"/>
		<edge from-layer="1494" from-port="2" to-layer="1497" to-port="0"/>
		<edge from-layer="1495" from-port="0" to-layer="1496" to-port="0"/>
		<edge from-layer="1496" from-port="1" to-layer="1497" to-port="1"/>
		<edge from-layer="1497" from-port="2" to-layer="1498" to-port="0"/>
		<edge from-layer="1498" from-port="1" to-layer="1574" to-port="0"/>
		<edge from-layer="1498" from-port="1" to-layer="1499" to-port="0"/>
		<edge from-layer="1499" from-port="2" to-layer="1502" to-port="0"/>
		<edge from-layer="1500" from-port="0" to-layer="1501" to-port="0"/>
		<edge from-layer="1501" from-port="1" to-layer="1502" to-port="1"/>
		<edge from-layer="1502" from-port="2" to-layer="1565" to-port="0"/>
		<edge from-layer="1502" from-port="2" to-layer="1503" to-port="0"/>
		<edge from-layer="1503" from-port="1" to-layer="1506" to-port="0"/>
		<edge from-layer="1503" from-port="1" to-layer="1529" to-port="0"/>
		<edge from-layer="1504" from-port="0" to-layer="1506" to-port="1"/>
		<edge from-layer="1505" from-port="0" to-layer="1506" to-port="2"/>
		<edge from-layer="1506" from-port="3" to-layer="1508" to-port="0"/>
		<edge from-layer="1507" from-port="0" to-layer="1508" to-port="1"/>
		<edge from-layer="1508" from-port="2" to-layer="1510" to-port="0"/>
		<edge from-layer="1509" from-port="0" to-layer="1510" to-port="1"/>
		<edge from-layer="1510" from-port="2" to-layer="1512" to-port="0"/>
		<edge from-layer="1511" from-port="0" to-layer="1512" to-port="1"/>
		<edge from-layer="1511" from-port="0" to-layer="1517" to-port="1"/>
		<edge from-layer="1512" from-port="2" to-layer="1513" to-port="1"/>
		<edge from-layer="1513" from-port="2" to-layer="1514" to-port="0"/>
		<edge from-layer="1514" from-port="1" to-layer="1516" to-port="0"/>
		<edge from-layer="1515" from-port="0" to-layer="1516" to-port="1"/>
		<edge from-layer="1516" from-port="2" to-layer="1517" to-port="0"/>
		<edge from-layer="1517" from-port="2" to-layer="1518" to-port="0"/>
		<edge from-layer="1518" from-port="1" to-layer="1520" to-port="0"/>
		<edge from-layer="1519" from-port="0" to-layer="1520" to-port="1"/>
		<edge from-layer="1520" from-port="2" to-layer="1522" to-port="0"/>
		<edge from-layer="1520" from-port="2" to-layer="1524" to-port="0"/>
		<edge from-layer="1521" from-port="0" to-layer="1523" to-port="0"/>
		<edge from-layer="1522" from-port="1" to-layer="1523" to-port="1"/>
		<edge from-layer="1522" from-port="1" to-layer="1545" to-port="1"/>
		<edge from-layer="1523" from-port="2" to-layer="1524" to-port="1"/>
		<edge from-layer="1524" from-port="2" to-layer="1546" to-port="0"/>
		<edge from-layer="1525" from-port="0" to-layer="1526" to-port="0"/>
		<edge from-layer="1526" from-port="1" to-layer="1536" to-port="0"/>
		<edge from-layer="1527" from-port="0" to-layer="1529" to-port="1"/>
		<edge from-layer="1528" from-port="0" to-layer="1529" to-port="2"/>
		<edge from-layer="1529" from-port="3" to-layer="1531" to-port="0"/>
		<edge from-layer="1530" from-port="0" to-layer="1531" to-port="1"/>
		<edge from-layer="1531" from-port="2" to-layer="1533" to-port="0"/>
		<edge from-layer="1532" from-port="0" to-layer="1533" to-port="1"/>
		<edge from-layer="1533" from-port="2" to-layer="1535" to-port="0"/>
		<edge from-layer="1534" from-port="0" to-layer="1535" to-port="1"/>
		<edge from-layer="1534" from-port="0" to-layer="1540" to-port="1"/>
		<edge from-layer="1535" from-port="2" to-layer="1536" to-port="1"/>
		<edge from-layer="1536" from-port="2" to-layer="1537" to-port="0"/>
		<edge from-layer="1537" from-port="1" to-layer="1539" to-port="0"/>
		<edge from-layer="1538" from-port="0" to-layer="1539" to-port="1"/>
		<edge from-layer="1539" from-port="2" to-layer="1540" to-port="0"/>
		<edge from-layer="1540" from-port="2" to-layer="1541" to-port="0"/>
		<edge from-layer="1541" from-port="1" to-layer="1543" to-port="0"/>
		<edge from-layer="1542" from-port="0" to-layer="1543" to-port="1"/>
		<edge from-layer="1543" from-port="2" to-layer="1553" to-port="0"/>
		<edge from-layer="1543" from-port="2" to-layer="1544" to-port="0"/>
		<edge from-layer="1544" from-port="1" to-layer="1552" to-port="0"/>
		<edge from-layer="1544" from-port="1" to-layer="1545" to-port="0"/>
		<edge from-layer="1545" from-port="2" to-layer="1554" to-port="1"/>
		<edge from-layer="1545" from-port="2" to-layer="1546" to-port="1"/>
		<edge from-layer="1546" from-port="2" to-layer="1548" to-port="0"/>
		<edge from-layer="1547" from-port="0" to-layer="1548" to-port="1"/>
		<edge from-layer="1548" from-port="2" to-layer="1550" to-port="0"/>
		<edge from-layer="1549" from-port="0" to-layer="1550" to-port="1"/>
		<edge from-layer="1550" from-port="2" to-layer="1559" to-port="0"/>
		<edge from-layer="1551" from-port="0" to-layer="1552" to-port="1"/>
		<edge from-layer="1552" from-port="2" to-layer="1553" to-port="1"/>
		<edge from-layer="1553" from-port="2" to-layer="1554" to-port="0"/>
		<edge from-layer="1554" from-port="2" to-layer="1556" to-port="0"/>
		<edge from-layer="1555" from-port="0" to-layer="1556" to-port="1"/>
		<edge from-layer="1556" from-port="2" to-layer="1558" to-port="0"/>
		<edge from-layer="1557" from-port="0" to-layer="1558" to-port="1"/>
		<edge from-layer="1558" from-port="2" to-layer="1559" to-port="1"/>
		<edge from-layer="1559" from-port="2" to-layer="1562" to-port="0"/>
		<edge from-layer="1560" from-port="0" to-layer="1561" to-port="0"/>
		<edge from-layer="1561" from-port="1" to-layer="1562" to-port="1"/>
		<edge from-layer="1562" from-port="2" to-layer="1607" to-port="0"/>
		<edge from-layer="1563" from-port="0" to-layer="1565" to-port="1"/>
		<edge from-layer="1564" from-port="0" to-layer="1565" to-port="2"/>
		<edge from-layer="1565" from-port="3" to-layer="1566" to-port="0"/>
		<edge from-layer="1565" from-port="3" to-layer="1570" to-port="0"/>
		<edge from-layer="1566" from-port="1" to-layer="1569" to-port="0"/>
		<edge from-layer="1567" from-port="0" to-layer="1569" to-port="1"/>
		<edge from-layer="1568" from-port="0" to-layer="1569" to-port="2"/>
		<edge from-layer="1569" from-port="3" to-layer="1570" to-port="1"/>
		<edge from-layer="1570" from-port="2" to-layer="1572" to-port="0"/>
		<edge from-layer="1571" from-port="0" to-layer="1572" to-port="1"/>
		<edge from-layer="1572" from-port="2" to-layer="1573" to-port="0"/>
		<edge from-layer="1573" from-port="1" to-layer="1721" to-port="0"/>
		<edge from-layer="1573" from-port="1" to-layer="1591" to-port="0"/>
		<edge from-layer="1574" from-port="2" to-layer="1577" to-port="0"/>
		<edge from-layer="1575" from-port="0" to-layer="1576" to-port="0"/>
		<edge from-layer="1576" from-port="1" to-layer="1577" to-port="1"/>
		<edge from-layer="1577" from-port="2" to-layer="1580" to-port="0"/>
		<edge from-layer="1578" from-port="0" to-layer="1580" to-port="1"/>
		<edge from-layer="1579" from-port="0" to-layer="1580" to-port="2"/>
		<edge from-layer="1580" from-port="3" to-layer="1585" to-port="0"/>
		<edge from-layer="1580" from-port="3" to-layer="1581" to-port="0"/>
		<edge from-layer="1581" from-port="1" to-layer="1584" to-port="0"/>
		<edge from-layer="1582" from-port="0" to-layer="1584" to-port="1"/>
		<edge from-layer="1583" from-port="0" to-layer="1584" to-port="2"/>
		<edge from-layer="1584" from-port="3" to-layer="1585" to-port="1"/>
		<edge from-layer="1585" from-port="2" to-layer="1587" to-port="0"/>
		<edge from-layer="1586" from-port="0" to-layer="1587" to-port="1"/>
		<edge from-layer="1587" from-port="2" to-layer="1588" to-port="0"/>
		<edge from-layer="1588" from-port="1" to-layer="1590" to-port="0"/>
		<edge from-layer="1588" from-port="1" to-layer="1732" to-port="0"/>
		<edge from-layer="1589" from-port="0" to-layer="1590" to-port="1"/>
		<edge from-layer="1590" from-port="2" to-layer="1591" to-port="1"/>
		<edge from-layer="1591" from-port="2" to-layer="1593" to-port="0"/>
		<edge from-layer="1592" from-port="0" to-layer="1593" to-port="1"/>
		<edge from-layer="1593" from-port="2" to-layer="1605" to-port="0"/>
		<edge from-layer="1593" from-port="2" to-layer="1595" to-port="0"/>
		<edge from-layer="1594" from-port="0" to-layer="1596" to-port="0"/>
		<edge from-layer="1595" from-port="1" to-layer="1596" to-port="1"/>
		<edge from-layer="1596" from-port="2" to-layer="1597" to-port="0"/>
		<edge from-layer="1597" from-port="1" to-layer="1599" to-port="0"/>
		<edge from-layer="1598" from-port="0" to-layer="1599" to-port="1"/>
		<edge from-layer="1599" from-port="2" to-layer="1600" to-port="0"/>
		<edge from-layer="1600" from-port="1" to-layer="1602" to-port="0"/>
		<edge from-layer="1601" from-port="0" to-layer="1602" to-port="1"/>
		<edge from-layer="1602" from-port="2" to-layer="1604" to-port="0"/>
		<edge from-layer="1603" from-port="0" to-layer="1604" to-port="1"/>
		<edge from-layer="1604" from-port="2" to-layer="1605" to-port="1"/>
		<edge from-layer="1605" from-port="3" to-layer="1732" to-port="1"/>
		<edge from-layer="1605" from-port="3" to-layer="1666" to-port="1"/>
		<edge from-layer="1605" from-port="3" to-layer="1721" to-port="1"/>
		<edge from-layer="1605" from-port="3" to-layer="1607" to-port="1"/>
		<edge from-layer="1606" from-port="0" to-layer="1607" to-port="2"/>
		<edge from-layer="1607" from-port="3" to-layer="1676" to-port="0"/>
		<edge from-layer="1607" from-port="3" to-layer="1696" to-port="0"/>
		<edge from-layer="1607" from-port="3" to-layer="1686" to-port="0"/>
		<edge from-layer="1607" from-port="3" to-layer="1610" to-port="0"/>
		<edge from-layer="1608" from-port="0" to-layer="1610" to-port="1"/>
		<edge from-layer="1609" from-port="0" to-layer="1610" to-port="2"/>
		<edge from-layer="1610" from-port="3" to-layer="1670" to-port="0"/>
		<edge from-layer="1611" from-port="2" to-layer="1613" to-port="0"/>
		<edge from-layer="1612" from-port="0" to-layer="1613" to-port="1"/>
		<edge from-layer="1613" from-port="2" to-layer="1616" to-port="0"/>
		<edge from-layer="1614" from-port="0" to-layer="1615" to-port="0"/>
		<edge from-layer="1615" from-port="1" to-layer="1616" to-port="1"/>
		<edge from-layer="1616" from-port="2" to-layer="1619" to-port="0"/>
		<edge from-layer="1617" from-port="0" to-layer="1618" to-port="0"/>
		<edge from-layer="1618" from-port="1" to-layer="1619" to-port="1"/>
		<edge from-layer="1619" from-port="2" to-layer="1620" to-port="0"/>
		<edge from-layer="1620" from-port="1" to-layer="1621" to-port="0"/>
		<edge from-layer="1621" from-port="2" to-layer="1623" to-port="0"/>
		<edge from-layer="1622" from-port="0" to-layer="1623" to-port="1"/>
		<edge from-layer="1623" from-port="2" to-layer="1626" to-port="0"/>
		<edge from-layer="1624" from-port="0" to-layer="1625" to-port="0"/>
		<edge from-layer="1625" from-port="1" to-layer="1626" to-port="1"/>
		<edge from-layer="1626" from-port="2" to-layer="1629" to-port="0"/>
		<edge from-layer="1627" from-port="0" to-layer="1628" to-port="0"/>
		<edge from-layer="1628" from-port="1" to-layer="1629" to-port="1"/>
		<edge from-layer="1629" from-port="2" to-layer="1630" to-port="0"/>
		<edge from-layer="1630" from-port="1" to-layer="1631" to-port="0"/>
		<edge from-layer="1631" from-port="2" to-layer="1633" to-port="0"/>
		<edge from-layer="1632" from-port="0" to-layer="1633" to-port="1"/>
		<edge from-layer="1633" from-port="2" to-layer="1636" to-port="0"/>
		<edge from-layer="1634" from-port="0" to-layer="1635" to-port="0"/>
		<edge from-layer="1635" from-port="1" to-layer="1636" to-port="1"/>
		<edge from-layer="1636" from-port="2" to-layer="1639" to-port="0"/>
		<edge from-layer="1637" from-port="0" to-layer="1638" to-port="0"/>
		<edge from-layer="1638" from-port="1" to-layer="1639" to-port="1"/>
		<edge from-layer="1639" from-port="2" to-layer="1640" to-port="0"/>
		<edge from-layer="1640" from-port="1" to-layer="1641" to-port="0"/>
		<edge from-layer="1641" from-port="2" to-layer="1643" to-port="0"/>
		<edge from-layer="1642" from-port="0" to-layer="1643" to-port="1"/>
		<edge from-layer="1643" from-port="2" to-layer="1646" to-port="0"/>
		<edge from-layer="1644" from-port="0" to-layer="1645" to-port="0"/>
		<edge from-layer="1645" from-port="1" to-layer="1646" to-port="1"/>
		<edge from-layer="1646" from-port="2" to-layer="1649" to-port="0"/>
		<edge from-layer="1647" from-port="0" to-layer="1648" to-port="0"/>
		<edge from-layer="1648" from-port="1" to-layer="1649" to-port="1"/>
		<edge from-layer="1649" from-port="2" to-layer="1650" to-port="0"/>
		<edge from-layer="1650" from-port="1" to-layer="1653" to-port="0"/>
		<edge from-layer="1651" from-port="0" to-layer="1652" to-port="0"/>
		<edge from-layer="1652" from-port="1" to-layer="1653" to-port="1"/>
		<edge from-layer="1653" from-port="2" to-layer="1656" to-port="0"/>
		<edge from-layer="1654" from-port="0" to-layer="1655" to-port="0"/>
		<edge from-layer="1655" from-port="1" to-layer="1656" to-port="1"/>
		<edge from-layer="1656" from-port="2" to-layer="1657" to-port="0"/>
		<edge from-layer="1657" from-port="1" to-layer="1660" to-port="0"/>
		<edge from-layer="1658" from-port="0" to-layer="1660" to-port="1"/>
		<edge from-layer="1659" from-port="0" to-layer="1660" to-port="2"/>
		<edge from-layer="1660" from-port="3" to-layer="1662" to-port="0"/>
		<edge from-layer="1661" from-port="0" to-layer="1662" to-port="1"/>
		<edge from-layer="1662" from-port="2" to-layer="1664" to-port="0"/>
		<edge from-layer="1663" from-port="0" to-layer="1664" to-port="1"/>
		<edge from-layer="1664" from-port="2" to-layer="1666" to-port="0"/>
		<edge from-layer="1665" from-port="0" to-layer="1666" to-port="2"/>
		<edge from-layer="1666" from-port="3" to-layer="1679" to-port="0"/>
		<edge from-layer="1666" from-port="3" to-layer="1699" to-port="0"/>
		<edge from-layer="1666" from-port="3" to-layer="1669" to-port="0"/>
		<edge from-layer="1666" from-port="3" to-layer="1689" to-port="0"/>
		<edge from-layer="1667" from-port="0" to-layer="1669" to-port="1"/>
		<edge from-layer="1668" from-port="0" to-layer="1669" to-port="2"/>
		<edge from-layer="1669" from-port="3" to-layer="1670" to-port="1"/>
		<edge from-layer="1670" from-port="2" to-layer="1671" to-port="0"/>
		<edge from-layer="1671" from-port="1" to-layer="1673" to-port="0"/>
		<edge from-layer="1672" from-port="0" to-layer="1673" to-port="1"/>
		<edge from-layer="1673" from-port="2" to-layer="1704" to-port="0"/>
		<edge from-layer="1674" from-port="0" to-layer="1676" to-port="1"/>
		<edge from-layer="1675" from-port="0" to-layer="1676" to-port="2"/>
		<edge from-layer="1676" from-port="3" to-layer="1680" to-port="0"/>
		<edge from-layer="1677" from-port="0" to-layer="1679" to-port="1"/>
		<edge from-layer="1678" from-port="0" to-layer="1679" to-port="2"/>
		<edge from-layer="1679" from-port="3" to-layer="1680" to-port="1"/>
		<edge from-layer="1680" from-port="2" to-layer="1681" to-port="0"/>
		<edge from-layer="1681" from-port="1" to-layer="1683" to-port="0"/>
		<edge from-layer="1682" from-port="0" to-layer="1683" to-port="1"/>
		<edge from-layer="1683" from-port="2" to-layer="1704" to-port="1"/>
		<edge from-layer="1684" from-port="0" to-layer="1686" to-port="1"/>
		<edge from-layer="1685" from-port="0" to-layer="1686" to-port="2"/>
		<edge from-layer="1686" from-port="3" to-layer="1690" to-port="0"/>
		<edge from-layer="1687" from-port="0" to-layer="1689" to-port="1"/>
		<edge from-layer="1688" from-port="0" to-layer="1689" to-port="2"/>
		<edge from-layer="1689" from-port="3" to-layer="1690" to-port="1"/>
		<edge from-layer="1690" from-port="2" to-layer="1691" to-port="0"/>
		<edge from-layer="1691" from-port="1" to-layer="1693" to-port="0"/>
		<edge from-layer="1692" from-port="0" to-layer="1693" to-port="1"/>
		<edge from-layer="1693" from-port="2" to-layer="1704" to-port="2"/>
		<edge from-layer="1694" from-port="0" to-layer="1696" to-port="1"/>
		<edge from-layer="1695" from-port="0" to-layer="1696" to-port="2"/>
		<edge from-layer="1696" from-port="3" to-layer="1700" to-port="0"/>
		<edge from-layer="1697" from-port="0" to-layer="1699" to-port="1"/>
		<edge from-layer="1698" from-port="0" to-layer="1699" to-port="2"/>
		<edge from-layer="1699" from-port="3" to-layer="1700" to-port="1"/>
		<edge from-layer="1700" from-port="2" to-layer="1701" to-port="0"/>
		<edge from-layer="1701" from-port="1" to-layer="1703" to-port="0"/>
		<edge from-layer="1702" from-port="0" to-layer="1703" to-port="1"/>
		<edge from-layer="1703" from-port="2" to-layer="1704" to-port="3"/>
		<edge from-layer="1704" from-port="4" to-layer="1705" to-port="4"/>
		<edge from-layer="1705" from-port="5" to-layer="1707" to-port="0"/>
		<edge from-layer="1706" from-port="0" to-layer="1707" to-port="1"/>
		<edge from-layer="1707" from-port="2" to-layer="1709" to-port="0"/>
		<edge from-layer="1708" from-port="0" to-layer="1709" to-port="1"/>
		<edge from-layer="1709" from-port="2" to-layer="1741" to-port="0"/>
		<edge from-layer="1709" from-port="2" to-layer="1758" to-port="0"/>
		<edge from-layer="1709" from-port="2" to-layer="1711" to-port="0"/>
		<edge from-layer="1710" from-port="0" to-layer="1711" to-port="1"/>
		<edge from-layer="1711" from-port="2" to-layer="1770" to-port="0"/>
		<edge from-layer="1712" from-port="0" to-layer="1713" to-port="2"/>
		<edge from-layer="1713" from-port="3" to-layer="1722" to-port="0"/>
		<edge from-layer="1714" from-port="0" to-layer="1715" to-port="2"/>
		<edge from-layer="1715" from-port="3" to-layer="1722" to-port="1"/>
		<edge from-layer="1716" from-port="0" to-layer="1717" to-port="2"/>
		<edge from-layer="1717" from-port="3" to-layer="1722" to-port="2"/>
		<edge from-layer="1718" from-port="0" to-layer="1719" to-port="2"/>
		<edge from-layer="1719" from-port="3" to-layer="1722" to-port="3"/>
		<edge from-layer="1720" from-port="0" to-layer="1721" to-port="2"/>
		<edge from-layer="1721" from-port="3" to-layer="1722" to-port="4"/>
		<edge from-layer="1722" from-port="5" to-layer="1738" to-port="0"/>
		<edge from-layer="1723" from-port="0" to-layer="1724" to-port="2"/>
		<edge from-layer="1724" from-port="3" to-layer="1733" to-port="0"/>
		<edge from-layer="1725" from-port="0" to-layer="1726" to-port="2"/>
		<edge from-layer="1726" from-port="3" to-layer="1733" to-port="1"/>
		<edge from-layer="1727" from-port="0" to-layer="1728" to-port="2"/>
		<edge from-layer="1728" from-port="3" to-layer="1733" to-port="2"/>
		<edge from-layer="1729" from-port="0" to-layer="1730" to-port="2"/>
		<edge from-layer="1730" from-port="3" to-layer="1733" to-port="3"/>
		<edge from-layer="1731" from-port="0" to-layer="1732" to-port="2"/>
		<edge from-layer="1732" from-port="3" to-layer="1733" to-port="4"/>
		<edge from-layer="1733" from-port="5" to-layer="1737" to-port="0"/>
		<edge from-layer="1733" from-port="5" to-layer="1734" to-port="0"/>
		<edge from-layer="1734" from-port="1" to-layer="1736" to-port="0"/>
		<edge from-layer="1735" from-port="0" to-layer="1736" to-port="1"/>
		<edge from-layer="1736" from-port="2" to-layer="1737" to-port="1"/>
		<edge from-layer="1737" from-port="2" to-layer="1738" to-port="1"/>
		<edge from-layer="1738" from-port="2" to-layer="1740" to-port="0"/>
		<edge from-layer="1739" from-port="0" to-layer="1740" to-port="1"/>
		<edge from-layer="1740" from-port="2" to-layer="1752" to-port="0"/>
		<edge from-layer="1741" from-port="1" to-layer="1750" to-port="0"/>
		<edge from-layer="1741" from-port="1" to-layer="1745" to-port="0"/>
		<edge from-layer="1742" from-port="0" to-layer="1745" to-port="1"/>
		<edge from-layer="1743" from-port="0" to-layer="1745" to-port="2"/>
		<edge from-layer="1744" from-port="0" to-layer="1745" to-port="3"/>
		<edge from-layer="1745" from-port="4" to-layer="1751" to-port="0"/>
		<edge from-layer="1746" from-port="0" to-layer="1751" to-port="1"/>
		<edge from-layer="1747" from-port="0" to-layer="1750" to-port="1"/>
		<edge from-layer="1748" from-port="0" to-layer="1750" to-port="2"/>
		<edge from-layer="1749" from-port="0" to-layer="1750" to-port="3"/>
		<edge from-layer="1750" from-port="4" to-layer="1786" to-port="1"/>
		<edge from-layer="1750" from-port="4" to-layer="1751" to-port="2"/>
		<edge from-layer="1750" from-port="4" to-layer="1763" to-port="1"/>
		<edge from-layer="1751" from-port="3" to-layer="1752" to-port="1"/>
		<edge from-layer="1752" from-port="2" to-layer="1758" to-port="1"/>
		<edge from-layer="1752" from-port="2" to-layer="1775" to-port="0"/>
		<edge from-layer="1752" from-port="2" to-layer="1774" to-port="0"/>
		<edge from-layer="1753" from-port="0" to-layer="1758" to-port="2"/>
		<edge from-layer="1754" from-port="0" to-layer="1755" to-port="0"/>
		<edge from-layer="1755" from-port="1" to-layer="1758" to-port="3"/>
		<edge from-layer="1756" from-port="0" to-layer="1757" to-port="0"/>
		<edge from-layer="1757" from-port="1" to-layer="1758" to-port="4"/>
		<edge from-layer="1758" from-port="5" to-layer="1784" to-port="0"/>
		<edge from-layer="1758" from-port="5" to-layer="1767" to-port="0"/>
		<edge from-layer="1758" from-port="5" to-layer="1762" to-port="0"/>
		<edge from-layer="1759" from-port="0" to-layer="1762" to-port="1"/>
		<edge from-layer="1760" from-port="0" to-layer="1762" to-port="2"/>
		<edge from-layer="1761" from-port="0" to-layer="1762" to-port="3"/>
		<edge from-layer="1762" from-port="4" to-layer="1763" to-port="0"/>
		<edge from-layer="1762" from-port="4" to-layer="1792" to-port="1"/>
		<edge from-layer="1762" from-port="4" to-layer="1780" to-port="0"/>
		<edge from-layer="1763" from-port="2" to-layer="1768" to-port="0"/>
		<edge from-layer="1764" from-port="0" to-layer="1767" to-port="1"/>
		<edge from-layer="1765" from-port="0" to-layer="1767" to-port="2"/>
		<edge from-layer="1766" from-port="0" to-layer="1767" to-port="3"/>
		<edge from-layer="1767" from-port="4" to-layer="1787" to-port="1"/>
		<edge from-layer="1767" from-port="4" to-layer="1768" to-port="1"/>
		<edge from-layer="1768" from-port="2" to-layer="1770" to-port="1"/>
		<edge from-layer="1769" from-port="0" to-layer="1770" to-port="2"/>
		<edge from-layer="1770" from-port="3" to-layer="1772" to-port="0"/>
		<edge from-layer="1771" from-port="0" to-layer="1772" to-port="1"/>
		<edge from-layer="1772" from-port="2" to-layer="1796" to-port="0"/>
		<edge from-layer="1773" from-port="0" to-layer="1774" to-port="1"/>
		<edge from-layer="1774" from-port="2" to-layer="1789" to-port="0"/>
		<edge from-layer="1775" from-port="1" to-layer="1779" to-port="0"/>
		<edge from-layer="1776" from-port="0" to-layer="1779" to-port="1"/>
		<edge from-layer="1777" from-port="0" to-layer="1779" to-port="2"/>
		<edge from-layer="1778" from-port="0" to-layer="1779" to-port="3"/>
		<edge from-layer="1779" from-port="4" to-layer="1780" to-port="1"/>
		<edge from-layer="1780" from-port="2" to-layer="1785" to-port="0"/>
		<edge from-layer="1781" from-port="0" to-layer="1784" to-port="1"/>
		<edge from-layer="1782" from-port="0" to-layer="1784" to-port="2"/>
		<edge from-layer="1783" from-port="0" to-layer="1784" to-port="3"/>
		<edge from-layer="1784" from-port="4" to-layer="1785" to-port="1"/>
		<edge from-layer="1784" from-port="4" to-layer="1792" to-port="0"/>
		<edge from-layer="1785" from-port="2" to-layer="1786" to-port="0"/>
		<edge from-layer="1786" from-port="2" to-layer="1787" to-port="0"/>
		<edge from-layer="1787" from-port="2" to-layer="1789" to-port="1"/>
		<edge from-layer="1788" from-port="0" to-layer="1789" to-port="2"/>
		<edge from-layer="1789" from-port="3" to-layer="1791" to-port="0"/>
		<edge from-layer="1790" from-port="0" to-layer="1791" to-port="1"/>
		<edge from-layer="1791" from-port="2" to-layer="1796" to-port="1"/>
		<edge from-layer="1792" from-port="2" to-layer="1793" to-port="0"/>
		<edge from-layer="1793" from-port="1" to-layer="1795" to-port="0"/>
		<edge from-layer="1794" from-port="0" to-layer="1795" to-port="1"/>
		<edge from-layer="1795" from-port="2" to-layer="1796" to-port="2"/>
		<edge from-layer="1796" from-port="3" to-layer="1799" to-port="0"/>
		<edge from-layer="1796" from-port="3" to-layer="1815" to-port="0"/>
		<edge from-layer="1797" from-port="0" to-layer="1799" to-port="1"/>
		<edge from-layer="1798" from-port="0" to-layer="1799" to-port="2"/>
		<edge from-layer="1799" from-port="3" to-layer="1801" to-port="0"/>
		<edge from-layer="1800" from-port="0" to-layer="1801" to-port="1"/>
		<edge from-layer="1801" from-port="2" to-layer="1803" to-port="0"/>
		<edge from-layer="1801" from-port="2" to-layer="1813" to-port="0"/>
		<edge from-layer="1802" from-port="0" to-layer="1804" to-port="0"/>
		<edge from-layer="1803" from-port="1" to-layer="1804" to-port="1"/>
		<edge from-layer="1804" from-port="2" to-layer="1805" to-port="0"/>
		<edge from-layer="1805" from-port="1" to-layer="1807" to-port="0"/>
		<edge from-layer="1806" from-port="0" to-layer="1807" to-port="1"/>
		<edge from-layer="1807" from-port="2" to-layer="1808" to-port="0"/>
		<edge from-layer="1808" from-port="1" to-layer="1810" to-port="0"/>
		<edge from-layer="1809" from-port="0" to-layer="1810" to-port="1"/>
		<edge from-layer="1810" from-port="2" to-layer="1812" to-port="0"/>
		<edge from-layer="1811" from-port="0" to-layer="1812" to-port="1"/>
		<edge from-layer="1812" from-port="2" to-layer="1813" to-port="1"/>
		<edge from-layer="1813" from-port="3" to-layer="1815" to-port="1"/>
		<edge from-layer="1814" from-port="0" to-layer="1815" to-port="2"/>
		<edge from-layer="1815" from-port="3" to-layer="1818" to-port="0"/>
		<edge from-layer="1815" from-port="3" to-layer="1826" to-port="0"/>
		<edge from-layer="1816" from-port="0" to-layer="1818" to-port="1"/>
		<edge from-layer="1817" from-port="0" to-layer="1818" to-port="2"/>
		<edge from-layer="1818" from-port="3" to-layer="1819" to-port="0"/>
		<edge from-layer="1819" from-port="1" to-layer="1821" to-port="0"/>
		<edge from-layer="1820" from-port="0" to-layer="1821" to-port="1"/>
		<edge from-layer="1821" from-port="2" to-layer="1822" to-port="0"/>
		<edge from-layer="1823" from-port="0" to-layer="1826" to-port="1"/>
		<edge from-layer="1824" from-port="0" to-layer="1826" to-port="2"/>
		<edge from-layer="1825" from-port="0" to-layer="1826" to-port="3"/>
		<edge from-layer="1826" from-port="4" to-layer="1827" to-port="0"/>
	</edges>
	<meta_data>
		<MO_version value="2022.1.0-6910-173f328c53d"/>
		<Runtime_version value="2022.1.0-6910-173f328c53d"/>
		<legacy_path value="False"/>
		<cli_parameters>
			<caffe_parser_path value="DIR"/>
			<compress_fp16 value="True"/>
			<data_type value="FP32"/>
			<disable_nhwc_to_nchw value="False"/>
			<disable_omitting_optional value="False"/>
			<disable_resnet_optimization value="False"/>
			<disable_weights_compression value="False"/>
			<enable_concat_optimization value="False"/>
			<enable_flattening_nested_params value="False"/>
			<enable_ssd_gluoncv value="False"/>
			<extensions value="DIR"/>
			<framework value="onnx"/>
			<freeze_placeholder_with_value value="{}"/>
			<generate_deprecated_IR_V7 value="False"/>
			<input value="image"/>
			<input_model value="DIR/model.onnx"/>
			<input_model_is_text value="False"/>
			<input_shape value="[1,3,704,704]"/>
			<k value="DIR/CustomLayersMapping.xml"/>
			<keep_shape_ops value="True"/>
			<layout value="image(nchw)"/>
			<layout_values value="{'image': {'source_layout': 'nchw', 'target_layout': None, 'is_input': True}}"/>
			<legacy_ir_generation value="False"/>
			<legacy_mxnet_model value="False"/>
			<log_level value="ERROR"/>
			<mean_scale_values value="{'image': {'mean': array([0., 0., 0.]), 'scale': array([255., 255., 255.])}}"/>
			<mean_values value="image[0.0,0.0,0.0]"/>
			<model_name value="horizontal-text-detection-0001"/>
			<output value="['boxes', 'labels']"/>
			<output_dir value="DIR"/>
			<placeholder_data_types value="{}"/>
			<placeholder_shapes value="{'image': (1, 3, 704, 704)}"/>
			<progress value="False"/>
			<remove_memory value="False"/>
			<remove_output_softmax value="False"/>
			<reverse_input_channels value="True"/>
			<save_params_from_nd value="False"/>
			<scale_values value="image[255.0,255.0,255.0]"/>
			<silent value="False"/>
			<source_layout value="()"/>
			<static_shape value="False"/>
			<stream_output value="False"/>
			<target_layout value="()"/>
			<transform value=""/>
			<use_legacy_frontend value="False"/>
			<use_new_frontend value="False"/>
			<unset unset_cli_parameters="batch, counts, disable_fusing, disable_gfusing, finegrain_fusing, input_checkpoint, input_meta_graph, input_proto, input_symbol, mean_file, mean_file_offsets, move_to_preprocess, nd_prefix_name, pretrained_model_name, saved_model_dir, saved_model_tags, scale, tensorboard_logdir, tensorflow_custom_layer_libraries, tensorflow_custom_operations_config_update, tensorflow_object_detection_api_pipeline_config, tensorflow_use_custom_operations_config, transformations_config"/>
		</cli_parameters>
	</meta_data>
</net>
