<?xml version="1.0" ?>
<net name="torch-jit-export" version="11">
	<layers>
		<layer id="144" name="image" type="Parameter" version="opset1">
			<data element_type="f32" shape="1,3,704,704"/>
			<rt_info>
				<attribute name="fused_names" value="image" version="0"/>
				<attribute name="old_api_map_element_type" value="f16" version="0"/>
			</rt_info>
			<output>
				<port id="0" names="image" precision="FP32">
					<dim>1</dim>
					<dim>3</dim>
					<dim>704</dim>
					<dim>704</dim>
					<rt_info>
						<attribute layout="[N,C,H,W]" name="layout" version="0"/>
					</rt_info>
				</port>
			</output>
		</layer>
		<layer id="0" name="8998900232593" type="Const" version="opset1">
			<data element_type="f32" offset="0" shape="" size="4"/>
			<output>
				<port id="0" precision="FP32"/>
			</output>
		</layer>
		<layer id="1" name="8999900329713" type="Const" version="opset1">
			<data element_type="f32" offset="4" shape="" size="4"/>
			<output>
				<port id="0" precision="FP32"/>
			</output>
		</layer>
		<layer id="2" name="9000900429173" type="Const" version="opset1">
			<data element_type="f32" offset="0" shape="" size="4"/>
			<output>
				<port id="0" precision="FP32"/>
			</output>
		</layer>
		<layer id="3" name="9001900530718" type="Const" version="opset1">
			<data element_type="f32" offset="4" shape="" size="4"/>
			<output>
				<port id="0" precision="FP32"/>
			</output>
		</layer>
		<layer id="4" name="Constant_2828229033217" type="Const" version="opset1">
			<data element_type="i64" offset="8" shape="2" size="16"/>
			<rt_info>
				<attribute name="fused_names" value="Constant_2828" version="0"/>
			</rt_info>
			<output>
				<port id="0" precision="I64">
					<dim>2</dim>
				</port>
			</output>
		</layer>
		<layer id="5" name="8588859233337" type="Const" version="opset1">
			<data element_type="f32" offset="24" shape="" size="4"/>
			<output>
				<port id="0" precision="FP32"/>
			</output>
		</layer>
		<layer id="6" name="8589859329437" type="Const" version="opset1">
			<data element_type="f32" offset="28" shape="" size="4"/>
			<output>
				<port id="0" precision="FP32"/>
			</output>
		</layer>
		<layer id="7" name="8590859431861" type="Const" version="opset1">
			<data element_type="f32" offset="24" shape="" size="4"/>
			<output>
				<port id="0" precision="FP32"/>
			</output>
		</layer>
		<layer id="8" name="8591859530910" type="Const" version="opset1">
			<data element_type="f32" offset="28" shape="" size="4"/>
			<output>
				<port id="0" precision="FP32"/>
			</output>
		</layer>
		<layer id="9" name="5011501329860" type="Const" version="opset1">
			<data element_type="f32" offset="32" shape="1,32,1,1" size="128"/>
			<output>
				<port id="0" precision="FP32">
					<dim>1</dim>
					<dim>32</dim>
					<dim>1</dim>
					<dim>1</dim>
				</port>
			</output>
		</layer>
		<layer id="10" name="8788879231228" type="Const" version="opset1">
			<data element_type="f32" offset="0" shape="" size="4"/>
			<output>
				<port id="0" precision="FP32"/>
			</output>
		</layer>
		<layer id="11" name="8789879331585" type="Const" version="opset1">
			<data element_type="f32" offset="160" shape="" size="4"/>
			<output>
				<port id="0" precision="FP32"/>
			</output>
		</layer>
		<layer id="12" name="8790879430391" type="Const" version="opset1">
			<data element_type="f32" offset="0" shape="" size="4"/>
			<output>
				<port id="0" precision="FP32"/>
			</output>
		</layer>
		<layer id="13" name="8791879531750" type="Const" version="opset1">
			<data element_type="f32" offset="160" shape="" size="4"/>
			<output>
				<port id="0" precision="FP32"/>
			</output>
		</layer>
		<layer id="14" name="Constant_2731227833421" type="Const" version="opset1">
			<data element_type="i64" offset="8" shape="2" size="16"/>
			<rt_info>
				<attribute name="fused_names" value="Constant_2731" version="0"/>
			</rt_info>
			<output>
				<port id="0" precision="I64">
					<dim>2</dim>
				</port>
			</output>
		</layer>
		<layer id="15" name="8738874230757" type="Const" version="opset1">
			<data element_type="f32" offset="164" shape="" size="4"/>
			<output>
				<port id="0" precision="FP32"/>
			</output>
		</layer>
		<layer id="16" name="8739874330523" type="Const" version="opset1">
			<data element_type="f32" offset="168" shape="" size="4"/>
			<output>
				<port id="0" precision="FP32"/>
			</output>
		</layer>
		<layer id="17" name="8740874432503" type="Const" version="opset1">
			<data element_type="f32" offset="164" shape="" size="4"/>
			<output>
				<port id="0" precision="FP32"/>
			</output>
		</layer>
		<layer id="18" name="8741874530388" type="Const" version="opset1">
			<data element_type="f32" offset="168" shape="" size="4"/>
			<output>
				<port id="0" precision="FP32"/>
			</output>
		</layer>
		<layer id="19" name="5007500930925" type="Const" version="opset1">
			<data element_type="f32" offset="32" shape="1,32,1,1" size="128"/>
			<output>
				<port id="0" precision="FP32">
					<dim>1</dim>
					<dim>32</dim>
					<dim>1</dim>
					<dim>1</dim>
				</port>
			</output>
		</layer>
		<layer id="20" name="7378738232137" type="Const" version="opset1">
			<data element_type="f32" offset="0" shape="" size="4"/>
			<output>
				<port id="0" precision="FP32"/>
			</output>
		</layer>
		<layer id="21" name="7379738330091" type="Const" version="opset1">
			<data element_type="f32" offset="172" shape="" size="4"/>
			<output>
				<port id="0" precision="FP32"/>
			</output>
		</layer>
		<layer id="22" name="7380738430235" type="Const" version="opset1">
			<data element_type="f32" offset="0" shape="" size="4"/>
			<output>
				<port id="0" precision="FP32"/>
			</output>
		</layer>
		<layer id="23" name="7381738531600" type="Const" version="opset1">
			<data element_type="f32" offset="172" shape="" size="4"/>
			<output>
				<port id="0" precision="FP32"/>
			</output>
		</layer>
		<layer id="24" name="Constant_2634226631519" type="Const" version="opset1">
			<data element_type="i64" offset="8" shape="2" size="16"/>
			<rt_info>
				<attribute name="fused_names" value="Constant_2634" version="0"/>
			</rt_info>
			<output>
				<port id="0" precision="I64">
					<dim>2</dim>
				</port>
			</output>
		</layer>
		<layer id="25" name="7708771232710" type="Const" version="opset1">
			<data element_type="f32" offset="176" shape="" size="4"/>
			<output>
				<port id="0" precision="FP32"/>
			</output>
		</layer>
		<layer id="26" name="7709771332266" type="Const" version="opset1">
			<data element_type="f32" offset="180" shape="" size="4"/>
			<output>
				<port id="0" precision="FP32"/>
			</output>
		</layer>
		<layer id="27" name="7710771431606" type="Const" version="opset1">
			<data element_type="f32" offset="176" shape="" size="4"/>
			<output>
				<port id="0" precision="FP32"/>
			</output>
		</layer>
		<layer id="28" name="7711771533154" type="Const" version="opset1">
			<data element_type="f32" offset="180" shape="" size="4"/>
			<output>
				<port id="0" precision="FP32"/>
			</output>
		</layer>
		<layer id="29" name="5003500532491" type="Const" version="opset1">
			<data element_type="f32" offset="32" shape="1,32,1,1" size="128"/>
			<output>
				<port id="0" precision="FP32">
					<dim>1</dim>
					<dim>32</dim>
					<dim>1</dim>
					<dim>1</dim>
				</port>
			</output>
		</layer>
		<layer id="30" name="6978698233322" type="Const" version="opset1">
			<data element_type="f32" offset="0" shape="" size="4"/>
			<output>
				<port id="0" precision="FP32"/>
			</output>
		</layer>
		<layer id="31" name="6979698330988" type="Const" version="opset1">
			<data element_type="f32" offset="184" shape="" size="4"/>
			<output>
				<port id="0" precision="FP32"/>
			</output>
		</layer>
		<layer id="32" name="6980698429590" type="Const" version="opset1">
			<data element_type="f32" offset="0" shape="" size="4"/>
			<output>
				<port id="0" precision="FP32"/>
			</output>
		</layer>
		<layer id="33" name="6981698532308" type="Const" version="opset1">
			<data element_type="f32" offset="184" shape="" size="4"/>
			<output>
				<port id="0" precision="FP32"/>
			</output>
		</layer>
		<layer id="34" name="Constant_2537225429443" type="Const" version="opset1">
			<data element_type="i64" offset="8" shape="2" size="16"/>
			<rt_info>
				<attribute name="fused_names" value="Constant_2537" version="0"/>
			</rt_info>
			<output>
				<port id="0" precision="I64">
					<dim>2</dim>
				</port>
			</output>
		</layer>
		<layer id="35" name="7928793232887" type="Const" version="opset1">
			<data element_type="f32" offset="188" shape="" size="4"/>
			<output>
				<port id="0" precision="FP32"/>
			</output>
		</layer>
		<layer id="36" name="7929793329785" type="Const" version="opset1">
			<data element_type="f32" offset="192" shape="" size="4"/>
			<output>
				<port id="0" precision="FP32"/>
			</output>
		</layer>
		<layer id="37" name="7930793430406" type="Const" version="opset1">
			<data element_type="f32" offset="188" shape="" size="4"/>
			<output>
				<port id="0" precision="FP32"/>
			</output>
		</layer>
		<layer id="38" name="7931793530250" type="Const" version="opset1">
			<data element_type="f32" offset="192" shape="" size="4"/>
			<output>
				<port id="0" precision="FP32"/>
			</output>
		</layer>
		<layer id="39" name="4999500130232" type="Const" version="opset1">
			<data element_type="f32" offset="32" shape="1,32,1,1" size="128"/>
			<output>
				<port id="0" precision="FP32">
					<dim>1</dim>
					<dim>32</dim>
					<dim>1</dim>
					<dim>1</dim>
				</port>
			</output>
		</layer>
		<layer id="40" name="7818782231033" type="Const" version="opset1">
			<data element_type="f32" offset="196" shape="" size="4"/>
			<output>
				<port id="0" precision="FP32"/>
			</output>
		</layer>
		<layer id="41" name="7819782333286" type="Const" version="opset1">
			<data element_type="f32" offset="200" shape="" size="4"/>
			<output>
				<port id="0" precision="FP32"/>
			</output>
		</layer>
		<layer id="42" name="7820782433130" type="Const" version="opset1">
			<data element_type="f32" offset="196" shape="" size="4"/>
			<output>
				<port id="0" precision="FP32"/>
			</output>
		</layer>
		<layer id="43" name="7821782530421" type="Const" version="opset1">
			<data element_type="f32" offset="200" shape="" size="4"/>
			<output>
				<port id="0" precision="FP32"/>
			</output>
		</layer>
		<layer id="44" name="7238724230460" type="Const" version="opset1">
			<data element_type="f32" offset="204" shape="" size="4"/>
			<output>
				<port id="0" precision="FP32"/>
			</output>
		</layer>
		<layer id="45" name="7239724333229" type="Const" version="opset1">
			<data element_type="f32" offset="208" shape="" size="4"/>
			<output>
				<port id="0" precision="FP32"/>
			</output>
		</layer>
		<layer id="46" name="7240724430463" type="Const" version="opset1">
			<data element_type="f32" offset="204" shape="" size="4"/>
			<output>
				<port id="0" precision="FP32"/>
			</output>
		</layer>
		<layer id="47" name="7241724533304" type="Const" version="opset1">
			<data element_type="f32" offset="208" shape="" size="4"/>
			<output>
				<port id="0" precision="FP32"/>
			</output>
		</layer>
		<layer id="48" name="8288829231306" type="Const" version="opset1">
			<data element_type="f32" offset="212" shape="" size="4"/>
			<output>
				<port id="0" precision="FP32"/>
			</output>
		</layer>
		<layer id="49" name="8289829332287" type="Const" version="opset1">
			<data element_type="f32" offset="216" shape="" size="4"/>
			<output>
				<port id="0" precision="FP32"/>
			</output>
		</layer>
		<layer id="50" name="8290829430502" type="Const" version="opset1">
			<data element_type="f32" offset="212" shape="" size="4"/>
			<output>
				<port id="0" precision="FP32"/>
			</output>
		</layer>
		<layer id="51" name="8291829529890" type="Const" version="opset1">
			<data element_type="f32" offset="216" shape="" size="4"/>
			<output>
				<port id="0" precision="FP32"/>
			</output>
		</layer>
		<layer id="52" name="7078708232290" type="Const" version="opset1">
			<data element_type="f32" offset="220" shape="" size="4"/>
			<output>
				<port id="0" precision="FP32"/>
			</output>
		</layer>
		<layer id="53" name="7079708331135" type="Const" version="opset1">
			<data element_type="f32" offset="224" shape="" size="4"/>
			<output>
				<port id="0" precision="FP32"/>
			</output>
		</layer>
		<layer id="54" name="7080708433073" type="Const" version="opset1">
			<data element_type="f32" offset="220" shape="" size="4"/>
			<output>
				<port id="0" precision="FP32"/>
			</output>
		</layer>
		<layer id="55" name="7081708531273" type="Const" version="opset1">
			<data element_type="f32" offset="224" shape="" size="4"/>
			<output>
				<port id="0" precision="FP32"/>
			</output>
		</layer>
		<layer id="56" name="8748875232416" type="Const" version="opset1">
			<data element_type="f32" offset="228" shape="" size="4"/>
			<output>
				<port id="0" precision="FP32"/>
			</output>
		</layer>
		<layer id="57" name="8749875330328" type="Const" version="opset1">
			<data element_type="f32" offset="232" shape="" size="4"/>
			<output>
				<port id="0" precision="FP32"/>
			</output>
		</layer>
		<layer id="58" name="8750875433550" type="Const" version="opset1">
			<data element_type="f32" offset="228" shape="" size="4"/>
			<output>
				<port id="0" precision="FP32"/>
			</output>
		</layer>
		<layer id="59" name="8751875532191" type="Const" version="opset1">
			<data element_type="f32" offset="232" shape="" size="4"/>
			<output>
				<port id="0" precision="FP32"/>
			</output>
		</layer>
		<layer id="60" name="8398840231762" type="Const" version="opset1">
			<data element_type="f32" offset="0" shape="" size="4"/>
			<output>
				<port id="0" precision="FP32"/>
			</output>
		</layer>
		<layer id="61" name="8399840331825" type="Const" version="opset1">
			<data element_type="f32" offset="236" shape="" size="4"/>
			<output>
				<port id="0" precision="FP32"/>
			</output>
		</layer>
		<layer id="62" name="8400840431846" type="Const" version="opset1">
			<data element_type="f32" offset="0" shape="" size="4"/>
			<output>
				<port id="0" precision="FP32"/>
			</output>
		</layer>
		<layer id="63" name="8401840530340" type="Const" version="opset1">
			<data element_type="f32" offset="236" shape="" size="4"/>
			<output>
				<port id="0" precision="FP32"/>
			</output>
		</layer>
		<layer id="64" name="8428843232509" type="Const" version="opset1">
			<data element_type="f32" offset="240" shape="1,192,1,1" size="768"/>
			<output>
				<port id="0" precision="FP32">
					<dim>1</dim>
					<dim>192</dim>
					<dim>1</dim>
					<dim>1</dim>
				</port>
			</output>
		</layer>
		<layer id="65" name="8429843330937" type="Const" version="opset1">
			<data element_type="f32" offset="1008" shape="1,192,1,1" size="768"/>
			<output>
				<port id="0" precision="FP32">
					<dim>1</dim>
					<dim>192</dim>
					<dim>1</dim>
					<dim>1</dim>
				</port>
			</output>
		</layer>
		<layer id="66" name="8430843430784" type="Const" version="opset1">
			<data element_type="f32" offset="240" shape="1,192,1,1" size="768"/>
			<output>
				<port id="0" precision="FP32">
					<dim>1</dim>
					<dim>192</dim>
					<dim>1</dim>
					<dim>1</dim>
				</port>
			</output>
		</layer>
		<layer id="67" name="8431843532953" type="Const" version="opset1">
			<data element_type="f32" offset="1008" shape="1,192,1,1" size="768"/>
			<output>
				<port id="0" precision="FP32">
					<dim>1</dim>
					<dim>192</dim>
					<dim>1</dim>
					<dim>1</dim>
				</port>
			</output>
		</layer>
		<layer id="68" name="8758876229821" type="Const" version="opset1">
			<data element_type="f32" offset="1776" shape="" size="4"/>
			<output>
				<port id="0" precision="FP32"/>
			</output>
		</layer>
		<layer id="69" name="8759876330811" type="Const" version="opset1">
			<data element_type="f32" offset="1780" shape="" size="4"/>
			<output>
				<port id="0" precision="FP32"/>
			</output>
		</layer>
		<layer id="70" name="8760876429806" type="Const" version="opset1">
			<data element_type="f32" offset="1776" shape="" size="4"/>
			<output>
				<port id="0" precision="FP32"/>
			</output>
		</layer>
		<layer id="71" name="8761876533166" type="Const" version="opset1">
			<data element_type="f32" offset="1780" shape="" size="4"/>
			<output>
				<port id="0" precision="FP32"/>
			</output>
		</layer>
		<layer id="72" name="6788679231021" type="Const" version="opset1">
			<data element_type="f32" offset="1784" shape="" size="4"/>
			<output>
				<port id="0" precision="FP32"/>
			</output>
		</layer>
		<layer id="73" name="6789679329134" type="Const" version="opset1">
			<data element_type="f32" offset="1788" shape="" size="4"/>
			<output>
				<port id="0" precision="FP32"/>
			</output>
		</layer>
		<layer id="74" name="6790679432902" type="Const" version="opset1">
			<data element_type="f32" offset="1784" shape="" size="4"/>
			<output>
				<port id="0" precision="FP32"/>
			</output>
		</layer>
		<layer id="75" name="6791679532905" type="Const" version="opset1">
			<data element_type="f32" offset="1788" shape="" size="4"/>
			<output>
				<port id="0" precision="FP32"/>
			</output>
		</layer>
		<layer id="76" name="8568857230427" type="Const" version="opset1">
			<data element_type="f32" offset="0" shape="" size="4"/>
			<output>
				<port id="0" precision="FP32"/>
			</output>
		</layer>
		<layer id="77" name="8569857330124" type="Const" version="opset1">
			<data element_type="f32" offset="1792" shape="" size="4"/>
			<output>
				<port id="0" precision="FP32"/>
			</output>
		</layer>
		<layer id="78" name="8570857430703" type="Const" version="opset1">
			<data element_type="f32" offset="0" shape="" size="4"/>
			<output>
				<port id="0" precision="FP32"/>
			</output>
		</layer>
		<layer id="79" name="8571857531384" type="Const" version="opset1">
			<data element_type="f32" offset="1792" shape="" size="4"/>
			<output>
				<port id="0" precision="FP32"/>
			</output>
		</layer>
		<layer id="80" name="6588659233040" type="Const" version="opset1">
			<data element_type="f32" offset="240" shape="1,192,1,1" size="768"/>
			<output>
				<port id="0" precision="FP32">
					<dim>1</dim>
					<dim>192</dim>
					<dim>1</dim>
					<dim>1</dim>
				</port>
			</output>
		</layer>
		<layer id="81" name="6589659329419" type="Const" version="opset1">
			<data element_type="f32" offset="1796" shape="1,192,1,1" size="768"/>
			<output>
				<port id="0" precision="FP32">
					<dim>1</dim>
					<dim>192</dim>
					<dim>1</dim>
					<dim>1</dim>
				</port>
			</output>
		</layer>
		<layer id="82" name="6590659429308" type="Const" version="opset1">
			<data element_type="f32" offset="240" shape="1,192,1,1" size="768"/>
			<output>
				<port id="0" precision="FP32">
					<dim>1</dim>
					<dim>192</dim>
					<dim>1</dim>
					<dim>1</dim>
				</port>
			</output>
		</layer>
		<layer id="83" name="6591659529659" type="Const" version="opset1">
			<data element_type="f32" offset="1796" shape="1,192,1,1" size="768"/>
			<output>
				<port id="0" precision="FP32">
					<dim>1</dim>
					<dim>192</dim>
					<dim>1</dim>
					<dim>1</dim>
				</port>
			</output>
		</layer>
		<layer id="84" name="6798680233571" type="Const" version="opset1">
			<data element_type="f32" offset="2564" shape="" size="4"/>
			<output>
				<port id="0" precision="FP32"/>
			</output>
		</layer>
		<layer id="85" name="6799680332764" type="Const" version="opset1">
			<data element_type="f32" offset="2568" shape="" size="4"/>
			<output>
				<port id="0" precision="FP32"/>
			</output>
		</layer>
		<layer id="86" name="6800680432176" type="Const" version="opset1">
			<data element_type="f32" offset="2564" shape="" size="4"/>
			<output>
				<port id="0" precision="FP32"/>
			</output>
		</layer>
		<layer id="87" name="6801680530640" type="Const" version="opset1">
			<data element_type="f32" offset="2568" shape="" size="4"/>
			<output>
				<port id="0" precision="FP32"/>
			</output>
		</layer>
		<layer id="88" name="8488849231666" type="Const" version="opset1">
			<data element_type="f32" offset="0" shape="" size="4"/>
			<output>
				<port id="0" precision="FP32"/>
			</output>
		</layer>
		<layer id="89" name="8489849329350" type="Const" version="opset1">
			<data element_type="f32" offset="2572" shape="" size="4"/>
			<output>
				<port id="0" precision="FP32"/>
			</output>
		</layer>
		<layer id="90" name="8490849432302" type="Const" version="opset1">
			<data element_type="f32" offset="0" shape="" size="4"/>
			<output>
				<port id="0" precision="FP32"/>
			</output>
		</layer>
		<layer id="91" name="8491849531084" type="Const" version="opset1">
			<data element_type="f32" offset="2572" shape="" size="4"/>
			<output>
				<port id="0" precision="FP32"/>
			</output>
		</layer>
		<layer id="92" name="8158816229917" type="Const" version="opset1">
			<data element_type="f32" offset="2576" shape="1,144,1,1" size="576"/>
			<output>
				<port id="0" precision="FP32">
					<dim>1</dim>
					<dim>144</dim>
					<dim>1</dim>
					<dim>1</dim>
				</port>
			</output>
		</layer>
		<layer id="93" name="8159816329215" type="Const" version="opset1">
			<data element_type="f32" offset="3152" shape="1,144,1,1" size="576"/>
			<output>
				<port id="0" precision="FP32">
					<dim>1</dim>
					<dim>144</dim>
					<dim>1</dim>
					<dim>1</dim>
				</port>
			</output>
		</layer>
		<layer id="94" name="8160816433454" type="Const" version="opset1">
			<data element_type="f32" offset="2576" shape="1,144,1,1" size="576"/>
			<output>
				<port id="0" precision="FP32">
					<dim>1</dim>
					<dim>144</dim>
					<dim>1</dim>
					<dim>1</dim>
				</port>
			</output>
		</layer>
		<layer id="95" name="8161816532332" type="Const" version="opset1">
			<data element_type="f32" offset="3152" shape="1,144,1,1" size="576"/>
			<output>
				<port id="0" precision="FP32">
					<dim>1</dim>
					<dim>144</dim>
					<dim>1</dim>
					<dim>1</dim>
				</port>
			</output>
		</layer>
		<layer id="96" name="7678768229629" type="Const" version="opset1">
			<data element_type="f32" offset="3728" shape="" size="4"/>
			<output>
				<port id="0" precision="FP32"/>
			</output>
		</layer>
		<layer id="97" name="7679768330625" type="Const" version="opset1">
			<data element_type="f32" offset="3732" shape="" size="4"/>
			<output>
				<port id="0" precision="FP32"/>
			</output>
		</layer>
		<layer id="98" name="7680768430475" type="Const" version="opset1">
			<data element_type="f32" offset="3728" shape="" size="4"/>
			<output>
				<port id="0" precision="FP32"/>
			</output>
		</layer>
		<layer id="99" name="7681768531051" type="Const" version="opset1">
			<data element_type="f32" offset="3732" shape="" size="4"/>
			<output>
				<port id="0" precision="FP32"/>
			</output>
		</layer>
		<layer id="100" name="8848885230127" type="Const" version="opset1">
			<data element_type="f32" offset="3736" shape="" size="4"/>
			<output>
				<port id="0" precision="FP32"/>
			</output>
		</layer>
		<layer id="101" name="8849885330001" type="Const" version="opset1">
			<data element_type="f32" offset="3740" shape="" size="4"/>
			<output>
				<port id="0" precision="FP32"/>
			</output>
		</layer>
		<layer id="102" name="8850885432029" type="Const" version="opset1">
			<data element_type="f32" offset="3736" shape="" size="4"/>
			<output>
				<port id="0" precision="FP32"/>
			</output>
		</layer>
		<layer id="103" name="8851885532836" type="Const" version="opset1">
			<data element_type="f32" offset="3740" shape="" size="4"/>
			<output>
				<port id="0" precision="FP32"/>
			</output>
		</layer>
		<layer id="104" name="9328933230766" type="Const" version="opset1">
			<data element_type="f32" offset="0" shape="" size="4"/>
			<output>
				<port id="0" precision="FP32"/>
			</output>
		</layer>
		<layer id="105" name="9329933330214" type="Const" version="opset1">
			<data element_type="f32" offset="3744" shape="" size="4"/>
			<output>
				<port id="0" precision="FP32"/>
			</output>
		</layer>
		<layer id="106" name="9330933431363" type="Const" version="opset1">
			<data element_type="f32" offset="0" shape="" size="4"/>
			<output>
				<port id="0" precision="FP32"/>
			</output>
		</layer>
		<layer id="107" name="9331933529236" type="Const" version="opset1">
			<data element_type="f32" offset="3744" shape="" size="4"/>
			<output>
				<port id="0" precision="FP32"/>
			</output>
		</layer>
		<layer id="108" name="8078808233301" type="Const" version="opset1">
			<data element_type="f32" offset="2576" shape="1,144,1,1" size="576"/>
			<output>
				<port id="0" precision="FP32">
					<dim>1</dim>
					<dim>144</dim>
					<dim>1</dim>
					<dim>1</dim>
				</port>
			</output>
		</layer>
		<layer id="109" name="8079808332779" type="Const" version="opset1">
			<data element_type="f32" offset="3748" shape="1,144,1,1" size="576"/>
			<output>
				<port id="0" precision="FP32">
					<dim>1</dim>
					<dim>144</dim>
					<dim>1</dim>
					<dim>1</dim>
				</port>
			</output>
		</layer>
		<layer id="110" name="8080808431309" type="Const" version="opset1">
			<data element_type="f32" offset="2576" shape="1,144,1,1" size="576"/>
			<output>
				<port id="0" precision="FP32">
					<dim>1</dim>
					<dim>144</dim>
					<dim>1</dim>
					<dim>1</dim>
				</port>
			</output>
		</layer>
		<layer id="111" name="8081808530976" type="Const" version="opset1">
			<data element_type="f32" offset="3748" shape="1,144,1,1" size="576"/>
			<output>
				<port id="0" precision="FP32">
					<dim>1</dim>
					<dim>144</dim>
					<dim>1</dim>
					<dim>1</dim>
				</port>
			</output>
		</layer>
		<layer id="112" name="8858886229647" type="Const" version="opset1">
			<data element_type="f32" offset="4324" shape="" size="4"/>
			<output>
				<port id="0" precision="FP32"/>
			</output>
		</layer>
		<layer id="113" name="8859886330955" type="Const" version="opset1">
			<data element_type="f32" offset="4328" shape="" size="4"/>
			<output>
				<port id="0" precision="FP32"/>
			</output>
		</layer>
		<layer id="114" name="8860886431183" type="Const" version="opset1">
			<data element_type="f32" offset="4324" shape="" size="4"/>
			<output>
				<port id="0" precision="FP32"/>
			</output>
		</layer>
		<layer id="115" name="8861886529155" type="Const" version="opset1">
			<data element_type="f32" offset="4328" shape="" size="4"/>
			<output>
				<port id="0" precision="FP32"/>
			</output>
		</layer>
		<layer id="116" name="9148915230412" type="Const" version="opset1">
			<data element_type="f32" offset="0" shape="" size="4"/>
			<output>
				<port id="0" precision="FP32"/>
			</output>
		</layer>
		<layer id="117" name="9149915331465" type="Const" version="opset1">
			<data element_type="f32" offset="4332" shape="" size="4"/>
			<output>
				<port id="0" precision="FP32"/>
			</output>
		</layer>
		<layer id="118" name="9150915432599" type="Const" version="opset1">
			<data element_type="f32" offset="0" shape="" size="4"/>
			<output>
				<port id="0" precision="FP32"/>
			</output>
		</layer>
		<layer id="119" name="9151915532623" type="Const" version="opset1">
			<data element_type="f32" offset="4332" shape="" size="4"/>
			<output>
				<port id="0" precision="FP32"/>
			</output>
		</layer>
		<layer id="120" name="7138714232320" type="Const" version="opset1">
			<data element_type="f32" offset="4336" shape="1,96,1,1" size="384"/>
			<output>
				<port id="0" precision="FP32">
					<dim>1</dim>
					<dim>96</dim>
					<dim>1</dim>
					<dim>1</dim>
				</port>
			</output>
		</layer>
		<layer id="121" name="7139714331225" type="Const" version="opset1">
			<data element_type="f32" offset="4720" shape="1,96,1,1" size="384"/>
			<output>
				<port id="0" precision="FP32">
					<dim>1</dim>
					<dim>96</dim>
					<dim>1</dim>
					<dim>1</dim>
				</port>
			</output>
		</layer>
		<layer id="122" name="7140714431732" type="Const" version="opset1">
			<data element_type="f32" offset="4336" shape="1,96,1,1" size="384"/>
			<output>
				<port id="0" precision="FP32">
					<dim>1</dim>
					<dim>96</dim>
					<dim>1</dim>
					<dim>1</dim>
				</port>
			</output>
		</layer>
		<layer id="123" name="7141714529704" type="Const" version="opset1">
			<data element_type="f32" offset="4720" shape="1,96,1,1" size="384"/>
			<output>
				<port id="0" precision="FP32">
					<dim>1</dim>
					<dim>96</dim>
					<dim>1</dim>
					<dim>1</dim>
				</port>
			</output>
		</layer>
		<layer id="124" name="8358836229158" type="Const" version="opset1">
			<data element_type="f32" offset="5104" shape="" size="4"/>
			<output>
				<port id="0" precision="FP32"/>
			</output>
		</layer>
		<layer id="125" name="8359836330697" type="Const" version="opset1">
			<data element_type="f32" offset="5108" shape="" size="4"/>
			<output>
				<port id="0" precision="FP32"/>
			</output>
		</layer>
		<layer id="126" name="8360836430919" type="Const" version="opset1">
			<data element_type="f32" offset="5104" shape="" size="4"/>
			<output>
				<port id="0" precision="FP32"/>
			</output>
		</layer>
		<layer id="127" name="8361836530634" type="Const" version="opset1">
			<data element_type="f32" offset="5108" shape="" size="4"/>
			<output>
				<port id="0" precision="FP32"/>
			</output>
		</layer>
		<layer id="128" name="6738674233256" type="Const" version="opset1">
			<data element_type="f32" offset="0" shape="" size="4"/>
			<output>
				<port id="0" precision="FP32"/>
			</output>
		</layer>
		<layer id="129" name="6739674331414" type="Const" version="opset1">
			<data element_type="f32" offset="3744" shape="" size="4"/>
			<output>
				<port id="0" precision="FP32"/>
			</output>
		</layer>
		<layer id="130" name="6740674430979" type="Const" version="opset1">
			<data element_type="f32" offset="0" shape="" size="4"/>
			<output>
				<port id="0" precision="FP32"/>
			</output>
		</layer>
		<layer id="131" name="6741674529305" type="Const" version="opset1">
			<data element_type="f32" offset="3744" shape="" size="4"/>
			<output>
				<port id="0" precision="FP32"/>
			</output>
		</layer>
		<layer id="132" name="8718872229932" type="Const" version="opset1">
			<data element_type="f32" offset="32" shape="1,32,1,1" size="128"/>
			<output>
				<port id="0" precision="FP32">
					<dim>1</dim>
					<dim>32</dim>
					<dim>1</dim>
					<dim>1</dim>
				</port>
			</output>
		</layer>
		<layer id="133" name="8719872333442" type="Const" version="opset1">
			<data element_type="f32" offset="5112" shape="1,32,1,1" size="128"/>
			<output>
				<port id="0" precision="FP32">
					<dim>1</dim>
					<dim>32</dim>
					<dim>1</dim>
					<dim>1</dim>
				</port>
			</output>
		</layer>
		<layer id="134" name="8720872432989" type="Const" version="opset1">
			<data element_type="f32" offset="32" shape="1,32,1,1" size="128"/>
			<output>
				<port id="0" precision="FP32">
					<dim>1</dim>
					<dim>32</dim>
					<dim>1</dim>
					<dim>1</dim>
				</port>
			</output>
		</layer>
		<layer id="135" name="8721872531105" type="Const" version="opset1">
			<data element_type="f32" offset="5112" shape="1,32,1,1" size="128"/>
			<output>
				<port id="0" precision="FP32">
					<dim>1</dim>
					<dim>32</dim>
					<dim>1</dim>
					<dim>1</dim>
				</port>
			</output>
		</layer>
		<layer id="136" name="8918892229824" type="Const" version="opset1">
			<data element_type="f32" offset="0" shape="" size="4"/>
			<output>
				<port id="0" precision="FP32"/>
			</output>
		</layer>
		<layer id="137" name="8919892332011" type="Const" version="opset1">
			<data element_type="f32" offset="5240" shape="" size="4"/>
			<output>
				<port id="0" precision="FP32"/>
			</output>
		</layer>
		<layer id="138" name="8920892432656" type="Const" version="opset1">
			<data element_type="f32" offset="0" shape="" size="4"/>
			<output>
				<port id="0" precision="FP32"/>
			</output>
		</layer>
		<layer id="139" name="8921892533187" type="Const" version="opset1">
			<data element_type="f32" offset="5240" shape="" size="4"/>
			<output>
				<port id="0" precision="FP32"/>
			</output>
		</layer>
		<layer id="140" name="7758776229467" type="Const" version="opset1">
			<data element_type="f32" offset="0" shape="" size="4"/>
			<output>
				<port id="0" precision="FP32"/>
			</output>
		</layer>
		<layer id="141" name="7759776331198" type="Const" version="opset1">
			<data element_type="f32" offset="5244" shape="" size="4"/>
			<output>
				<port id="0" precision="FP32"/>
			</output>
		</layer>
		<layer id="142" name="7760776431117" type="Const" version="opset1">
			<data element_type="f32" offset="0" shape="" size="4"/>
			<output>
				<port id="0" precision="FP32"/>
			</output>
		</layer>
		<layer id="143" name="7761776530148" type="Const" version="opset1">
			<data element_type="f32" offset="5244" shape="" size="4"/>
			<output>
				<port id="0" precision="FP32"/>
			</output>
		</layer>
		<layer id="145" name="Multiply_68171/fq_input_0" type="FakeQuantize" version="opset1">
			<data auto_broadcast="numpy" levels="256"/>
			<input>
				<port id="0">
					<dim>1</dim>
					<dim>3</dim>
					<dim>704</dim>
					<dim>704</dim>
				</port>
				<port id="1"/>
				<port id="2"/>
				<port id="3"/>
				<port id="4"/>
			</input>
			<output>
				<port id="5" precision="FP32">
					<dim>1</dim>
					<dim>3</dim>
					<dim>704</dim>
					<dim>704</dim>
				</port>
			</output>
		</layer>
		<layer id="146" name="Gather_71870183318188/restored_convert/quantized2178631060" type="Const" version="opset1">
			<data element_type="i8" offset="5248" shape="32,3,3,3" size="864"/>
			<output>
				<port id="0" precision="I8">
					<dim>32</dim>
					<dim>3</dim>
					<dim>3</dim>
					<dim>3</dim>
				</port>
			</output>
		</layer>
		<layer id="147" name="Gather_71870183318188/restored_convert/quantized/to_f32" type="Convert" version="opset1">
			<data destination_type="f32"/>
			<input>
				<port id="0">
					<dim>32</dim>
					<dim>3</dim>
					<dim>3</dim>
					<dim>3</dim>
				</port>
			</input>
			<output>
				<port id="1" precision="FP32">
					<dim>32</dim>
					<dim>3</dim>
					<dim>3</dim>
					<dim>3</dim>
				</port>
			</output>
		</layer>
		<layer id="148" name="Multiply_68171/fq_weights_1/zero_point2180530817" type="Const" version="opset1">
			<data element_type="f32" offset="6112" shape="32,1,1,1" size="128"/>
			<output>
				<port id="0" precision="FP32">
					<dim>32</dim>
					<dim>1</dim>
					<dim>1</dim>
					<dim>1</dim>
				</port>
			</output>
		</layer>
		<layer id="149" name="Multiply_68171/fq_weights_1/minus_zp" type="Subtract" version="opset1">
			<data auto_broadcast="numpy"/>
			<input>
				<port id="0">
					<dim>32</dim>
					<dim>3</dim>
					<dim>3</dim>
					<dim>3</dim>
				</port>
				<port id="1">
					<dim>32</dim>
					<dim>1</dim>
					<dim>1</dim>
					<dim>1</dim>
				</port>
			</input>
			<output>
				<port id="2" precision="FP32">
					<dim>32</dim>
					<dim>3</dim>
					<dim>3</dim>
					<dim>3</dim>
				</port>
			</output>
		</layer>
		<layer id="150" name="Multiply_68171/fq_weights_1/scale2179433526" type="Const" version="opset1">
			<data element_type="f32" offset="6240" shape="32,1,1,1" size="128"/>
			<output>
				<port id="0" precision="FP32">
					<dim>32</dim>
					<dim>1</dim>
					<dim>1</dim>
					<dim>1</dim>
				</port>
			</output>
		</layer>
		<layer id="151" name="Multiply_68171/fq_weights_1/mulpiply_by_scale" type="Multiply" version="opset1">
			<data auto_broadcast="numpy"/>
			<input>
				<port id="0">
					<dim>32</dim>
					<dim>3</dim>
					<dim>3</dim>
					<dim>3</dim>
				</port>
				<port id="1">
					<dim>32</dim>
					<dim>1</dim>
					<dim>1</dim>
					<dim>1</dim>
				</port>
			</input>
			<output>
				<port id="2" precision="FP32">
					<dim>32</dim>
					<dim>3</dim>
					<dim>3</dim>
					<dim>3</dim>
				</port>
			</output>
		</layer>
		<layer id="152" name="Multiply_68171" type="Convolution" version="opset1">
			<data auto_pad="explicit" dilations="1,1" pads_begin="1,1" pads_end="1,1" strides="2,2"/>
			<rt_info>
				<attribute name="fused_names" value="364, 365, Constant_10583, Divide_10584, backbone.features.init_block.bn.bias, backbone.features.init_block.bn.running_mean, backbone.features.init_block.bn.running_var, backbone.features.init_block.bn.weight, backbone.features.init_block.conv.weight" version="0"/>
				<attribute name="preprocessing" version="0"/>
			</rt_info>
			<input>
				<port id="0">
					<dim>1</dim>
					<dim>3</dim>
					<dim>704</dim>
					<dim>704</dim>
				</port>
				<port id="1">
					<dim>32</dim>
					<dim>3</dim>
					<dim>3</dim>
					<dim>3</dim>
				</port>
			</input>
			<output>
				<port id="2" precision="FP32">
					<dim>1</dim>
					<dim>32</dim>
					<dim>352</dim>
					<dim>352</dim>
				</port>
			</output>
		</layer>
		<layer id="153" name="Constant_68176183632305" type="Const" version="opset1">
			<data element_type="f16" offset="6368" shape="1,32,1,1" size="64"/>
			<output>
				<port id="0" precision="FP16">
					<dim>1</dim>
					<dim>32</dim>
					<dim>1</dim>
					<dim>1</dim>
				</port>
			</output>
		</layer>
		<layer id="154" name="Constant_68176183618189/restored_convert" type="Convert" version="opset1">
			<data destination_type="f32"/>
			<rt_info>
				<attribute name="decompression" version="0"/>
			</rt_info>
			<input>
				<port id="0">
					<dim>1</dim>
					<dim>32</dim>
					<dim>1</dim>
					<dim>1</dim>
				</port>
			</input>
			<output>
				<port id="1" precision="FP32">
					<dim>1</dim>
					<dim>32</dim>
					<dim>1</dim>
					<dim>1</dim>
				</port>
			</output>
		</layer>
		<layer id="155" name="365" type="Add" version="opset1">
			<data auto_broadcast="numpy"/>
			<rt_info>
				<attribute name="fused_names" value="365, backbone.features.init_block.bn.bias, backbone.features.init_block.bn.running_mean, backbone.features.init_block.bn.running_var, backbone.features.init_block.bn.weight" version="0"/>
			</rt_info>
			<input>
				<port id="0">
					<dim>1</dim>
					<dim>32</dim>
					<dim>352</dim>
					<dim>352</dim>
				</port>
				<port id="1">
					<dim>1</dim>
					<dim>32</dim>
					<dim>1</dim>
					<dim>1</dim>
				</port>
			</input>
			<output>
				<port id="2" names="365" precision="FP32">
					<dim>1</dim>
					<dim>32</dim>
					<dim>352</dim>
					<dim>352</dim>
				</port>
			</output>
		</layer>
		<layer id="156" name="366" type="Clamp" version="opset1">
			<data max="6" min="0"/>
			<rt_info>
				<attribute name="fused_names" value="366" version="0"/>
			</rt_info>
			<input>
				<port id="0">
					<dim>1</dim>
					<dim>32</dim>
					<dim>352</dim>
					<dim>352</dim>
				</port>
			</input>
			<output>
				<port id="1" names="366" precision="FP32">
					<dim>1</dim>
					<dim>32</dim>
					<dim>352</dim>
					<dim>352</dim>
				</port>
			</output>
		</layer>
		<layer id="157" name="Multiply_68178/fq_input_0" type="FakeQuantize" version="opset1">
			<data auto_broadcast="numpy" levels="256"/>
			<input>
				<port id="0">
					<dim>1</dim>
					<dim>32</dim>
					<dim>352</dim>
					<dim>352</dim>
				</port>
				<port id="1"/>
				<port id="2"/>
				<port id="3"/>
				<port id="4"/>
			</input>
			<output>
				<port id="5" precision="FP32">
					<dim>1</dim>
					<dim>32</dim>
					<dim>352</dim>
					<dim>352</dim>
				</port>
			</output>
		</layer>
		<layer id="158" name="Multiply_68577184018190/restored_convert/quantized2163633502" type="Const" version="opset1">
			<data element_type="i8" offset="6432" shape="32,32,1,1" size="1024"/>
			<output>
				<port id="0" precision="I8">
					<dim>32</dim>
					<dim>32</dim>
					<dim>1</dim>
					<dim>1</dim>
				</port>
			</output>
		</layer>
		<layer id="159" name="Multiply_68577184018190/restored_convert/quantized/to_f32" type="Convert" version="opset1">
			<data destination_type="f32"/>
			<input>
				<port id="0">
					<dim>32</dim>
					<dim>32</dim>
					<dim>1</dim>
					<dim>1</dim>
				</port>
			</input>
			<output>
				<port id="1" precision="FP32">
					<dim>32</dim>
					<dim>32</dim>
					<dim>1</dim>
					<dim>1</dim>
				</port>
			</output>
		</layer>
		<layer id="160" name="Multiply_68178/fq_weights_1/zero_point2165530901" type="Const" version="opset1">
			<data element_type="f32" offset="7456" shape="32,1,1,1" size="128"/>
			<output>
				<port id="0" precision="FP32">
					<dim>32</dim>
					<dim>1</dim>
					<dim>1</dim>
					<dim>1</dim>
				</port>
			</output>
		</layer>
		<layer id="161" name="Multiply_68178/fq_weights_1/minus_zp" type="Subtract" version="opset1">
			<data auto_broadcast="numpy"/>
			<input>
				<port id="0">
					<dim>32</dim>
					<dim>32</dim>
					<dim>1</dim>
					<dim>1</dim>
				</port>
				<port id="1">
					<dim>32</dim>
					<dim>1</dim>
					<dim>1</dim>
					<dim>1</dim>
				</port>
			</input>
			<output>
				<port id="2" precision="FP32">
					<dim>32</dim>
					<dim>32</dim>
					<dim>1</dim>
					<dim>1</dim>
				</port>
			</output>
		</layer>
		<layer id="162" name="Multiply_68178/fq_weights_1/scale2164430358" type="Const" version="opset1">
			<data element_type="f32" offset="7584" shape="32,1,1,1" size="128"/>
			<output>
				<port id="0" precision="FP32">
					<dim>32</dim>
					<dim>1</dim>
					<dim>1</dim>
					<dim>1</dim>
				</port>
			</output>
		</layer>
		<layer id="163" name="Multiply_68178/fq_weights_1/mulpiply_by_scale" type="Multiply" version="opset1">
			<data auto_broadcast="numpy"/>
			<input>
				<port id="0">
					<dim>32</dim>
					<dim>32</dim>
					<dim>1</dim>
					<dim>1</dim>
				</port>
				<port id="1">
					<dim>32</dim>
					<dim>1</dim>
					<dim>1</dim>
					<dim>1</dim>
				</port>
			</input>
			<output>
				<port id="2" precision="FP32">
					<dim>32</dim>
					<dim>32</dim>
					<dim>1</dim>
					<dim>1</dim>
				</port>
			</output>
		</layer>
		<layer id="164" name="Multiply_68178" type="Convolution" version="opset1">
			<data auto_pad="explicit" dilations="1,1" pads_begin="0,0" pads_end="0,0" strides="1,1"/>
			<rt_info>
				<attribute name="fused_names" value="367, 368, backbone.features.stage1.unit1.conv1.bn.bias, backbone.features.stage1.unit1.conv1.bn.running_mean, backbone.features.stage1.unit1.conv1.bn.running_var, backbone.features.stage1.unit1.conv1.bn.weight" version="0"/>
			</rt_info>
			<input>
				<port id="0">
					<dim>1</dim>
					<dim>32</dim>
					<dim>352</dim>
					<dim>352</dim>
				</port>
				<port id="1">
					<dim>32</dim>
					<dim>32</dim>
					<dim>1</dim>
					<dim>1</dim>
				</port>
			</input>
			<output>
				<port id="2" precision="FP32">
					<dim>1</dim>
					<dim>32</dim>
					<dim>352</dim>
					<dim>352</dim>
				</port>
			</output>
		</layer>
		<layer id="165" name="Constant_68183184330604" type="Const" version="opset1">
			<data element_type="f16" offset="7712" shape="1,32,1,1" size="64"/>
			<output>
				<port id="0" precision="FP16">
					<dim>1</dim>
					<dim>32</dim>
					<dim>1</dim>
					<dim>1</dim>
				</port>
			</output>
		</layer>
		<layer id="166" name="Constant_68183184318191/restored_convert" type="Convert" version="opset1">
			<data destination_type="f32"/>
			<rt_info>
				<attribute name="decompression" version="0"/>
			</rt_info>
			<input>
				<port id="0">
					<dim>1</dim>
					<dim>32</dim>
					<dim>1</dim>
					<dim>1</dim>
				</port>
			</input>
			<output>
				<port id="1" precision="FP32">
					<dim>1</dim>
					<dim>32</dim>
					<dim>1</dim>
					<dim>1</dim>
				</port>
			</output>
		</layer>
		<layer id="167" name="368" type="Add" version="opset1">
			<data auto_broadcast="numpy"/>
			<rt_info>
				<attribute name="fused_names" value="368, backbone.features.stage1.unit1.conv1.bn.bias, backbone.features.stage1.unit1.conv1.bn.running_mean, backbone.features.stage1.unit1.conv1.bn.running_var, backbone.features.stage1.unit1.conv1.bn.weight" version="0"/>
			</rt_info>
			<input>
				<port id="0">
					<dim>1</dim>
					<dim>32</dim>
					<dim>352</dim>
					<dim>352</dim>
				</port>
				<port id="1">
					<dim>1</dim>
					<dim>32</dim>
					<dim>1</dim>
					<dim>1</dim>
				</port>
			</input>
			<output>
				<port id="2" names="368" precision="FP32">
					<dim>1</dim>
					<dim>32</dim>
					<dim>352</dim>
					<dim>352</dim>
				</port>
			</output>
		</layer>
		<layer id="168" name="369" type="Clamp" version="opset1">
			<data max="6" min="0"/>
			<rt_info>
				<attribute name="fused_names" value="369" version="0"/>
			</rt_info>
			<input>
				<port id="0">
					<dim>1</dim>
					<dim>32</dim>
					<dim>352</dim>
					<dim>352</dim>
				</port>
			</input>
			<output>
				<port id="1" names="369" precision="FP32">
					<dim>1</dim>
					<dim>32</dim>
					<dim>352</dim>
					<dim>352</dim>
				</port>
			</output>
		</layer>
		<layer id="169" name="Multiply_68185/fq_input_0" type="FakeQuantize" version="opset1">
			<data auto_broadcast="numpy" levels="256"/>
			<input>
				<port id="0">
					<dim>1</dim>
					<dim>32</dim>
					<dim>352</dim>
					<dim>352</dim>
				</port>
				<port id="1">
					<dim>1</dim>
					<dim>32</dim>
					<dim>1</dim>
					<dim>1</dim>
				</port>
				<port id="2">
					<dim>1</dim>
					<dim>32</dim>
					<dim>1</dim>
					<dim>1</dim>
				</port>
				<port id="3">
					<dim>1</dim>
					<dim>32</dim>
					<dim>1</dim>
					<dim>1</dim>
				</port>
				<port id="4">
					<dim>1</dim>
					<dim>32</dim>
					<dim>1</dim>
					<dim>1</dim>
				</port>
			</input>
			<output>
				<port id="5" precision="FP32">
					<dim>1</dim>
					<dim>32</dim>
					<dim>352</dim>
					<dim>352</dim>
				</port>
			</output>
		</layer>
		<layer id="170" name="26067/value2606929167" type="Const" version="opset1">
			<data element_type="i64" offset="7776" shape="5" size="40"/>
			<output>
				<port id="0" precision="I64">
					<dim>5</dim>
				</port>
			</output>
		</layer>
		<layer id="171" name="Multiply_68586184718192/restored_convert/quantized2181629995" type="Const" version="opset1">
			<data element_type="i8" offset="7816" shape="32,1,3,3" size="288"/>
			<output>
				<port id="0" precision="I8">
					<dim>32</dim>
					<dim>1</dim>
					<dim>3</dim>
					<dim>3</dim>
				</port>
			</output>
		</layer>
		<layer id="172" name="Multiply_68586184718192/restored_convert/quantized/to_f32" type="Convert" version="opset1">
			<data destination_type="f32"/>
			<input>
				<port id="0">
					<dim>32</dim>
					<dim>1</dim>
					<dim>3</dim>
					<dim>3</dim>
				</port>
			</input>
			<output>
				<port id="1" precision="FP32">
					<dim>32</dim>
					<dim>1</dim>
					<dim>3</dim>
					<dim>3</dim>
				</port>
			</output>
		</layer>
		<layer id="173" name="Multiply_68185/fq_weights_1/zero_point2183532725" type="Const" version="opset1">
			<data element_type="f32" offset="8104" shape="32,1,1,1" size="128"/>
			<output>
				<port id="0" precision="FP32">
					<dim>32</dim>
					<dim>1</dim>
					<dim>1</dim>
					<dim>1</dim>
				</port>
			</output>
		</layer>
		<layer id="174" name="Multiply_68185/fq_weights_1/minus_zp" type="Subtract" version="opset1">
			<data auto_broadcast="numpy"/>
			<input>
				<port id="0">
					<dim>32</dim>
					<dim>1</dim>
					<dim>3</dim>
					<dim>3</dim>
				</port>
				<port id="1">
					<dim>32</dim>
					<dim>1</dim>
					<dim>1</dim>
					<dim>1</dim>
				</port>
			</input>
			<output>
				<port id="2" precision="FP32">
					<dim>32</dim>
					<dim>1</dim>
					<dim>3</dim>
					<dim>3</dim>
				</port>
			</output>
		</layer>
		<layer id="175" name="Multiply_68185/fq_weights_1/scale2182429392" type="Const" version="opset1">
			<data element_type="f32" offset="8232" shape="32,1,1,1" size="128"/>
			<output>
				<port id="0" precision="FP32">
					<dim>32</dim>
					<dim>1</dim>
					<dim>1</dim>
					<dim>1</dim>
				</port>
			</output>
		</layer>
		<layer id="176" name="Multiply_68185/fq_weights_1/mulpiply_by_scale" type="Multiply" version="opset1">
			<data auto_broadcast="numpy"/>
			<input>
				<port id="0">
					<dim>32</dim>
					<dim>1</dim>
					<dim>3</dim>
					<dim>3</dim>
				</port>
				<port id="1">
					<dim>32</dim>
					<dim>1</dim>
					<dim>1</dim>
					<dim>1</dim>
				</port>
			</input>
			<output>
				<port id="2" precision="FP32">
					<dim>32</dim>
					<dim>1</dim>
					<dim>3</dim>
					<dim>3</dim>
				</port>
			</output>
		</layer>
		<layer id="177" name="26067" type="Reshape" version="opset1">
			<data special_zero="true"/>
			<input>
				<port id="0">
					<dim>32</dim>
					<dim>1</dim>
					<dim>3</dim>
					<dim>3</dim>
				</port>
				<port id="1">
					<dim>5</dim>
				</port>
			</input>
			<output>
				<port id="2" precision="FP32">
					<dim>32</dim>
					<dim>1</dim>
					<dim>1</dim>
					<dim>3</dim>
					<dim>3</dim>
				</port>
			</output>
		</layer>
		<layer id="178" name="Multiply_68185" type="GroupConvolution" version="opset1">
			<data auto_pad="explicit" dilations="1,1" pads_begin="1,1" pads_end="1,1" strides="1,1"/>
			<rt_info>
				<attribute name="fused_names" value="371, backbone.features.stage1.unit1.conv2.bn.bias, backbone.features.stage1.unit1.conv2.bn.running_mean, backbone.features.stage1.unit1.conv2.bn.running_var, backbone.features.stage1.unit1.conv2.bn.weight" version="0"/>
			</rt_info>
			<input>
				<port id="0">
					<dim>1</dim>
					<dim>32</dim>
					<dim>352</dim>
					<dim>352</dim>
				</port>
				<port id="1">
					<dim>32</dim>
					<dim>1</dim>
					<dim>1</dim>
					<dim>3</dim>
					<dim>3</dim>
				</port>
			</input>
			<output>
				<port id="2" names="370" precision="FP32">
					<dim>1</dim>
					<dim>32</dim>
					<dim>352</dim>
					<dim>352</dim>
				</port>
			</output>
		</layer>
		<layer id="179" name="Constant_68190185031171" type="Const" version="opset1">
			<data element_type="f16" offset="8360" shape="1,32,1,1" size="64"/>
			<output>
				<port id="0" precision="FP16">
					<dim>1</dim>
					<dim>32</dim>
					<dim>1</dim>
					<dim>1</dim>
				</port>
			</output>
		</layer>
		<layer id="180" name="Constant_68190185018193/restored_convert" type="Convert" version="opset1">
			<data destination_type="f32"/>
			<rt_info>
				<attribute name="decompression" version="0"/>
			</rt_info>
			<input>
				<port id="0">
					<dim>1</dim>
					<dim>32</dim>
					<dim>1</dim>
					<dim>1</dim>
				</port>
			</input>
			<output>
				<port id="1" precision="FP32">
					<dim>1</dim>
					<dim>32</dim>
					<dim>1</dim>
					<dim>1</dim>
				</port>
			</output>
		</layer>
		<layer id="181" name="371" type="Add" version="opset1">
			<data auto_broadcast="numpy"/>
			<rt_info>
				<attribute name="fused_names" value="371, backbone.features.stage1.unit1.conv2.bn.bias, backbone.features.stage1.unit1.conv2.bn.running_mean, backbone.features.stage1.unit1.conv2.bn.running_var, backbone.features.stage1.unit1.conv2.bn.weight" version="0"/>
			</rt_info>
			<input>
				<port id="0">
					<dim>1</dim>
					<dim>32</dim>
					<dim>352</dim>
					<dim>352</dim>
				</port>
				<port id="1">
					<dim>1</dim>
					<dim>32</dim>
					<dim>1</dim>
					<dim>1</dim>
				</port>
			</input>
			<output>
				<port id="2" names="371" precision="FP32">
					<dim>1</dim>
					<dim>32</dim>
					<dim>352</dim>
					<dim>352</dim>
				</port>
			</output>
		</layer>
		<layer id="182" name="372" type="Clamp" version="opset1">
			<data max="6" min="0"/>
			<rt_info>
				<attribute name="fused_names" value="372" version="0"/>
			</rt_info>
			<input>
				<port id="0">
					<dim>1</dim>
					<dim>32</dim>
					<dim>352</dim>
					<dim>352</dim>
				</port>
			</input>
			<output>
				<port id="1" names="372" precision="FP32">
					<dim>1</dim>
					<dim>32</dim>
					<dim>352</dim>
					<dim>352</dim>
				</port>
			</output>
		</layer>
		<layer id="183" name="Multiply_68192/fq_input_0" type="FakeQuantize" version="opset1">
			<data auto_broadcast="numpy" levels="256"/>
			<input>
				<port id="0">
					<dim>1</dim>
					<dim>32</dim>
					<dim>352</dim>
					<dim>352</dim>
				</port>
				<port id="1"/>
				<port id="2"/>
				<port id="3"/>
				<port id="4"/>
			</input>
			<output>
				<port id="5" precision="FP32">
					<dim>1</dim>
					<dim>32</dim>
					<dim>352</dim>
					<dim>352</dim>
				</port>
			</output>
		</layer>
		<layer id="184" name="Multiply_68594185418194/restored_convert/quantized2223629896" type="Const" version="opset1">
			<data element_type="i8" offset="8424" shape="16,32,1,1" size="512"/>
			<output>
				<port id="0" precision="I8">
					<dim>16</dim>
					<dim>32</dim>
					<dim>1</dim>
					<dim>1</dim>
				</port>
			</output>
		</layer>
		<layer id="185" name="Multiply_68594185418194/restored_convert/quantized/to_f32" type="Convert" version="opset1">
			<data destination_type="f32"/>
			<input>
				<port id="0">
					<dim>16</dim>
					<dim>32</dim>
					<dim>1</dim>
					<dim>1</dim>
				</port>
			</input>
			<output>
				<port id="1" precision="FP32">
					<dim>16</dim>
					<dim>32</dim>
					<dim>1</dim>
					<dim>1</dim>
				</port>
			</output>
		</layer>
		<layer id="186" name="Multiply_68192/fq_weights_1/zero_point2225529596" type="Const" version="opset1">
			<data element_type="f32" offset="8936" shape="16,1,1,1" size="64"/>
			<output>
				<port id="0" precision="FP32">
					<dim>16</dim>
					<dim>1</dim>
					<dim>1</dim>
					<dim>1</dim>
				</port>
			</output>
		</layer>
		<layer id="187" name="Multiply_68192/fq_weights_1/minus_zp" type="Subtract" version="opset1">
			<data auto_broadcast="numpy"/>
			<input>
				<port id="0">
					<dim>16</dim>
					<dim>32</dim>
					<dim>1</dim>
					<dim>1</dim>
				</port>
				<port id="1">
					<dim>16</dim>
					<dim>1</dim>
					<dim>1</dim>
					<dim>1</dim>
				</port>
			</input>
			<output>
				<port id="2" precision="FP32">
					<dim>16</dim>
					<dim>32</dim>
					<dim>1</dim>
					<dim>1</dim>
				</port>
			</output>
		</layer>
		<layer id="188" name="Multiply_68192/fq_weights_1/scale2224431963" type="Const" version="opset1">
			<data element_type="f32" offset="9000" shape="16,1,1,1" size="64"/>
			<output>
				<port id="0" precision="FP32">
					<dim>16</dim>
					<dim>1</dim>
					<dim>1</dim>
					<dim>1</dim>
				</port>
			</output>
		</layer>
		<layer id="189" name="Multiply_68192/fq_weights_1/mulpiply_by_scale" type="Multiply" version="opset1">
			<data auto_broadcast="numpy"/>
			<input>
				<port id="0">
					<dim>16</dim>
					<dim>32</dim>
					<dim>1</dim>
					<dim>1</dim>
				</port>
				<port id="1">
					<dim>16</dim>
					<dim>1</dim>
					<dim>1</dim>
					<dim>1</dim>
				</port>
			</input>
			<output>
				<port id="2" precision="FP32">
					<dim>16</dim>
					<dim>32</dim>
					<dim>1</dim>
					<dim>1</dim>
				</port>
			</output>
		</layer>
		<layer id="190" name="Multiply_68192" type="Convolution" version="opset1">
			<data auto_pad="explicit" dilations="1,1" pads_begin="0,0" pads_end="0,0" strides="1,1"/>
			<rt_info>
				<attribute name="fused_names" value="373, 374, backbone.features.stage1.unit1.conv3.bn.bias, backbone.features.stage1.unit1.conv3.bn.running_mean, backbone.features.stage1.unit1.conv3.bn.running_var, backbone.features.stage1.unit1.conv3.bn.weight" version="0"/>
			</rt_info>
			<input>
				<port id="0">
					<dim>1</dim>
					<dim>32</dim>
					<dim>352</dim>
					<dim>352</dim>
				</port>
				<port id="1">
					<dim>16</dim>
					<dim>32</dim>
					<dim>1</dim>
					<dim>1</dim>
				</port>
			</input>
			<output>
				<port id="2" precision="FP32">
					<dim>1</dim>
					<dim>16</dim>
					<dim>352</dim>
					<dim>352</dim>
				</port>
			</output>
		</layer>
		<layer id="191" name="Constant_68197185730100" type="Const" version="opset1">
			<data element_type="f16" offset="9064" shape="1,16,1,1" size="32"/>
			<output>
				<port id="0" precision="FP16">
					<dim>1</dim>
					<dim>16</dim>
					<dim>1</dim>
					<dim>1</dim>
				</port>
			</output>
		</layer>
		<layer id="192" name="Constant_68197185718195/restored_convert" type="Convert" version="opset1">
			<data destination_type="f32"/>
			<rt_info>
				<attribute name="decompression" version="0"/>
			</rt_info>
			<input>
				<port id="0">
					<dim>1</dim>
					<dim>16</dim>
					<dim>1</dim>
					<dim>1</dim>
				</port>
			</input>
			<output>
				<port id="1" precision="FP32">
					<dim>1</dim>
					<dim>16</dim>
					<dim>1</dim>
					<dim>1</dim>
				</port>
			</output>
		</layer>
		<layer id="193" name="374" type="Add" version="opset1">
			<data auto_broadcast="numpy"/>
			<rt_info>
				<attribute name="fused_names" value="374, backbone.features.stage1.unit1.conv3.bn.bias, backbone.features.stage1.unit1.conv3.bn.running_mean, backbone.features.stage1.unit1.conv3.bn.running_var, backbone.features.stage1.unit1.conv3.bn.weight" version="0"/>
			</rt_info>
			<input>
				<port id="0">
					<dim>1</dim>
					<dim>16</dim>
					<dim>352</dim>
					<dim>352</dim>
				</port>
				<port id="1">
					<dim>1</dim>
					<dim>16</dim>
					<dim>1</dim>
					<dim>1</dim>
				</port>
			</input>
			<output>
				<port id="2" names="374" precision="FP32">
					<dim>1</dim>
					<dim>16</dim>
					<dim>352</dim>
					<dim>352</dim>
				</port>
			</output>
		</layer>
		<layer id="194" name="Multiply_68199/fq_input_0" type="FakeQuantize" version="opset1">
			<data auto_broadcast="numpy" levels="256"/>
			<input>
				<port id="0">
					<dim>1</dim>
					<dim>16</dim>
					<dim>352</dim>
					<dim>352</dim>
				</port>
				<port id="1"/>
				<port id="2"/>
				<port id="3"/>
				<port id="4"/>
			</input>
			<output>
				<port id="5" precision="FP32">
					<dim>1</dim>
					<dim>16</dim>
					<dim>352</dim>
					<dim>352</dim>
				</port>
			</output>
		</layer>
		<layer id="195" name="Multiply_68603186018196/restored_convert/quantized2067629836" type="Const" version="opset1">
			<data element_type="i8" offset="9096" shape="96,16,1,1" size="1536"/>
			<output>
				<port id="0" precision="I8">
					<dim>96</dim>
					<dim>16</dim>
					<dim>1</dim>
					<dim>1</dim>
				</port>
			</output>
		</layer>
		<layer id="196" name="Multiply_68603186018196/restored_convert/quantized/to_f32" type="Convert" version="opset1">
			<data destination_type="f32"/>
			<input>
				<port id="0">
					<dim>96</dim>
					<dim>16</dim>
					<dim>1</dim>
					<dim>1</dim>
				</port>
			</input>
			<output>
				<port id="1" precision="FP32">
					<dim>96</dim>
					<dim>16</dim>
					<dim>1</dim>
					<dim>1</dim>
				</port>
			</output>
		</layer>
		<layer id="197" name="Multiply_68199/fq_weights_1/zero_point2069529197" type="Const" version="opset1">
			<data element_type="f32" offset="10632" shape="96,1,1,1" size="384"/>
			<output>
				<port id="0" precision="FP32">
					<dim>96</dim>
					<dim>1</dim>
					<dim>1</dim>
					<dim>1</dim>
				</port>
			</output>
		</layer>
		<layer id="198" name="Multiply_68199/fq_weights_1/minus_zp" type="Subtract" version="opset1">
			<data auto_broadcast="numpy"/>
			<input>
				<port id="0">
					<dim>96</dim>
					<dim>16</dim>
					<dim>1</dim>
					<dim>1</dim>
				</port>
				<port id="1">
					<dim>96</dim>
					<dim>1</dim>
					<dim>1</dim>
					<dim>1</dim>
				</port>
			</input>
			<output>
				<port id="2" precision="FP32">
					<dim>96</dim>
					<dim>16</dim>
					<dim>1</dim>
					<dim>1</dim>
				</port>
			</output>
		</layer>
		<layer id="199" name="Multiply_68199/fq_weights_1/scale2068432980" type="Const" version="opset1">
			<data element_type="f32" offset="11016" shape="96,1,1,1" size="384"/>
			<output>
				<port id="0" precision="FP32">
					<dim>96</dim>
					<dim>1</dim>
					<dim>1</dim>
					<dim>1</dim>
				</port>
			</output>
		</layer>
		<layer id="200" name="Multiply_68199/fq_weights_1/mulpiply_by_scale" type="Multiply" version="opset1">
			<data auto_broadcast="numpy"/>
			<input>
				<port id="0">
					<dim>96</dim>
					<dim>16</dim>
					<dim>1</dim>
					<dim>1</dim>
				</port>
				<port id="1">
					<dim>96</dim>
					<dim>1</dim>
					<dim>1</dim>
					<dim>1</dim>
				</port>
			</input>
			<output>
				<port id="2" precision="FP32">
					<dim>96</dim>
					<dim>16</dim>
					<dim>1</dim>
					<dim>1</dim>
				</port>
			</output>
		</layer>
		<layer id="201" name="Multiply_68199" type="Convolution" version="opset1">
			<data auto_pad="explicit" dilations="1,1" pads_begin="0,0" pads_end="0,0" strides="1,1"/>
			<rt_info>
				<attribute name="fused_names" value="375, 376, backbone.features.stage2.unit1.conv1.bn.bias, backbone.features.stage2.unit1.conv1.bn.running_mean, backbone.features.stage2.unit1.conv1.bn.running_var, backbone.features.stage2.unit1.conv1.bn.weight" version="0"/>
			</rt_info>
			<input>
				<port id="0">
					<dim>1</dim>
					<dim>16</dim>
					<dim>352</dim>
					<dim>352</dim>
				</port>
				<port id="1">
					<dim>96</dim>
					<dim>16</dim>
					<dim>1</dim>
					<dim>1</dim>
				</port>
			</input>
			<output>
				<port id="2" precision="FP32">
					<dim>1</dim>
					<dim>96</dim>
					<dim>352</dim>
					<dim>352</dim>
				</port>
			</output>
		</layer>
		<layer id="202" name="Constant_68204186331930" type="Const" version="opset1">
			<data element_type="f16" offset="11400" shape="1,96,1,1" size="192"/>
			<output>
				<port id="0" precision="FP16">
					<dim>1</dim>
					<dim>96</dim>
					<dim>1</dim>
					<dim>1</dim>
				</port>
			</output>
		</layer>
		<layer id="203" name="Constant_68204186318197/restored_convert" type="Convert" version="opset1">
			<data destination_type="f32"/>
			<rt_info>
				<attribute name="decompression" version="0"/>
			</rt_info>
			<input>
				<port id="0">
					<dim>1</dim>
					<dim>96</dim>
					<dim>1</dim>
					<dim>1</dim>
				</port>
			</input>
			<output>
				<port id="1" precision="FP32">
					<dim>1</dim>
					<dim>96</dim>
					<dim>1</dim>
					<dim>1</dim>
				</port>
			</output>
		</layer>
		<layer id="204" name="376" type="Add" version="opset1">
			<data auto_broadcast="numpy"/>
			<rt_info>
				<attribute name="fused_names" value="376, backbone.features.stage2.unit1.conv1.bn.bias, backbone.features.stage2.unit1.conv1.bn.running_mean, backbone.features.stage2.unit1.conv1.bn.running_var, backbone.features.stage2.unit1.conv1.bn.weight" version="0"/>
			</rt_info>
			<input>
				<port id="0">
					<dim>1</dim>
					<dim>96</dim>
					<dim>352</dim>
					<dim>352</dim>
				</port>
				<port id="1">
					<dim>1</dim>
					<dim>96</dim>
					<dim>1</dim>
					<dim>1</dim>
				</port>
			</input>
			<output>
				<port id="2" names="376" precision="FP32">
					<dim>1</dim>
					<dim>96</dim>
					<dim>352</dim>
					<dim>352</dim>
				</port>
			</output>
		</layer>
		<layer id="205" name="377" type="Clamp" version="opset1">
			<data max="6" min="0"/>
			<rt_info>
				<attribute name="fused_names" value="377" version="0"/>
			</rt_info>
			<input>
				<port id="0">
					<dim>1</dim>
					<dim>96</dim>
					<dim>352</dim>
					<dim>352</dim>
				</port>
			</input>
			<output>
				<port id="1" names="377" precision="FP32">
					<dim>1</dim>
					<dim>96</dim>
					<dim>352</dim>
					<dim>352</dim>
				</port>
			</output>
		</layer>
		<layer id="206" name="Multiply_68206/fq_input_0" type="FakeQuantize" version="opset1">
			<data auto_broadcast="numpy" levels="256"/>
			<input>
				<port id="0">
					<dim>1</dim>
					<dim>96</dim>
					<dim>352</dim>
					<dim>352</dim>
				</port>
				<port id="1">
					<dim>1</dim>
					<dim>96</dim>
					<dim>1</dim>
					<dim>1</dim>
				</port>
				<port id="2">
					<dim>1</dim>
					<dim>96</dim>
					<dim>1</dim>
					<dim>1</dim>
				</port>
				<port id="3">
					<dim>1</dim>
					<dim>96</dim>
					<dim>1</dim>
					<dim>1</dim>
				</port>
				<port id="4">
					<dim>1</dim>
					<dim>96</dim>
					<dim>1</dim>
					<dim>1</dim>
				</port>
			</input>
			<output>
				<port id="5" precision="FP32">
					<dim>1</dim>
					<dim>96</dim>
					<dim>352</dim>
					<dim>352</dim>
				</port>
			</output>
		</layer>
		<layer id="207" name="26071/value2607329503" type="Const" version="opset1">
			<data element_type="i64" offset="11592" shape="5" size="40"/>
			<output>
				<port id="0" precision="I64">
					<dim>5</dim>
				</port>
			</output>
		</layer>
		<layer id="208" name="Multiply_68612186718198/restored_convert/quantized2247631513" type="Const" version="opset1">
			<data element_type="i8" offset="11632" shape="96,1,3,3" size="864"/>
			<output>
				<port id="0" precision="I8">
					<dim>96</dim>
					<dim>1</dim>
					<dim>3</dim>
					<dim>3</dim>
				</port>
			</output>
		</layer>
		<layer id="209" name="Multiply_68612186718198/restored_convert/quantized/to_f32" type="Convert" version="opset1">
			<data destination_type="f32"/>
			<input>
				<port id="0">
					<dim>96</dim>
					<dim>1</dim>
					<dim>3</dim>
					<dim>3</dim>
				</port>
			</input>
			<output>
				<port id="1" precision="FP32">
					<dim>96</dim>
					<dim>1</dim>
					<dim>3</dim>
					<dim>3</dim>
				</port>
			</output>
		</layer>
		<layer id="210" name="Multiply_68206/fq_weights_1/zero_point2249529701" type="Const" version="opset1">
			<data element_type="f32" offset="12496" shape="96,1,1,1" size="384"/>
			<output>
				<port id="0" precision="FP32">
					<dim>96</dim>
					<dim>1</dim>
					<dim>1</dim>
					<dim>1</dim>
				</port>
			</output>
		</layer>
		<layer id="211" name="Multiply_68206/fq_weights_1/minus_zp" type="Subtract" version="opset1">
			<data auto_broadcast="numpy"/>
			<input>
				<port id="0">
					<dim>96</dim>
					<dim>1</dim>
					<dim>3</dim>
					<dim>3</dim>
				</port>
				<port id="1">
					<dim>96</dim>
					<dim>1</dim>
					<dim>1</dim>
					<dim>1</dim>
				</port>
			</input>
			<output>
				<port id="2" precision="FP32">
					<dim>96</dim>
					<dim>1</dim>
					<dim>3</dim>
					<dim>3</dim>
				</port>
			</output>
		</layer>
		<layer id="212" name="Multiply_68206/fq_weights_1/scale2248432872" type="Const" version="opset1">
			<data element_type="f32" offset="12880" shape="96,1,1,1" size="384"/>
			<output>
				<port id="0" precision="FP32">
					<dim>96</dim>
					<dim>1</dim>
					<dim>1</dim>
					<dim>1</dim>
				</port>
			</output>
		</layer>
		<layer id="213" name="Multiply_68206/fq_weights_1/mulpiply_by_scale" type="Multiply" version="opset1">
			<data auto_broadcast="numpy"/>
			<input>
				<port id="0">
					<dim>96</dim>
					<dim>1</dim>
					<dim>3</dim>
					<dim>3</dim>
				</port>
				<port id="1">
					<dim>96</dim>
					<dim>1</dim>
					<dim>1</dim>
					<dim>1</dim>
				</port>
			</input>
			<output>
				<port id="2" precision="FP32">
					<dim>96</dim>
					<dim>1</dim>
					<dim>3</dim>
					<dim>3</dim>
				</port>
			</output>
		</layer>
		<layer id="214" name="26071" type="Reshape" version="opset1">
			<data special_zero="true"/>
			<input>
				<port id="0">
					<dim>96</dim>
					<dim>1</dim>
					<dim>3</dim>
					<dim>3</dim>
				</port>
				<port id="1">
					<dim>5</dim>
				</port>
			</input>
			<output>
				<port id="2" precision="FP32">
					<dim>96</dim>
					<dim>1</dim>
					<dim>1</dim>
					<dim>3</dim>
					<dim>3</dim>
				</port>
			</output>
		</layer>
		<layer id="215" name="Multiply_68206" type="GroupConvolution" version="opset1">
			<data auto_pad="explicit" dilations="1,1" pads_begin="1,1" pads_end="1,1" strides="2,2"/>
			<rt_info>
				<attribute name="fused_names" value="379, backbone.features.stage2.unit1.conv2.bn.bias, backbone.features.stage2.unit1.conv2.bn.running_mean, backbone.features.stage2.unit1.conv2.bn.running_var, backbone.features.stage2.unit1.conv2.bn.weight" version="0"/>
			</rt_info>
			<input>
				<port id="0">
					<dim>1</dim>
					<dim>96</dim>
					<dim>352</dim>
					<dim>352</dim>
				</port>
				<port id="1">
					<dim>96</dim>
					<dim>1</dim>
					<dim>1</dim>
					<dim>3</dim>
					<dim>3</dim>
				</port>
			</input>
			<output>
				<port id="2" names="378" precision="FP32">
					<dim>1</dim>
					<dim>96</dim>
					<dim>176</dim>
					<dim>176</dim>
				</port>
			</output>
		</layer>
		<layer id="216" name="Constant_68211187030010" type="Const" version="opset1">
			<data element_type="f16" offset="13264" shape="1,96,1,1" size="192"/>
			<output>
				<port id="0" precision="FP16">
					<dim>1</dim>
					<dim>96</dim>
					<dim>1</dim>
					<dim>1</dim>
				</port>
			</output>
		</layer>
		<layer id="217" name="Constant_68211187018199/restored_convert" type="Convert" version="opset1">
			<data destination_type="f32"/>
			<rt_info>
				<attribute name="decompression" version="0"/>
			</rt_info>
			<input>
				<port id="0">
					<dim>1</dim>
					<dim>96</dim>
					<dim>1</dim>
					<dim>1</dim>
				</port>
			</input>
			<output>
				<port id="1" precision="FP32">
					<dim>1</dim>
					<dim>96</dim>
					<dim>1</dim>
					<dim>1</dim>
				</port>
			</output>
		</layer>
		<layer id="218" name="379" type="Add" version="opset1">
			<data auto_broadcast="numpy"/>
			<rt_info>
				<attribute name="fused_names" value="379, backbone.features.stage2.unit1.conv2.bn.bias, backbone.features.stage2.unit1.conv2.bn.running_mean, backbone.features.stage2.unit1.conv2.bn.running_var, backbone.features.stage2.unit1.conv2.bn.weight" version="0"/>
			</rt_info>
			<input>
				<port id="0">
					<dim>1</dim>
					<dim>96</dim>
					<dim>176</dim>
					<dim>176</dim>
				</port>
				<port id="1">
					<dim>1</dim>
					<dim>96</dim>
					<dim>1</dim>
					<dim>1</dim>
				</port>
			</input>
			<output>
				<port id="2" names="379" precision="FP32">
					<dim>1</dim>
					<dim>96</dim>
					<dim>176</dim>
					<dim>176</dim>
				</port>
			</output>
		</layer>
		<layer id="219" name="380" type="Clamp" version="opset1">
			<data max="6" min="0"/>
			<rt_info>
				<attribute name="fused_names" value="380" version="0"/>
			</rt_info>
			<input>
				<port id="0">
					<dim>1</dim>
					<dim>96</dim>
					<dim>176</dim>
					<dim>176</dim>
				</port>
			</input>
			<output>
				<port id="1" names="380" precision="FP32">
					<dim>1</dim>
					<dim>96</dim>
					<dim>176</dim>
					<dim>176</dim>
				</port>
			</output>
		</layer>
		<layer id="220" name="Multiply_68213/fq_input_0" type="FakeQuantize" version="opset1">
			<data auto_broadcast="numpy" levels="256"/>
			<input>
				<port id="0">
					<dim>1</dim>
					<dim>96</dim>
					<dim>176</dim>
					<dim>176</dim>
				</port>
				<port id="1"/>
				<port id="2"/>
				<port id="3"/>
				<port id="4"/>
			</input>
			<output>
				<port id="5" precision="FP32">
					<dim>1</dim>
					<dim>96</dim>
					<dim>176</dim>
					<dim>176</dim>
				</port>
			</output>
		</layer>
		<layer id="221" name="Multiply_68620187418200/restored_convert/quantized2127629476" type="Const" version="opset1">
			<data element_type="i8" offset="13456" shape="24,96,1,1" size="2304"/>
			<output>
				<port id="0" precision="I8">
					<dim>24</dim>
					<dim>96</dim>
					<dim>1</dim>
					<dim>1</dim>
				</port>
			</output>
		</layer>
		<layer id="222" name="Multiply_68620187418200/restored_convert/quantized/to_f32" type="Convert" version="opset1">
			<data destination_type="f32"/>
			<input>
				<port id="0">
					<dim>24</dim>
					<dim>96</dim>
					<dim>1</dim>
					<dim>1</dim>
				</port>
			</input>
			<output>
				<port id="1" precision="FP32">
					<dim>24</dim>
					<dim>96</dim>
					<dim>1</dim>
					<dim>1</dim>
				</port>
			</output>
		</layer>
		<layer id="223" name="Multiply_68213/fq_weights_1/zero_point2129532344" type="Const" version="opset1">
			<data element_type="f32" offset="15760" shape="24,1,1,1" size="96"/>
			<output>
				<port id="0" precision="FP32">
					<dim>24</dim>
					<dim>1</dim>
					<dim>1</dim>
					<dim>1</dim>
				</port>
			</output>
		</layer>
		<layer id="224" name="Multiply_68213/fq_weights_1/minus_zp" type="Subtract" version="opset1">
			<data auto_broadcast="numpy"/>
			<input>
				<port id="0">
					<dim>24</dim>
					<dim>96</dim>
					<dim>1</dim>
					<dim>1</dim>
				</port>
				<port id="1">
					<dim>24</dim>
					<dim>1</dim>
					<dim>1</dim>
					<dim>1</dim>
				</port>
			</input>
			<output>
				<port id="2" precision="FP32">
					<dim>24</dim>
					<dim>96</dim>
					<dim>1</dim>
					<dim>1</dim>
				</port>
			</output>
		</layer>
		<layer id="225" name="Multiply_68213/fq_weights_1/scale2128429518" type="Const" version="opset1">
			<data element_type="f32" offset="15856" shape="24,1,1,1" size="96"/>
			<output>
				<port id="0" precision="FP32">
					<dim>24</dim>
					<dim>1</dim>
					<dim>1</dim>
					<dim>1</dim>
				</port>
			</output>
		</layer>
		<layer id="226" name="Multiply_68213/fq_weights_1/mulpiply_by_scale" type="Multiply" version="opset1">
			<data auto_broadcast="numpy"/>
			<input>
				<port id="0">
					<dim>24</dim>
					<dim>96</dim>
					<dim>1</dim>
					<dim>1</dim>
				</port>
				<port id="1">
					<dim>24</dim>
					<dim>1</dim>
					<dim>1</dim>
					<dim>1</dim>
				</port>
			</input>
			<output>
				<port id="2" precision="FP32">
					<dim>24</dim>
					<dim>96</dim>
					<dim>1</dim>
					<dim>1</dim>
				</port>
			</output>
		</layer>
		<layer id="227" name="Multiply_68213" type="Convolution" version="opset1">
			<data auto_pad="explicit" dilations="1,1" pads_begin="0,0" pads_end="0,0" strides="1,1"/>
			<rt_info>
				<attribute name="fused_names" value="381, 382, backbone.features.stage2.unit1.conv3.bn.bias, backbone.features.stage2.unit1.conv3.bn.running_mean, backbone.features.stage2.unit1.conv3.bn.running_var, backbone.features.stage2.unit1.conv3.bn.weight" version="0"/>
			</rt_info>
			<input>
				<port id="0">
					<dim>1</dim>
					<dim>96</dim>
					<dim>176</dim>
					<dim>176</dim>
				</port>
				<port id="1">
					<dim>24</dim>
					<dim>96</dim>
					<dim>1</dim>
					<dim>1</dim>
				</port>
			</input>
			<output>
				<port id="2" precision="FP32">
					<dim>1</dim>
					<dim>24</dim>
					<dim>176</dim>
					<dim>176</dim>
				</port>
			</output>
		</layer>
		<layer id="228" name="Constant_68218187730688" type="Const" version="opset1">
			<data element_type="f16" offset="15952" shape="1,24,1,1" size="48"/>
			<output>
				<port id="0" precision="FP16">
					<dim>1</dim>
					<dim>24</dim>
					<dim>1</dim>
					<dim>1</dim>
				</port>
			</output>
		</layer>
		<layer id="229" name="Constant_68218187718201/restored_convert" type="Convert" version="opset1">
			<data destination_type="f32"/>
			<rt_info>
				<attribute name="decompression" version="0"/>
			</rt_info>
			<input>
				<port id="0">
					<dim>1</dim>
					<dim>24</dim>
					<dim>1</dim>
					<dim>1</dim>
				</port>
			</input>
			<output>
				<port id="1" precision="FP32">
					<dim>1</dim>
					<dim>24</dim>
					<dim>1</dim>
					<dim>1</dim>
				</port>
			</output>
		</layer>
		<layer id="230" name="382" type="Add" version="opset1">
			<data auto_broadcast="numpy"/>
			<rt_info>
				<attribute name="fused_names" value="382, backbone.features.stage2.unit1.conv3.bn.bias, backbone.features.stage2.unit1.conv3.bn.running_mean, backbone.features.stage2.unit1.conv3.bn.running_var, backbone.features.stage2.unit1.conv3.bn.weight" version="0"/>
			</rt_info>
			<input>
				<port id="0">
					<dim>1</dim>
					<dim>24</dim>
					<dim>176</dim>
					<dim>176</dim>
				</port>
				<port id="1">
					<dim>1</dim>
					<dim>24</dim>
					<dim>1</dim>
					<dim>1</dim>
				</port>
			</input>
			<output>
				<port id="2" names="382" precision="FP32">
					<dim>1</dim>
					<dim>24</dim>
					<dim>176</dim>
					<dim>176</dim>
				</port>
			</output>
		</layer>
		<layer id="231" name="391/fq_input_1" type="FakeQuantize" version="opset1">
			<data auto_broadcast="numpy" levels="256"/>
			<input>
				<port id="0">
					<dim>1</dim>
					<dim>24</dim>
					<dim>176</dim>
					<dim>176</dim>
				</port>
				<port id="1"/>
				<port id="2"/>
				<port id="3"/>
				<port id="4"/>
			</input>
			<output>
				<port id="5" precision="FP32">
					<dim>1</dim>
					<dim>24</dim>
					<dim>176</dim>
					<dim>176</dim>
				</port>
			</output>
		</layer>
		<layer id="232" name="Multiply_68629188018202/restored_convert/quantized2142630511" type="Const" version="opset1">
			<data element_type="i8" offset="16000" shape="144,24,1,1" size="3456"/>
			<output>
				<port id="0" precision="I8">
					<dim>144</dim>
					<dim>24</dim>
					<dim>1</dim>
					<dim>1</dim>
				</port>
			</output>
		</layer>
		<layer id="233" name="Multiply_68629188018202/restored_convert/quantized/to_f32" type="Convert" version="opset1">
			<data destination_type="f32"/>
			<input>
				<port id="0">
					<dim>144</dim>
					<dim>24</dim>
					<dim>1</dim>
					<dim>1</dim>
				</port>
			</input>
			<output>
				<port id="1" precision="FP32">
					<dim>144</dim>
					<dim>24</dim>
					<dim>1</dim>
					<dim>1</dim>
				</port>
			</output>
		</layer>
		<layer id="234" name="Multiply_68220/fq_weights_1/zero_point2144531783" type="Const" version="opset1">
			<data element_type="f32" offset="19456" shape="144,1,1,1" size="576"/>
			<output>
				<port id="0" precision="FP32">
					<dim>144</dim>
					<dim>1</dim>
					<dim>1</dim>
					<dim>1</dim>
				</port>
			</output>
		</layer>
		<layer id="235" name="Multiply_68220/fq_weights_1/minus_zp" type="Subtract" version="opset1">
			<data auto_broadcast="numpy"/>
			<input>
				<port id="0">
					<dim>144</dim>
					<dim>24</dim>
					<dim>1</dim>
					<dim>1</dim>
				</port>
				<port id="1">
					<dim>144</dim>
					<dim>1</dim>
					<dim>1</dim>
					<dim>1</dim>
				</port>
			</input>
			<output>
				<port id="2" precision="FP32">
					<dim>144</dim>
					<dim>24</dim>
					<dim>1</dim>
					<dim>1</dim>
				</port>
			</output>
		</layer>
		<layer id="236" name="Multiply_68220/fq_weights_1/scale2143429326" type="Const" version="opset1">
			<data element_type="f32" offset="20032" shape="144,1,1,1" size="576"/>
			<output>
				<port id="0" precision="FP32">
					<dim>144</dim>
					<dim>1</dim>
					<dim>1</dim>
					<dim>1</dim>
				</port>
			</output>
		</layer>
		<layer id="237" name="Multiply_68220/fq_weights_1/mulpiply_by_scale" type="Multiply" version="opset1">
			<data auto_broadcast="numpy"/>
			<input>
				<port id="0">
					<dim>144</dim>
					<dim>24</dim>
					<dim>1</dim>
					<dim>1</dim>
				</port>
				<port id="1">
					<dim>144</dim>
					<dim>1</dim>
					<dim>1</dim>
					<dim>1</dim>
				</port>
			</input>
			<output>
				<port id="2" precision="FP32">
					<dim>144</dim>
					<dim>24</dim>
					<dim>1</dim>
					<dim>1</dim>
				</port>
			</output>
		</layer>
		<layer id="238" name="Multiply_68220" type="Convolution" version="opset1">
			<data auto_pad="explicit" dilations="1,1" pads_begin="0,0" pads_end="0,0" strides="1,1"/>
			<rt_info>
				<attribute name="fused_names" value="383, 384, backbone.features.stage2.unit2.conv1.bn.bias, backbone.features.stage2.unit2.conv1.bn.running_mean, backbone.features.stage2.unit2.conv1.bn.running_var, backbone.features.stage2.unit2.conv1.bn.weight" version="0"/>
			</rt_info>
			<input>
				<port id="0">
					<dim>1</dim>
					<dim>24</dim>
					<dim>176</dim>
					<dim>176</dim>
				</port>
				<port id="1">
					<dim>144</dim>
					<dim>24</dim>
					<dim>1</dim>
					<dim>1</dim>
				</port>
			</input>
			<output>
				<port id="2" precision="FP32">
					<dim>1</dim>
					<dim>144</dim>
					<dim>176</dim>
					<dim>176</dim>
				</port>
			</output>
		</layer>
		<layer id="239" name="Constant_68225188333079" type="Const" version="opset1">
			<data element_type="f16" offset="20608" shape="1,144,1,1" size="288"/>
			<output>
				<port id="0" precision="FP16">
					<dim>1</dim>
					<dim>144</dim>
					<dim>1</dim>
					<dim>1</dim>
				</port>
			</output>
		</layer>
		<layer id="240" name="Constant_68225188318203/restored_convert" type="Convert" version="opset1">
			<data destination_type="f32"/>
			<rt_info>
				<attribute name="decompression" version="0"/>
			</rt_info>
			<input>
				<port id="0">
					<dim>1</dim>
					<dim>144</dim>
					<dim>1</dim>
					<dim>1</dim>
				</port>
			</input>
			<output>
				<port id="1" precision="FP32">
					<dim>1</dim>
					<dim>144</dim>
					<dim>1</dim>
					<dim>1</dim>
				</port>
			</output>
		</layer>
		<layer id="241" name="384" type="Add" version="opset1">
			<data auto_broadcast="numpy"/>
			<rt_info>
				<attribute name="fused_names" value="384, backbone.features.stage2.unit2.conv1.bn.bias, backbone.features.stage2.unit2.conv1.bn.running_mean, backbone.features.stage2.unit2.conv1.bn.running_var, backbone.features.stage2.unit2.conv1.bn.weight" version="0"/>
			</rt_info>
			<input>
				<port id="0">
					<dim>1</dim>
					<dim>144</dim>
					<dim>176</dim>
					<dim>176</dim>
				</port>
				<port id="1">
					<dim>1</dim>
					<dim>144</dim>
					<dim>1</dim>
					<dim>1</dim>
				</port>
			</input>
			<output>
				<port id="2" names="384" precision="FP32">
					<dim>1</dim>
					<dim>144</dim>
					<dim>176</dim>
					<dim>176</dim>
				</port>
			</output>
		</layer>
		<layer id="242" name="385" type="Clamp" version="opset1">
			<data max="6" min="0"/>
			<rt_info>
				<attribute name="fused_names" value="385" version="0"/>
			</rt_info>
			<input>
				<port id="0">
					<dim>1</dim>
					<dim>144</dim>
					<dim>176</dim>
					<dim>176</dim>
				</port>
			</input>
			<output>
				<port id="1" names="385" precision="FP32">
					<dim>1</dim>
					<dim>144</dim>
					<dim>176</dim>
					<dim>176</dim>
				</port>
			</output>
		</layer>
		<layer id="243" name="Multiply_68227/fq_input_0" type="FakeQuantize" version="opset1">
			<data auto_broadcast="numpy" levels="256"/>
			<input>
				<port id="0">
					<dim>1</dim>
					<dim>144</dim>
					<dim>176</dim>
					<dim>176</dim>
				</port>
				<port id="1">
					<dim>1</dim>
					<dim>144</dim>
					<dim>1</dim>
					<dim>1</dim>
				</port>
				<port id="2">
					<dim>1</dim>
					<dim>144</dim>
					<dim>1</dim>
					<dim>1</dim>
				</port>
				<port id="3">
					<dim>1</dim>
					<dim>144</dim>
					<dim>1</dim>
					<dim>1</dim>
				</port>
				<port id="4">
					<dim>1</dim>
					<dim>144</dim>
					<dim>1</dim>
					<dim>1</dim>
				</port>
			</input>
			<output>
				<port id="5" precision="FP32">
					<dim>1</dim>
					<dim>144</dim>
					<dim>176</dim>
					<dim>176</dim>
				</port>
			</output>
		</layer>
		<layer id="244" name="26075/value2607729773" type="Const" version="opset1">
			<data element_type="i64" offset="20896" shape="5" size="40"/>
			<output>
				<port id="0" precision="I64">
					<dim>5</dim>
				</port>
			</output>
		</layer>
		<layer id="245" name="Multiply_68638188718204/restored_convert/quantized2040630964" type="Const" version="opset1">
			<data element_type="i8" offset="20936" shape="144,1,3,3" size="1296"/>
			<output>
				<port id="0" precision="I8">
					<dim>144</dim>
					<dim>1</dim>
					<dim>3</dim>
					<dim>3</dim>
				</port>
			</output>
		</layer>
		<layer id="246" name="Multiply_68638188718204/restored_convert/quantized/to_f32" type="Convert" version="opset1">
			<data destination_type="f32"/>
			<input>
				<port id="0">
					<dim>144</dim>
					<dim>1</dim>
					<dim>3</dim>
					<dim>3</dim>
				</port>
			</input>
			<output>
				<port id="1" precision="FP32">
					<dim>144</dim>
					<dim>1</dim>
					<dim>3</dim>
					<dim>3</dim>
				</port>
			</output>
		</layer>
		<layer id="247" name="Multiply_68227/fq_weights_1/zero_point2042531645" type="Const" version="opset1">
			<data element_type="f32" offset="22232" shape="144,1,1,1" size="576"/>
			<output>
				<port id="0" precision="FP32">
					<dim>144</dim>
					<dim>1</dim>
					<dim>1</dim>
					<dim>1</dim>
				</port>
			</output>
		</layer>
		<layer id="248" name="Multiply_68227/fq_weights_1/minus_zp" type="Subtract" version="opset1">
			<data auto_broadcast="numpy"/>
			<input>
				<port id="0">
					<dim>144</dim>
					<dim>1</dim>
					<dim>3</dim>
					<dim>3</dim>
				</port>
				<port id="1">
					<dim>144</dim>
					<dim>1</dim>
					<dim>1</dim>
					<dim>1</dim>
				</port>
			</input>
			<output>
				<port id="2" precision="FP32">
					<dim>144</dim>
					<dim>1</dim>
					<dim>3</dim>
					<dim>3</dim>
				</port>
			</output>
		</layer>
		<layer id="249" name="Multiply_68227/fq_weights_1/scale2041433127" type="Const" version="opset1">
			<data element_type="f32" offset="22808" shape="144,1,1,1" size="576"/>
			<output>
				<port id="0" precision="FP32">
					<dim>144</dim>
					<dim>1</dim>
					<dim>1</dim>
					<dim>1</dim>
				</port>
			</output>
		</layer>
		<layer id="250" name="Multiply_68227/fq_weights_1/mulpiply_by_scale" type="Multiply" version="opset1">
			<data auto_broadcast="numpy"/>
			<input>
				<port id="0">
					<dim>144</dim>
					<dim>1</dim>
					<dim>3</dim>
					<dim>3</dim>
				</port>
				<port id="1">
					<dim>144</dim>
					<dim>1</dim>
					<dim>1</dim>
					<dim>1</dim>
				</port>
			</input>
			<output>
				<port id="2" precision="FP32">
					<dim>144</dim>
					<dim>1</dim>
					<dim>3</dim>
					<dim>3</dim>
				</port>
			</output>
		</layer>
		<layer id="251" name="26075" type="Reshape" version="opset1">
			<data special_zero="true"/>
			<input>
				<port id="0">
					<dim>144</dim>
					<dim>1</dim>
					<dim>3</dim>
					<dim>3</dim>
				</port>
				<port id="1">
					<dim>5</dim>
				</port>
			</input>
			<output>
				<port id="2" precision="FP32">
					<dim>144</dim>
					<dim>1</dim>
					<dim>1</dim>
					<dim>3</dim>
					<dim>3</dim>
				</port>
			</output>
		</layer>
		<layer id="252" name="Multiply_68227" type="GroupConvolution" version="opset1">
			<data auto_pad="explicit" dilations="1,1" pads_begin="1,1" pads_end="1,1" strides="1,1"/>
			<rt_info>
				<attribute name="fused_names" value="387, backbone.features.stage2.unit2.conv2.bn.bias, backbone.features.stage2.unit2.conv2.bn.running_mean, backbone.features.stage2.unit2.conv2.bn.running_var, backbone.features.stage2.unit2.conv2.bn.weight" version="0"/>
			</rt_info>
			<input>
				<port id="0">
					<dim>1</dim>
					<dim>144</dim>
					<dim>176</dim>
					<dim>176</dim>
				</port>
				<port id="1">
					<dim>144</dim>
					<dim>1</dim>
					<dim>1</dim>
					<dim>3</dim>
					<dim>3</dim>
				</port>
			</input>
			<output>
				<port id="2" names="386" precision="FP32">
					<dim>1</dim>
					<dim>144</dim>
					<dim>176</dim>
					<dim>176</dim>
				</port>
			</output>
		</layer>
		<layer id="253" name="Constant_68232189032119" type="Const" version="opset1">
			<data element_type="f16" offset="23384" shape="1,144,1,1" size="288"/>
			<output>
				<port id="0" precision="FP16">
					<dim>1</dim>
					<dim>144</dim>
					<dim>1</dim>
					<dim>1</dim>
				</port>
			</output>
		</layer>
		<layer id="254" name="Constant_68232189018205/restored_convert" type="Convert" version="opset1">
			<data destination_type="f32"/>
			<rt_info>
				<attribute name="decompression" version="0"/>
			</rt_info>
			<input>
				<port id="0">
					<dim>1</dim>
					<dim>144</dim>
					<dim>1</dim>
					<dim>1</dim>
				</port>
			</input>
			<output>
				<port id="1" precision="FP32">
					<dim>1</dim>
					<dim>144</dim>
					<dim>1</dim>
					<dim>1</dim>
				</port>
			</output>
		</layer>
		<layer id="255" name="387" type="Add" version="opset1">
			<data auto_broadcast="numpy"/>
			<rt_info>
				<attribute name="fused_names" value="387, backbone.features.stage2.unit2.conv2.bn.bias, backbone.features.stage2.unit2.conv2.bn.running_mean, backbone.features.stage2.unit2.conv2.bn.running_var, backbone.features.stage2.unit2.conv2.bn.weight" version="0"/>
			</rt_info>
			<input>
				<port id="0">
					<dim>1</dim>
					<dim>144</dim>
					<dim>176</dim>
					<dim>176</dim>
				</port>
				<port id="1">
					<dim>1</dim>
					<dim>144</dim>
					<dim>1</dim>
					<dim>1</dim>
				</port>
			</input>
			<output>
				<port id="2" names="387" precision="FP32">
					<dim>1</dim>
					<dim>144</dim>
					<dim>176</dim>
					<dim>176</dim>
				</port>
			</output>
		</layer>
		<layer id="256" name="388" type="Clamp" version="opset1">
			<data max="6" min="0"/>
			<rt_info>
				<attribute name="fused_names" value="388" version="0"/>
			</rt_info>
			<input>
				<port id="0">
					<dim>1</dim>
					<dim>144</dim>
					<dim>176</dim>
					<dim>176</dim>
				</port>
			</input>
			<output>
				<port id="1" names="388" precision="FP32">
					<dim>1</dim>
					<dim>144</dim>
					<dim>176</dim>
					<dim>176</dim>
				</port>
			</output>
		</layer>
		<layer id="257" name="Multiply_68234/fq_input_0" type="FakeQuantize" version="opset1">
			<data auto_broadcast="numpy" levels="256"/>
			<input>
				<port id="0">
					<dim>1</dim>
					<dim>144</dim>
					<dim>176</dim>
					<dim>176</dim>
				</port>
				<port id="1"/>
				<port id="2"/>
				<port id="3"/>
				<port id="4"/>
			</input>
			<output>
				<port id="5" precision="FP32">
					<dim>1</dim>
					<dim>144</dim>
					<dim>176</dim>
					<dim>176</dim>
				</port>
			</output>
		</layer>
		<layer id="258" name="Multiply_68646189418206/restored_convert/quantized2226632056" type="Const" version="opset1">
			<data element_type="i8" offset="23672" shape="24,144,1,1" size="3456"/>
			<output>
				<port id="0" precision="I8">
					<dim>24</dim>
					<dim>144</dim>
					<dim>1</dim>
					<dim>1</dim>
				</port>
			</output>
		</layer>
		<layer id="259" name="Multiply_68646189418206/restored_convert/quantized/to_f32" type="Convert" version="opset1">
			<data destination_type="f32"/>
			<input>
				<port id="0">
					<dim>24</dim>
					<dim>144</dim>
					<dim>1</dim>
					<dim>1</dim>
				</port>
			</input>
			<output>
				<port id="1" precision="FP32">
					<dim>24</dim>
					<dim>144</dim>
					<dim>1</dim>
					<dim>1</dim>
				</port>
			</output>
		</layer>
		<layer id="260" name="Multiply_68234/fq_weights_1/zero_point2228529470" type="Const" version="opset1">
			<data element_type="f32" offset="27128" shape="24,1,1,1" size="96"/>
			<output>
				<port id="0" precision="FP32">
					<dim>24</dim>
					<dim>1</dim>
					<dim>1</dim>
					<dim>1</dim>
				</port>
			</output>
		</layer>
		<layer id="261" name="Multiply_68234/fq_weights_1/minus_zp" type="Subtract" version="opset1">
			<data auto_broadcast="numpy"/>
			<input>
				<port id="0">
					<dim>24</dim>
					<dim>144</dim>
					<dim>1</dim>
					<dim>1</dim>
				</port>
				<port id="1">
					<dim>24</dim>
					<dim>1</dim>
					<dim>1</dim>
					<dim>1</dim>
				</port>
			</input>
			<output>
				<port id="2" precision="FP32">
					<dim>24</dim>
					<dim>144</dim>
					<dim>1</dim>
					<dim>1</dim>
				</port>
			</output>
		</layer>
		<layer id="262" name="Multiply_68234/fq_weights_1/scale2227429935" type="Const" version="opset1">
			<data element_type="f32" offset="27224" shape="24,1,1,1" size="96"/>
			<output>
				<port id="0" precision="FP32">
					<dim>24</dim>
					<dim>1</dim>
					<dim>1</dim>
					<dim>1</dim>
				</port>
			</output>
		</layer>
		<layer id="263" name="Multiply_68234/fq_weights_1/mulpiply_by_scale" type="Multiply" version="opset1">
			<data auto_broadcast="numpy"/>
			<input>
				<port id="0">
					<dim>24</dim>
					<dim>144</dim>
					<dim>1</dim>
					<dim>1</dim>
				</port>
				<port id="1">
					<dim>24</dim>
					<dim>1</dim>
					<dim>1</dim>
					<dim>1</dim>
				</port>
			</input>
			<output>
				<port id="2" precision="FP32">
					<dim>24</dim>
					<dim>144</dim>
					<dim>1</dim>
					<dim>1</dim>
				</port>
			</output>
		</layer>
		<layer id="264" name="Multiply_68234" type="Convolution" version="opset1">
			<data auto_pad="explicit" dilations="1,1" pads_begin="0,0" pads_end="0,0" strides="1,1"/>
			<rt_info>
				<attribute name="fused_names" value="389, 390, backbone.features.stage2.unit2.conv3.bn.bias, backbone.features.stage2.unit2.conv3.bn.running_mean, backbone.features.stage2.unit2.conv3.bn.running_var, backbone.features.stage2.unit2.conv3.bn.weight" version="0"/>
			</rt_info>
			<input>
				<port id="0">
					<dim>1</dim>
					<dim>144</dim>
					<dim>176</dim>
					<dim>176</dim>
				</port>
				<port id="1">
					<dim>24</dim>
					<dim>144</dim>
					<dim>1</dim>
					<dim>1</dim>
				</port>
			</input>
			<output>
				<port id="2" precision="FP32">
					<dim>1</dim>
					<dim>24</dim>
					<dim>176</dim>
					<dim>176</dim>
				</port>
			</output>
		</layer>
		<layer id="265" name="Constant_68239189731402" type="Const" version="opset1">
			<data element_type="f16" offset="27320" shape="1,24,1,1" size="48"/>
			<output>
				<port id="0" precision="FP16">
					<dim>1</dim>
					<dim>24</dim>
					<dim>1</dim>
					<dim>1</dim>
				</port>
			</output>
		</layer>
		<layer id="266" name="Constant_68239189718207/restored_convert" type="Convert" version="opset1">
			<data destination_type="f32"/>
			<rt_info>
				<attribute name="decompression" version="0"/>
			</rt_info>
			<input>
				<port id="0">
					<dim>1</dim>
					<dim>24</dim>
					<dim>1</dim>
					<dim>1</dim>
				</port>
			</input>
			<output>
				<port id="1" precision="FP32">
					<dim>1</dim>
					<dim>24</dim>
					<dim>1</dim>
					<dim>1</dim>
				</port>
			</output>
		</layer>
		<layer id="267" name="390" type="Add" version="opset1">
			<data auto_broadcast="numpy"/>
			<rt_info>
				<attribute name="fused_names" value="390, backbone.features.stage2.unit2.conv3.bn.bias, backbone.features.stage2.unit2.conv3.bn.running_mean, backbone.features.stage2.unit2.conv3.bn.running_var, backbone.features.stage2.unit2.conv3.bn.weight" version="0"/>
			</rt_info>
			<input>
				<port id="0">
					<dim>1</dim>
					<dim>24</dim>
					<dim>176</dim>
					<dim>176</dim>
				</port>
				<port id="1">
					<dim>1</dim>
					<dim>24</dim>
					<dim>1</dim>
					<dim>1</dim>
				</port>
			</input>
			<output>
				<port id="2" names="390" precision="FP32">
					<dim>1</dim>
					<dim>24</dim>
					<dim>176</dim>
					<dim>176</dim>
				</port>
			</output>
		</layer>
		<layer id="268" name="391/fq_input_0" type="FakeQuantize" version="opset1">
			<data auto_broadcast="numpy" levels="256"/>
			<input>
				<port id="0">
					<dim>1</dim>
					<dim>24</dim>
					<dim>176</dim>
					<dim>176</dim>
				</port>
				<port id="1"/>
				<port id="2"/>
				<port id="3"/>
				<port id="4"/>
			</input>
			<output>
				<port id="5" precision="FP32">
					<dim>1</dim>
					<dim>24</dim>
					<dim>176</dim>
					<dim>176</dim>
				</port>
			</output>
		</layer>
		<layer id="269" name="391" type="Add" version="opset1">
			<data auto_broadcast="numpy"/>
			<rt_info>
				<attribute name="fused_names" value="391" version="0"/>
			</rt_info>
			<input>
				<port id="0">
					<dim>1</dim>
					<dim>24</dim>
					<dim>176</dim>
					<dim>176</dim>
				</port>
				<port id="1">
					<dim>1</dim>
					<dim>24</dim>
					<dim>176</dim>
					<dim>176</dim>
				</port>
			</input>
			<output>
				<port id="2" names="391" precision="FP32">
					<dim>1</dim>
					<dim>24</dim>
					<dim>176</dim>
					<dim>176</dim>
				</port>
			</output>
		</layer>
		<layer id="270" name="Multiply_68241/fq_input_0" type="FakeQuantize" version="opset1">
			<data auto_broadcast="numpy" levels="256"/>
			<input>
				<port id="0">
					<dim>1</dim>
					<dim>24</dim>
					<dim>176</dim>
					<dim>176</dim>
				</port>
				<port id="1"/>
				<port id="2"/>
				<port id="3"/>
				<port id="4"/>
			</input>
			<output>
				<port id="5" precision="FP32">
					<dim>1</dim>
					<dim>24</dim>
					<dim>176</dim>
					<dim>176</dim>
				</port>
			</output>
		</layer>
		<layer id="271" name="Multiply_68655190118208/restored_convert/quantized2139629986" type="Const" version="opset1">
			<data element_type="i8" offset="27368" shape="144,24,1,1" size="3456"/>
			<output>
				<port id="0" precision="I8">
					<dim>144</dim>
					<dim>24</dim>
					<dim>1</dim>
					<dim>1</dim>
				</port>
			</output>
		</layer>
		<layer id="272" name="Multiply_68655190118208/restored_convert/quantized/to_f32" type="Convert" version="opset1">
			<data destination_type="f32"/>
			<input>
				<port id="0">
					<dim>144</dim>
					<dim>24</dim>
					<dim>1</dim>
					<dim>1</dim>
				</port>
			</input>
			<output>
				<port id="1" precision="FP32">
					<dim>144</dim>
					<dim>24</dim>
					<dim>1</dim>
					<dim>1</dim>
				</port>
			</output>
		</layer>
		<layer id="273" name="Multiply_68241/fq_weights_1/zero_point2141531315" type="Const" version="opset1">
			<data element_type="f32" offset="30824" shape="144,1,1,1" size="576"/>
			<output>
				<port id="0" precision="FP32">
					<dim>144</dim>
					<dim>1</dim>
					<dim>1</dim>
					<dim>1</dim>
				</port>
			</output>
		</layer>
		<layer id="274" name="Multiply_68241/fq_weights_1/minus_zp" type="Subtract" version="opset1">
			<data auto_broadcast="numpy"/>
			<input>
				<port id="0">
					<dim>144</dim>
					<dim>24</dim>
					<dim>1</dim>
					<dim>1</dim>
				</port>
				<port id="1">
					<dim>144</dim>
					<dim>1</dim>
					<dim>1</dim>
					<dim>1</dim>
				</port>
			</input>
			<output>
				<port id="2" precision="FP32">
					<dim>144</dim>
					<dim>24</dim>
					<dim>1</dim>
					<dim>1</dim>
				</port>
			</output>
		</layer>
		<layer id="275" name="Multiply_68241/fq_weights_1/scale2140429254" type="Const" version="opset1">
			<data element_type="f32" offset="31400" shape="144,1,1,1" size="576"/>
			<output>
				<port id="0" precision="FP32">
					<dim>144</dim>
					<dim>1</dim>
					<dim>1</dim>
					<dim>1</dim>
				</port>
			</output>
		</layer>
		<layer id="276" name="Multiply_68241/fq_weights_1/mulpiply_by_scale" type="Multiply" version="opset1">
			<data auto_broadcast="numpy"/>
			<input>
				<port id="0">
					<dim>144</dim>
					<dim>24</dim>
					<dim>1</dim>
					<dim>1</dim>
				</port>
				<port id="1">
					<dim>144</dim>
					<dim>1</dim>
					<dim>1</dim>
					<dim>1</dim>
				</port>
			</input>
			<output>
				<port id="2" precision="FP32">
					<dim>144</dim>
					<dim>24</dim>
					<dim>1</dim>
					<dim>1</dim>
				</port>
			</output>
		</layer>
		<layer id="277" name="Multiply_68241" type="Convolution" version="opset1">
			<data auto_pad="explicit" dilations="1,1" pads_begin="0,0" pads_end="0,0" strides="1,1"/>
			<rt_info>
				<attribute name="fused_names" value="392, 393, backbone.features.stage3.unit1.conv1.bn.bias, backbone.features.stage3.unit1.conv1.bn.running_mean, backbone.features.stage3.unit1.conv1.bn.running_var, backbone.features.stage3.unit1.conv1.bn.weight" version="0"/>
			</rt_info>
			<input>
				<port id="0">
					<dim>1</dim>
					<dim>24</dim>
					<dim>176</dim>
					<dim>176</dim>
				</port>
				<port id="1">
					<dim>144</dim>
					<dim>24</dim>
					<dim>1</dim>
					<dim>1</dim>
				</port>
			</input>
			<output>
				<port id="2" precision="FP32">
					<dim>1</dim>
					<dim>144</dim>
					<dim>176</dim>
					<dim>176</dim>
				</port>
			</output>
		</layer>
		<layer id="278" name="Constant_68246190433400" type="Const" version="opset1">
			<data element_type="f16" offset="31976" shape="1,144,1,1" size="288"/>
			<output>
				<port id="0" precision="FP16">
					<dim>1</dim>
					<dim>144</dim>
					<dim>1</dim>
					<dim>1</dim>
				</port>
			</output>
		</layer>
		<layer id="279" name="Constant_68246190418209/restored_convert" type="Convert" version="opset1">
			<data destination_type="f32"/>
			<rt_info>
				<attribute name="decompression" version="0"/>
			</rt_info>
			<input>
				<port id="0">
					<dim>1</dim>
					<dim>144</dim>
					<dim>1</dim>
					<dim>1</dim>
				</port>
			</input>
			<output>
				<port id="1" precision="FP32">
					<dim>1</dim>
					<dim>144</dim>
					<dim>1</dim>
					<dim>1</dim>
				</port>
			</output>
		</layer>
		<layer id="280" name="393" type="Add" version="opset1">
			<data auto_broadcast="numpy"/>
			<rt_info>
				<attribute name="fused_names" value="393, backbone.features.stage3.unit1.conv1.bn.bias, backbone.features.stage3.unit1.conv1.bn.running_mean, backbone.features.stage3.unit1.conv1.bn.running_var, backbone.features.stage3.unit1.conv1.bn.weight" version="0"/>
			</rt_info>
			<input>
				<port id="0">
					<dim>1</dim>
					<dim>144</dim>
					<dim>176</dim>
					<dim>176</dim>
				</port>
				<port id="1">
					<dim>1</dim>
					<dim>144</dim>
					<dim>1</dim>
					<dim>1</dim>
				</port>
			</input>
			<output>
				<port id="2" names="393" precision="FP32">
					<dim>1</dim>
					<dim>144</dim>
					<dim>176</dim>
					<dim>176</dim>
				</port>
			</output>
		</layer>
		<layer id="281" name="394" type="Clamp" version="opset1">
			<data max="6" min="0"/>
			<rt_info>
				<attribute name="fused_names" value="394" version="0"/>
			</rt_info>
			<input>
				<port id="0">
					<dim>1</dim>
					<dim>144</dim>
					<dim>176</dim>
					<dim>176</dim>
				</port>
			</input>
			<output>
				<port id="1" names="394" precision="FP32">
					<dim>1</dim>
					<dim>144</dim>
					<dim>176</dim>
					<dim>176</dim>
				</port>
			</output>
		</layer>
		<layer id="282" name="Multiply_68248/fq_input_0" type="FakeQuantize" version="opset1">
			<data auto_broadcast="numpy" levels="256"/>
			<input>
				<port id="0">
					<dim>1</dim>
					<dim>144</dim>
					<dim>176</dim>
					<dim>176</dim>
				</port>
				<port id="1">
					<dim>1</dim>
					<dim>144</dim>
					<dim>1</dim>
					<dim>1</dim>
				</port>
				<port id="2">
					<dim>1</dim>
					<dim>144</dim>
					<dim>1</dim>
					<dim>1</dim>
				</port>
				<port id="3">
					<dim>1</dim>
					<dim>144</dim>
					<dim>1</dim>
					<dim>1</dim>
				</port>
				<port id="4">
					<dim>1</dim>
					<dim>144</dim>
					<dim>1</dim>
					<dim>1</dim>
				</port>
			</input>
			<output>
				<port id="5" precision="FP32">
					<dim>1</dim>
					<dim>144</dim>
					<dim>176</dim>
					<dim>176</dim>
				</port>
			</output>
		</layer>
		<layer id="283" name="26079/value2608129485" type="Const" version="opset1">
			<data element_type="i64" offset="20896" shape="5" size="40"/>
			<output>
				<port id="0" precision="I64">
					<dim>5</dim>
				</port>
			</output>
		</layer>
		<layer id="284" name="Multiply_68664190818210/restored_convert/quantized2076631459" type="Const" version="opset1">
			<data element_type="i8" offset="32264" shape="144,1,3,3" size="1296"/>
			<output>
				<port id="0" precision="I8">
					<dim>144</dim>
					<dim>1</dim>
					<dim>3</dim>
					<dim>3</dim>
				</port>
			</output>
		</layer>
		<layer id="285" name="Multiply_68664190818210/restored_convert/quantized/to_f32" type="Convert" version="opset1">
			<data destination_type="f32"/>
			<input>
				<port id="0">
					<dim>144</dim>
					<dim>1</dim>
					<dim>3</dim>
					<dim>3</dim>
				</port>
			</input>
			<output>
				<port id="1" precision="FP32">
					<dim>144</dim>
					<dim>1</dim>
					<dim>3</dim>
					<dim>3</dim>
				</port>
			</output>
		</layer>
		<layer id="286" name="Multiply_68248/fq_weights_1/zero_point2078531063" type="Const" version="opset1">
			<data element_type="f32" offset="33560" shape="144,1,1,1" size="576"/>
			<output>
				<port id="0" precision="FP32">
					<dim>144</dim>
					<dim>1</dim>
					<dim>1</dim>
					<dim>1</dim>
				</port>
			</output>
		</layer>
		<layer id="287" name="Multiply_68248/fq_weights_1/minus_zp" type="Subtract" version="opset1">
			<data auto_broadcast="numpy"/>
			<input>
				<port id="0">
					<dim>144</dim>
					<dim>1</dim>
					<dim>3</dim>
					<dim>3</dim>
				</port>
				<port id="1">
					<dim>144</dim>
					<dim>1</dim>
					<dim>1</dim>
					<dim>1</dim>
				</port>
			</input>
			<output>
				<port id="2" precision="FP32">
					<dim>144</dim>
					<dim>1</dim>
					<dim>3</dim>
					<dim>3</dim>
				</port>
			</output>
		</layer>
		<layer id="288" name="Multiply_68248/fq_weights_1/scale2077429335" type="Const" version="opset1">
			<data element_type="f32" offset="34136" shape="144,1,1,1" size="576"/>
			<output>
				<port id="0" precision="FP32">
					<dim>144</dim>
					<dim>1</dim>
					<dim>1</dim>
					<dim>1</dim>
				</port>
			</output>
		</layer>
		<layer id="289" name="Multiply_68248/fq_weights_1/mulpiply_by_scale" type="Multiply" version="opset1">
			<data auto_broadcast="numpy"/>
			<input>
				<port id="0">
					<dim>144</dim>
					<dim>1</dim>
					<dim>3</dim>
					<dim>3</dim>
				</port>
				<port id="1">
					<dim>144</dim>
					<dim>1</dim>
					<dim>1</dim>
					<dim>1</dim>
				</port>
			</input>
			<output>
				<port id="2" precision="FP32">
					<dim>144</dim>
					<dim>1</dim>
					<dim>3</dim>
					<dim>3</dim>
				</port>
			</output>
		</layer>
		<layer id="290" name="26079" type="Reshape" version="opset1">
			<data special_zero="true"/>
			<input>
				<port id="0">
					<dim>144</dim>
					<dim>1</dim>
					<dim>3</dim>
					<dim>3</dim>
				</port>
				<port id="1">
					<dim>5</dim>
				</port>
			</input>
			<output>
				<port id="2" precision="FP32">
					<dim>144</dim>
					<dim>1</dim>
					<dim>1</dim>
					<dim>3</dim>
					<dim>3</dim>
				</port>
			</output>
		</layer>
		<layer id="291" name="Multiply_68248" type="GroupConvolution" version="opset1">
			<data auto_pad="explicit" dilations="1,1" pads_begin="1,1" pads_end="1,1" strides="2,2"/>
			<rt_info>
				<attribute name="fused_names" value="396, backbone.features.stage3.unit1.conv2.bn.bias, backbone.features.stage3.unit1.conv2.bn.running_mean, backbone.features.stage3.unit1.conv2.bn.running_var, backbone.features.stage3.unit1.conv2.bn.weight" version="0"/>
			</rt_info>
			<input>
				<port id="0">
					<dim>1</dim>
					<dim>144</dim>
					<dim>176</dim>
					<dim>176</dim>
				</port>
				<port id="1">
					<dim>144</dim>
					<dim>1</dim>
					<dim>1</dim>
					<dim>3</dim>
					<dim>3</dim>
				</port>
			</input>
			<output>
				<port id="2" names="395" precision="FP32">
					<dim>1</dim>
					<dim>144</dim>
					<dim>88</dim>
					<dim>88</dim>
				</port>
			</output>
		</layer>
		<layer id="292" name="Constant_68253191132374" type="Const" version="opset1">
			<data element_type="f16" offset="34712" shape="1,144,1,1" size="288"/>
			<output>
				<port id="0" precision="FP16">
					<dim>1</dim>
					<dim>144</dim>
					<dim>1</dim>
					<dim>1</dim>
				</port>
			</output>
		</layer>
		<layer id="293" name="Constant_68253191118211/restored_convert" type="Convert" version="opset1">
			<data destination_type="f32"/>
			<rt_info>
				<attribute name="decompression" version="0"/>
			</rt_info>
			<input>
				<port id="0">
					<dim>1</dim>
					<dim>144</dim>
					<dim>1</dim>
					<dim>1</dim>
				</port>
			</input>
			<output>
				<port id="1" precision="FP32">
					<dim>1</dim>
					<dim>144</dim>
					<dim>1</dim>
					<dim>1</dim>
				</port>
			</output>
		</layer>
		<layer id="294" name="396" type="Add" version="opset1">
			<data auto_broadcast="numpy"/>
			<rt_info>
				<attribute name="fused_names" value="396, backbone.features.stage3.unit1.conv2.bn.bias, backbone.features.stage3.unit1.conv2.bn.running_mean, backbone.features.stage3.unit1.conv2.bn.running_var, backbone.features.stage3.unit1.conv2.bn.weight" version="0"/>
			</rt_info>
			<input>
				<port id="0">
					<dim>1</dim>
					<dim>144</dim>
					<dim>88</dim>
					<dim>88</dim>
				</port>
				<port id="1">
					<dim>1</dim>
					<dim>144</dim>
					<dim>1</dim>
					<dim>1</dim>
				</port>
			</input>
			<output>
				<port id="2" names="396" precision="FP32">
					<dim>1</dim>
					<dim>144</dim>
					<dim>88</dim>
					<dim>88</dim>
				</port>
			</output>
		</layer>
		<layer id="295" name="397" type="Clamp" version="opset1">
			<data max="6" min="0"/>
			<rt_info>
				<attribute name="fused_names" value="397" version="0"/>
			</rt_info>
			<input>
				<port id="0">
					<dim>1</dim>
					<dim>144</dim>
					<dim>88</dim>
					<dim>88</dim>
				</port>
			</input>
			<output>
				<port id="1" names="397" precision="FP32">
					<dim>1</dim>
					<dim>144</dim>
					<dim>88</dim>
					<dim>88</dim>
				</port>
			</output>
		</layer>
		<layer id="296" name="Multiply_68255/fq_input_0" type="FakeQuantize" version="opset1">
			<data auto_broadcast="numpy" levels="256"/>
			<input>
				<port id="0">
					<dim>1</dim>
					<dim>144</dim>
					<dim>88</dim>
					<dim>88</dim>
				</port>
				<port id="1"/>
				<port id="2"/>
				<port id="3"/>
				<port id="4"/>
			</input>
			<output>
				<port id="5" precision="FP32">
					<dim>1</dim>
					<dim>144</dim>
					<dim>88</dim>
					<dim>88</dim>
				</port>
			</output>
		</layer>
		<layer id="297" name="Multiply_68672191518212/restored_convert/quantized2103630355" type="Const" version="opset1">
			<data element_type="i8" offset="35000" shape="32,144,1,1" size="4608"/>
			<output>
				<port id="0" precision="I8">
					<dim>32</dim>
					<dim>144</dim>
					<dim>1</dim>
					<dim>1</dim>
				</port>
			</output>
		</layer>
		<layer id="298" name="Multiply_68672191518212/restored_convert/quantized/to_f32" type="Convert" version="opset1">
			<data destination_type="f32"/>
			<input>
				<port id="0">
					<dim>32</dim>
					<dim>144</dim>
					<dim>1</dim>
					<dim>1</dim>
				</port>
			</input>
			<output>
				<port id="1" precision="FP32">
					<dim>32</dim>
					<dim>144</dim>
					<dim>1</dim>
					<dim>1</dim>
				</port>
			</output>
		</layer>
		<layer id="299" name="Multiply_68255/fq_weights_1/zero_point2105533469" type="Const" version="opset1">
			<data element_type="f32" offset="39608" shape="32,1,1,1" size="128"/>
			<output>
				<port id="0" precision="FP32">
					<dim>32</dim>
					<dim>1</dim>
					<dim>1</dim>
					<dim>1</dim>
				</port>
			</output>
		</layer>
		<layer id="300" name="Multiply_68255/fq_weights_1/minus_zp" type="Subtract" version="opset1">
			<data auto_broadcast="numpy"/>
			<input>
				<port id="0">
					<dim>32</dim>
					<dim>144</dim>
					<dim>1</dim>
					<dim>1</dim>
				</port>
				<port id="1">
					<dim>32</dim>
					<dim>1</dim>
					<dim>1</dim>
					<dim>1</dim>
				</port>
			</input>
			<output>
				<port id="2" precision="FP32">
					<dim>32</dim>
					<dim>144</dim>
					<dim>1</dim>
					<dim>1</dim>
				</port>
			</output>
		</layer>
		<layer id="301" name="Multiply_68255/fq_weights_1/scale2104431030" type="Const" version="opset1">
			<data element_type="f32" offset="39736" shape="32,1,1,1" size="128"/>
			<output>
				<port id="0" precision="FP32">
					<dim>32</dim>
					<dim>1</dim>
					<dim>1</dim>
					<dim>1</dim>
				</port>
			</output>
		</layer>
		<layer id="302" name="Multiply_68255/fq_weights_1/mulpiply_by_scale" type="Multiply" version="opset1">
			<data auto_broadcast="numpy"/>
			<input>
				<port id="0">
					<dim>32</dim>
					<dim>144</dim>
					<dim>1</dim>
					<dim>1</dim>
				</port>
				<port id="1">
					<dim>32</dim>
					<dim>1</dim>
					<dim>1</dim>
					<dim>1</dim>
				</port>
			</input>
			<output>
				<port id="2" precision="FP32">
					<dim>32</dim>
					<dim>144</dim>
					<dim>1</dim>
					<dim>1</dim>
				</port>
			</output>
		</layer>
		<layer id="303" name="Multiply_68255" type="Convolution" version="opset1">
			<data auto_pad="explicit" dilations="1,1" pads_begin="0,0" pads_end="0,0" strides="1,1"/>
			<rt_info>
				<attribute name="fused_names" value="398, 399, backbone.features.stage3.unit1.conv3.bn.bias, backbone.features.stage3.unit1.conv3.bn.running_mean, backbone.features.stage3.unit1.conv3.bn.running_var, backbone.features.stage3.unit1.conv3.bn.weight" version="0"/>
			</rt_info>
			<input>
				<port id="0">
					<dim>1</dim>
					<dim>144</dim>
					<dim>88</dim>
					<dim>88</dim>
				</port>
				<port id="1">
					<dim>32</dim>
					<dim>144</dim>
					<dim>1</dim>
					<dim>1</dim>
				</port>
			</input>
			<output>
				<port id="2" precision="FP32">
					<dim>1</dim>
					<dim>32</dim>
					<dim>88</dim>
					<dim>88</dim>
				</port>
			</output>
		</layer>
		<layer id="304" name="Constant_68260191829344" type="Const" version="opset1">
			<data element_type="f16" offset="39864" shape="1,32,1,1" size="64"/>
			<output>
				<port id="0" precision="FP16">
					<dim>1</dim>
					<dim>32</dim>
					<dim>1</dim>
					<dim>1</dim>
				</port>
			</output>
		</layer>
		<layer id="305" name="Constant_68260191818213/restored_convert" type="Convert" version="opset1">
			<data destination_type="f32"/>
			<rt_info>
				<attribute name="decompression" version="0"/>
			</rt_info>
			<input>
				<port id="0">
					<dim>1</dim>
					<dim>32</dim>
					<dim>1</dim>
					<dim>1</dim>
				</port>
			</input>
			<output>
				<port id="1" precision="FP32">
					<dim>1</dim>
					<dim>32</dim>
					<dim>1</dim>
					<dim>1</dim>
				</port>
			</output>
		</layer>
		<layer id="306" name="399" type="Add" version="opset1">
			<data auto_broadcast="numpy"/>
			<rt_info>
				<attribute name="fused_names" value="399, backbone.features.stage3.unit1.conv3.bn.bias, backbone.features.stage3.unit1.conv3.bn.running_mean, backbone.features.stage3.unit1.conv3.bn.running_var, backbone.features.stage3.unit1.conv3.bn.weight" version="0"/>
			</rt_info>
			<input>
				<port id="0">
					<dim>1</dim>
					<dim>32</dim>
					<dim>88</dim>
					<dim>88</dim>
				</port>
				<port id="1">
					<dim>1</dim>
					<dim>32</dim>
					<dim>1</dim>
					<dim>1</dim>
				</port>
			</input>
			<output>
				<port id="2" names="399" precision="FP32">
					<dim>1</dim>
					<dim>32</dim>
					<dim>88</dim>
					<dim>88</dim>
				</port>
			</output>
		</layer>
		<layer id="307" name="408/fq_input_1" type="FakeQuantize" version="opset1">
			<data auto_broadcast="numpy" levels="256"/>
			<input>
				<port id="0">
					<dim>1</dim>
					<dim>32</dim>
					<dim>88</dim>
					<dim>88</dim>
				</port>
				<port id="1"/>
				<port id="2"/>
				<port id="3"/>
				<port id="4"/>
			</input>
			<output>
				<port id="5" precision="FP32">
					<dim>1</dim>
					<dim>32</dim>
					<dim>88</dim>
					<dim>88</dim>
				</port>
			</output>
		</layer>
		<layer id="308" name="Multiply_68681192118214/restored_convert/quantized2211629497" type="Const" version="opset1">
			<data element_type="i8" offset="39928" shape="192,32,1,1" size="6144"/>
			<output>
				<port id="0" precision="I8">
					<dim>192</dim>
					<dim>32</dim>
					<dim>1</dim>
					<dim>1</dim>
				</port>
			</output>
		</layer>
		<layer id="309" name="Multiply_68681192118214/restored_convert/quantized/to_f32" type="Convert" version="opset1">
			<data destination_type="f32"/>
			<input>
				<port id="0">
					<dim>192</dim>
					<dim>32</dim>
					<dim>1</dim>
					<dim>1</dim>
				</port>
			</input>
			<output>
				<port id="1" precision="FP32">
					<dim>192</dim>
					<dim>32</dim>
					<dim>1</dim>
					<dim>1</dim>
				</port>
			</output>
		</layer>
		<layer id="310" name="Multiply_68262/fq_weights_1/zero_point2213530181" type="Const" version="opset1">
			<data element_type="f32" offset="46072" shape="192,1,1,1" size="768"/>
			<output>
				<port id="0" precision="FP32">
					<dim>192</dim>
					<dim>1</dim>
					<dim>1</dim>
					<dim>1</dim>
				</port>
			</output>
		</layer>
		<layer id="311" name="Multiply_68262/fq_weights_1/minus_zp" type="Subtract" version="opset1">
			<data auto_broadcast="numpy"/>
			<input>
				<port id="0">
					<dim>192</dim>
					<dim>32</dim>
					<dim>1</dim>
					<dim>1</dim>
				</port>
				<port id="1">
					<dim>192</dim>
					<dim>1</dim>
					<dim>1</dim>
					<dim>1</dim>
				</port>
			</input>
			<output>
				<port id="2" precision="FP32">
					<dim>192</dim>
					<dim>32</dim>
					<dim>1</dim>
					<dim>1</dim>
				</port>
			</output>
		</layer>
		<layer id="312" name="Multiply_68262/fq_weights_1/scale2212430694" type="Const" version="opset1">
			<data element_type="f32" offset="46840" shape="192,1,1,1" size="768"/>
			<output>
				<port id="0" precision="FP32">
					<dim>192</dim>
					<dim>1</dim>
					<dim>1</dim>
					<dim>1</dim>
				</port>
			</output>
		</layer>
		<layer id="313" name="Multiply_68262/fq_weights_1/mulpiply_by_scale" type="Multiply" version="opset1">
			<data auto_broadcast="numpy"/>
			<input>
				<port id="0">
					<dim>192</dim>
					<dim>32</dim>
					<dim>1</dim>
					<dim>1</dim>
				</port>
				<port id="1">
					<dim>192</dim>
					<dim>1</dim>
					<dim>1</dim>
					<dim>1</dim>
				</port>
			</input>
			<output>
				<port id="2" precision="FP32">
					<dim>192</dim>
					<dim>32</dim>
					<dim>1</dim>
					<dim>1</dim>
				</port>
			</output>
		</layer>
		<layer id="314" name="Multiply_68262" type="Convolution" version="opset1">
			<data auto_pad="explicit" dilations="1,1" pads_begin="0,0" pads_end="0,0" strides="1,1"/>
			<rt_info>
				<attribute name="fused_names" value="400, 401, backbone.features.stage3.unit2.conv1.bn.bias, backbone.features.stage3.unit2.conv1.bn.running_mean, backbone.features.stage3.unit2.conv1.bn.running_var, backbone.features.stage3.unit2.conv1.bn.weight" version="0"/>
			</rt_info>
			<input>
				<port id="0">
					<dim>1</dim>
					<dim>32</dim>
					<dim>88</dim>
					<dim>88</dim>
				</port>
				<port id="1">
					<dim>192</dim>
					<dim>32</dim>
					<dim>1</dim>
					<dim>1</dim>
				</port>
			</input>
			<output>
				<port id="2" precision="FP32">
					<dim>1</dim>
					<dim>192</dim>
					<dim>88</dim>
					<dim>88</dim>
				</port>
			</output>
		</layer>
		<layer id="315" name="Constant_68267192429818" type="Const" version="opset1">
			<data element_type="f16" offset="47608" shape="1,192,1,1" size="384"/>
			<output>
				<port id="0" precision="FP16">
					<dim>1</dim>
					<dim>192</dim>
					<dim>1</dim>
					<dim>1</dim>
				</port>
			</output>
		</layer>
		<layer id="316" name="Constant_68267192418215/restored_convert" type="Convert" version="opset1">
			<data destination_type="f32"/>
			<rt_info>
				<attribute name="decompression" version="0"/>
			</rt_info>
			<input>
				<port id="0">
					<dim>1</dim>
					<dim>192</dim>
					<dim>1</dim>
					<dim>1</dim>
				</port>
			</input>
			<output>
				<port id="1" precision="FP32">
					<dim>1</dim>
					<dim>192</dim>
					<dim>1</dim>
					<dim>1</dim>
				</port>
			</output>
		</layer>
		<layer id="317" name="401" type="Add" version="opset1">
			<data auto_broadcast="numpy"/>
			<rt_info>
				<attribute name="fused_names" value="401, backbone.features.stage3.unit2.conv1.bn.bias, backbone.features.stage3.unit2.conv1.bn.running_mean, backbone.features.stage3.unit2.conv1.bn.running_var, backbone.features.stage3.unit2.conv1.bn.weight" version="0"/>
			</rt_info>
			<input>
				<port id="0">
					<dim>1</dim>
					<dim>192</dim>
					<dim>88</dim>
					<dim>88</dim>
				</port>
				<port id="1">
					<dim>1</dim>
					<dim>192</dim>
					<dim>1</dim>
					<dim>1</dim>
				</port>
			</input>
			<output>
				<port id="2" names="401" precision="FP32">
					<dim>1</dim>
					<dim>192</dim>
					<dim>88</dim>
					<dim>88</dim>
				</port>
			</output>
		</layer>
		<layer id="318" name="402" type="Clamp" version="opset1">
			<data max="6" min="0"/>
			<rt_info>
				<attribute name="fused_names" value="402" version="0"/>
			</rt_info>
			<input>
				<port id="0">
					<dim>1</dim>
					<dim>192</dim>
					<dim>88</dim>
					<dim>88</dim>
				</port>
			</input>
			<output>
				<port id="1" names="402" precision="FP32">
					<dim>1</dim>
					<dim>192</dim>
					<dim>88</dim>
					<dim>88</dim>
				</port>
			</output>
		</layer>
		<layer id="319" name="Multiply_68269/fq_input_0" type="FakeQuantize" version="opset1">
			<data auto_broadcast="numpy" levels="256"/>
			<input>
				<port id="0">
					<dim>1</dim>
					<dim>192</dim>
					<dim>88</dim>
					<dim>88</dim>
				</port>
				<port id="1">
					<dim>1</dim>
					<dim>192</dim>
					<dim>1</dim>
					<dim>1</dim>
				</port>
				<port id="2">
					<dim>1</dim>
					<dim>192</dim>
					<dim>1</dim>
					<dim>1</dim>
				</port>
				<port id="3">
					<dim>1</dim>
					<dim>192</dim>
					<dim>1</dim>
					<dim>1</dim>
				</port>
				<port id="4">
					<dim>1</dim>
					<dim>192</dim>
					<dim>1</dim>
					<dim>1</dim>
				</port>
			</input>
			<output>
				<port id="5" precision="FP32">
					<dim>1</dim>
					<dim>192</dim>
					<dim>88</dim>
					<dim>88</dim>
				</port>
			</output>
		</layer>
		<layer id="320" name="26083/value2608530709" type="Const" version="opset1">
			<data element_type="i64" offset="47992" shape="5" size="40"/>
			<output>
				<port id="0" precision="I64">
					<dim>5</dim>
				</port>
			</output>
		</layer>
		<layer id="321" name="Multiply_68690192818216/restored_convert/quantized2187632404" type="Const" version="opset1">
			<data element_type="i8" offset="48032" shape="192,1,3,3" size="1728"/>
			<output>
				<port id="0" precision="I8">
					<dim>192</dim>
					<dim>1</dim>
					<dim>3</dim>
					<dim>3</dim>
				</port>
			</output>
		</layer>
		<layer id="322" name="Multiply_68690192818216/restored_convert/quantized/to_f32" type="Convert" version="opset1">
			<data destination_type="f32"/>
			<input>
				<port id="0">
					<dim>192</dim>
					<dim>1</dim>
					<dim>3</dim>
					<dim>3</dim>
				</port>
			</input>
			<output>
				<port id="1" precision="FP32">
					<dim>192</dim>
					<dim>1</dim>
					<dim>3</dim>
					<dim>3</dim>
				</port>
			</output>
		</layer>
		<layer id="323" name="Multiply_68269/fq_weights_1/zero_point2189530313" type="Const" version="opset1">
			<data element_type="f32" offset="49760" shape="192,1,1,1" size="768"/>
			<output>
				<port id="0" precision="FP32">
					<dim>192</dim>
					<dim>1</dim>
					<dim>1</dim>
					<dim>1</dim>
				</port>
			</output>
		</layer>
		<layer id="324" name="Multiply_68269/fq_weights_1/minus_zp" type="Subtract" version="opset1">
			<data auto_broadcast="numpy"/>
			<input>
				<port id="0">
					<dim>192</dim>
					<dim>1</dim>
					<dim>3</dim>
					<dim>3</dim>
				</port>
				<port id="1">
					<dim>192</dim>
					<dim>1</dim>
					<dim>1</dim>
					<dim>1</dim>
				</port>
			</input>
			<output>
				<port id="2" precision="FP32">
					<dim>192</dim>
					<dim>1</dim>
					<dim>3</dim>
					<dim>3</dim>
				</port>
			</output>
		</layer>
		<layer id="325" name="Multiply_68269/fq_weights_1/scale2188430433" type="Const" version="opset1">
			<data element_type="f32" offset="50528" shape="192,1,1,1" size="768"/>
			<output>
				<port id="0" precision="FP32">
					<dim>192</dim>
					<dim>1</dim>
					<dim>1</dim>
					<dim>1</dim>
				</port>
			</output>
		</layer>
		<layer id="326" name="Multiply_68269/fq_weights_1/mulpiply_by_scale" type="Multiply" version="opset1">
			<data auto_broadcast="numpy"/>
			<input>
				<port id="0">
					<dim>192</dim>
					<dim>1</dim>
					<dim>3</dim>
					<dim>3</dim>
				</port>
				<port id="1">
					<dim>192</dim>
					<dim>1</dim>
					<dim>1</dim>
					<dim>1</dim>
				</port>
			</input>
			<output>
				<port id="2" precision="FP32">
					<dim>192</dim>
					<dim>1</dim>
					<dim>3</dim>
					<dim>3</dim>
				</port>
			</output>
		</layer>
		<layer id="327" name="26083" type="Reshape" version="opset1">
			<data special_zero="true"/>
			<input>
				<port id="0">
					<dim>192</dim>
					<dim>1</dim>
					<dim>3</dim>
					<dim>3</dim>
				</port>
				<port id="1">
					<dim>5</dim>
				</port>
			</input>
			<output>
				<port id="2" precision="FP32">
					<dim>192</dim>
					<dim>1</dim>
					<dim>1</dim>
					<dim>3</dim>
					<dim>3</dim>
				</port>
			</output>
		</layer>
		<layer id="328" name="Multiply_68269" type="GroupConvolution" version="opset1">
			<data auto_pad="explicit" dilations="1,1" pads_begin="1,1" pads_end="1,1" strides="1,1"/>
			<rt_info>
				<attribute name="fused_names" value="404, backbone.features.stage3.unit2.conv2.bn.bias, backbone.features.stage3.unit2.conv2.bn.running_mean, backbone.features.stage3.unit2.conv2.bn.running_var, backbone.features.stage3.unit2.conv2.bn.weight" version="0"/>
			</rt_info>
			<input>
				<port id="0">
					<dim>1</dim>
					<dim>192</dim>
					<dim>88</dim>
					<dim>88</dim>
				</port>
				<port id="1">
					<dim>192</dim>
					<dim>1</dim>
					<dim>1</dim>
					<dim>3</dim>
					<dim>3</dim>
				</port>
			</input>
			<output>
				<port id="2" names="403" precision="FP32">
					<dim>1</dim>
					<dim>192</dim>
					<dim>88</dim>
					<dim>88</dim>
				</port>
			</output>
		</layer>
		<layer id="329" name="Constant_68274193129842" type="Const" version="opset1">
			<data element_type="f16" offset="51296" shape="1,192,1,1" size="384"/>
			<output>
				<port id="0" precision="FP16">
					<dim>1</dim>
					<dim>192</dim>
					<dim>1</dim>
					<dim>1</dim>
				</port>
			</output>
		</layer>
		<layer id="330" name="Constant_68274193118217/restored_convert" type="Convert" version="opset1">
			<data destination_type="f32"/>
			<rt_info>
				<attribute name="decompression" version="0"/>
			</rt_info>
			<input>
				<port id="0">
					<dim>1</dim>
					<dim>192</dim>
					<dim>1</dim>
					<dim>1</dim>
				</port>
			</input>
			<output>
				<port id="1" precision="FP32">
					<dim>1</dim>
					<dim>192</dim>
					<dim>1</dim>
					<dim>1</dim>
				</port>
			</output>
		</layer>
		<layer id="331" name="404" type="Add" version="opset1">
			<data auto_broadcast="numpy"/>
			<rt_info>
				<attribute name="fused_names" value="404, backbone.features.stage3.unit2.conv2.bn.bias, backbone.features.stage3.unit2.conv2.bn.running_mean, backbone.features.stage3.unit2.conv2.bn.running_var, backbone.features.stage3.unit2.conv2.bn.weight" version="0"/>
			</rt_info>
			<input>
				<port id="0">
					<dim>1</dim>
					<dim>192</dim>
					<dim>88</dim>
					<dim>88</dim>
				</port>
				<port id="1">
					<dim>1</dim>
					<dim>192</dim>
					<dim>1</dim>
					<dim>1</dim>
				</port>
			</input>
			<output>
				<port id="2" names="404" precision="FP32">
					<dim>1</dim>
					<dim>192</dim>
					<dim>88</dim>
					<dim>88</dim>
				</port>
			</output>
		</layer>
		<layer id="332" name="405" type="Clamp" version="opset1">
			<data max="6" min="0"/>
			<rt_info>
				<attribute name="fused_names" value="405" version="0"/>
			</rt_info>
			<input>
				<port id="0">
					<dim>1</dim>
					<dim>192</dim>
					<dim>88</dim>
					<dim>88</dim>
				</port>
			</input>
			<output>
				<port id="1" names="405" precision="FP32">
					<dim>1</dim>
					<dim>192</dim>
					<dim>88</dim>
					<dim>88</dim>
				</port>
			</output>
		</layer>
		<layer id="333" name="Multiply_68276/fq_input_0" type="FakeQuantize" version="opset1">
			<data auto_broadcast="numpy" levels="256"/>
			<input>
				<port id="0">
					<dim>1</dim>
					<dim>192</dim>
					<dim>88</dim>
					<dim>88</dim>
				</port>
				<port id="1"/>
				<port id="2"/>
				<port id="3"/>
				<port id="4"/>
			</input>
			<output>
				<port id="5" precision="FP32">
					<dim>1</dim>
					<dim>192</dim>
					<dim>88</dim>
					<dim>88</dim>
				</port>
			</output>
		</layer>
		<layer id="334" name="Multiply_68698193518218/restored_convert/quantized2196631087" type="Const" version="opset1">
			<data element_type="i8" offset="51680" shape="32,192,1,1" size="6144"/>
			<output>
				<port id="0" precision="I8">
					<dim>32</dim>
					<dim>192</dim>
					<dim>1</dim>
					<dim>1</dim>
				</port>
			</output>
		</layer>
		<layer id="335" name="Multiply_68698193518218/restored_convert/quantized/to_f32" type="Convert" version="opset1">
			<data destination_type="f32"/>
			<input>
				<port id="0">
					<dim>32</dim>
					<dim>192</dim>
					<dim>1</dim>
					<dim>1</dim>
				</port>
			</input>
			<output>
				<port id="1" precision="FP32">
					<dim>32</dim>
					<dim>192</dim>
					<dim>1</dim>
					<dim>1</dim>
				</port>
			</output>
		</layer>
		<layer id="336" name="Multiply_68276/fq_weights_1/zero_point2198533562" type="Const" version="opset1">
			<data element_type="f32" offset="57824" shape="32,1,1,1" size="128"/>
			<output>
				<port id="0" precision="FP32">
					<dim>32</dim>
					<dim>1</dim>
					<dim>1</dim>
					<dim>1</dim>
				</port>
			</output>
		</layer>
		<layer id="337" name="Multiply_68276/fq_weights_1/minus_zp" type="Subtract" version="opset1">
			<data auto_broadcast="numpy"/>
			<input>
				<port id="0">
					<dim>32</dim>
					<dim>192</dim>
					<dim>1</dim>
					<dim>1</dim>
				</port>
				<port id="1">
					<dim>32</dim>
					<dim>1</dim>
					<dim>1</dim>
					<dim>1</dim>
				</port>
			</input>
			<output>
				<port id="2" precision="FP32">
					<dim>32</dim>
					<dim>192</dim>
					<dim>1</dim>
					<dim>1</dim>
				</port>
			</output>
		</layer>
		<layer id="338" name="Multiply_68276/fq_weights_1/scale2197433547" type="Const" version="opset1">
			<data element_type="f32" offset="57952" shape="32,1,1,1" size="128"/>
			<output>
				<port id="0" precision="FP32">
					<dim>32</dim>
					<dim>1</dim>
					<dim>1</dim>
					<dim>1</dim>
				</port>
			</output>
		</layer>
		<layer id="339" name="Multiply_68276/fq_weights_1/mulpiply_by_scale" type="Multiply" version="opset1">
			<data auto_broadcast="numpy"/>
			<input>
				<port id="0">
					<dim>32</dim>
					<dim>192</dim>
					<dim>1</dim>
					<dim>1</dim>
				</port>
				<port id="1">
					<dim>32</dim>
					<dim>1</dim>
					<dim>1</dim>
					<dim>1</dim>
				</port>
			</input>
			<output>
				<port id="2" precision="FP32">
					<dim>32</dim>
					<dim>192</dim>
					<dim>1</dim>
					<dim>1</dim>
				</port>
			</output>
		</layer>
		<layer id="340" name="Multiply_68276" type="Convolution" version="opset1">
			<data auto_pad="explicit" dilations="1,1" pads_begin="0,0" pads_end="0,0" strides="1,1"/>
			<rt_info>
				<attribute name="fused_names" value="406, 407, backbone.features.stage3.unit2.conv3.bn.bias, backbone.features.stage3.unit2.conv3.bn.running_mean, backbone.features.stage3.unit2.conv3.bn.running_var, backbone.features.stage3.unit2.conv3.bn.weight" version="0"/>
			</rt_info>
			<input>
				<port id="0">
					<dim>1</dim>
					<dim>192</dim>
					<dim>88</dim>
					<dim>88</dim>
				</port>
				<port id="1">
					<dim>32</dim>
					<dim>192</dim>
					<dim>1</dim>
					<dim>1</dim>
				</port>
			</input>
			<output>
				<port id="2" precision="FP32">
					<dim>1</dim>
					<dim>32</dim>
					<dim>88</dim>
					<dim>88</dim>
				</port>
			</output>
		</layer>
		<layer id="341" name="Constant_68281193830448" type="Const" version="opset1">
			<data element_type="f16" offset="58080" shape="1,32,1,1" size="64"/>
			<output>
				<port id="0" precision="FP16">
					<dim>1</dim>
					<dim>32</dim>
					<dim>1</dim>
					<dim>1</dim>
				</port>
			</output>
		</layer>
		<layer id="342" name="Constant_68281193818219/restored_convert" type="Convert" version="opset1">
			<data destination_type="f32"/>
			<rt_info>
				<attribute name="decompression" version="0"/>
			</rt_info>
			<input>
				<port id="0">
					<dim>1</dim>
					<dim>32</dim>
					<dim>1</dim>
					<dim>1</dim>
				</port>
			</input>
			<output>
				<port id="1" precision="FP32">
					<dim>1</dim>
					<dim>32</dim>
					<dim>1</dim>
					<dim>1</dim>
				</port>
			</output>
		</layer>
		<layer id="343" name="407" type="Add" version="opset1">
			<data auto_broadcast="numpy"/>
			<rt_info>
				<attribute name="fused_names" value="407, backbone.features.stage3.unit2.conv3.bn.bias, backbone.features.stage3.unit2.conv3.bn.running_mean, backbone.features.stage3.unit2.conv3.bn.running_var, backbone.features.stage3.unit2.conv3.bn.weight" version="0"/>
			</rt_info>
			<input>
				<port id="0">
					<dim>1</dim>
					<dim>32</dim>
					<dim>88</dim>
					<dim>88</dim>
				</port>
				<port id="1">
					<dim>1</dim>
					<dim>32</dim>
					<dim>1</dim>
					<dim>1</dim>
				</port>
			</input>
			<output>
				<port id="2" names="407" precision="FP32">
					<dim>1</dim>
					<dim>32</dim>
					<dim>88</dim>
					<dim>88</dim>
				</port>
			</output>
		</layer>
		<layer id="344" name="408/fq_input_0" type="FakeQuantize" version="opset1">
			<data auto_broadcast="numpy" levels="256"/>
			<input>
				<port id="0">
					<dim>1</dim>
					<dim>32</dim>
					<dim>88</dim>
					<dim>88</dim>
				</port>
				<port id="1"/>
				<port id="2"/>
				<port id="3"/>
				<port id="4"/>
			</input>
			<output>
				<port id="5" precision="FP32">
					<dim>1</dim>
					<dim>32</dim>
					<dim>88</dim>
					<dim>88</dim>
				</port>
			</output>
		</layer>
		<layer id="345" name="408" type="Add" version="opset1">
			<data auto_broadcast="numpy"/>
			<rt_info>
				<attribute name="fused_names" value="408" version="0"/>
			</rt_info>
			<input>
				<port id="0">
					<dim>1</dim>
					<dim>32</dim>
					<dim>88</dim>
					<dim>88</dim>
				</port>
				<port id="1">
					<dim>1</dim>
					<dim>32</dim>
					<dim>88</dim>
					<dim>88</dim>
				</port>
			</input>
			<output>
				<port id="2" names="408" precision="FP32">
					<dim>1</dim>
					<dim>32</dim>
					<dim>88</dim>
					<dim>88</dim>
				</port>
			</output>
		</layer>
		<layer id="346" name="417/fq_input_1" type="FakeQuantize" version="opset1">
			<data auto_broadcast="numpy" levels="256"/>
			<input>
				<port id="0">
					<dim>1</dim>
					<dim>32</dim>
					<dim>88</dim>
					<dim>88</dim>
				</port>
				<port id="1"/>
				<port id="2"/>
				<port id="3"/>
				<port id="4"/>
			</input>
			<output>
				<port id="5" precision="FP32">
					<dim>1</dim>
					<dim>32</dim>
					<dim>88</dim>
					<dim>88</dim>
				</port>
			</output>
		</layer>
		<layer id="347" name="Multiply_68707194218220/restored_convert/quantized2061631831" type="Const" version="opset1">
			<data element_type="i8" offset="58144" shape="192,32,1,1" size="6144"/>
			<output>
				<port id="0" precision="I8">
					<dim>192</dim>
					<dim>32</dim>
					<dim>1</dim>
					<dim>1</dim>
				</port>
			</output>
		</layer>
		<layer id="348" name="Multiply_68707194218220/restored_convert/quantized/to_f32" type="Convert" version="opset1">
			<data destination_type="f32"/>
			<input>
				<port id="0">
					<dim>192</dim>
					<dim>32</dim>
					<dim>1</dim>
					<dim>1</dim>
				</port>
			</input>
			<output>
				<port id="1" precision="FP32">
					<dim>192</dim>
					<dim>32</dim>
					<dim>1</dim>
					<dim>1</dim>
				</port>
			</output>
		</layer>
		<layer id="349" name="Multiply_68283/fq_weights_1/zero_point2063533457" type="Const" version="opset1">
			<data element_type="f32" offset="64288" shape="192,1,1,1" size="768"/>
			<output>
				<port id="0" precision="FP32">
					<dim>192</dim>
					<dim>1</dim>
					<dim>1</dim>
					<dim>1</dim>
				</port>
			</output>
		</layer>
		<layer id="350" name="Multiply_68283/fq_weights_1/minus_zp" type="Subtract" version="opset1">
			<data auto_broadcast="numpy"/>
			<input>
				<port id="0">
					<dim>192</dim>
					<dim>32</dim>
					<dim>1</dim>
					<dim>1</dim>
				</port>
				<port id="1">
					<dim>192</dim>
					<dim>1</dim>
					<dim>1</dim>
					<dim>1</dim>
				</port>
			</input>
			<output>
				<port id="2" precision="FP32">
					<dim>192</dim>
					<dim>32</dim>
					<dim>1</dim>
					<dim>1</dim>
				</port>
			</output>
		</layer>
		<layer id="351" name="Multiply_68283/fq_weights_1/scale2062431453" type="Const" version="opset1">
			<data element_type="f32" offset="65056" shape="192,1,1,1" size="768"/>
			<output>
				<port id="0" precision="FP32">
					<dim>192</dim>
					<dim>1</dim>
					<dim>1</dim>
					<dim>1</dim>
				</port>
			</output>
		</layer>
		<layer id="352" name="Multiply_68283/fq_weights_1/mulpiply_by_scale" type="Multiply" version="opset1">
			<data auto_broadcast="numpy"/>
			<input>
				<port id="0">
					<dim>192</dim>
					<dim>32</dim>
					<dim>1</dim>
					<dim>1</dim>
				</port>
				<port id="1">
					<dim>192</dim>
					<dim>1</dim>
					<dim>1</dim>
					<dim>1</dim>
				</port>
			</input>
			<output>
				<port id="2" precision="FP32">
					<dim>192</dim>
					<dim>32</dim>
					<dim>1</dim>
					<dim>1</dim>
				</port>
			</output>
		</layer>
		<layer id="353" name="Multiply_68283" type="Convolution" version="opset1">
			<data auto_pad="explicit" dilations="1,1" pads_begin="0,0" pads_end="0,0" strides="1,1"/>
			<rt_info>
				<attribute name="fused_names" value="409, 410, backbone.features.stage3.unit3.conv1.bn.bias, backbone.features.stage3.unit3.conv1.bn.running_mean, backbone.features.stage3.unit3.conv1.bn.running_var, backbone.features.stage3.unit3.conv1.bn.weight" version="0"/>
			</rt_info>
			<input>
				<port id="0">
					<dim>1</dim>
					<dim>32</dim>
					<dim>88</dim>
					<dim>88</dim>
				</port>
				<port id="1">
					<dim>192</dim>
					<dim>32</dim>
					<dim>1</dim>
					<dim>1</dim>
				</port>
			</input>
			<output>
				<port id="2" precision="FP32">
					<dim>1</dim>
					<dim>192</dim>
					<dim>88</dim>
					<dim>88</dim>
				</port>
			</output>
		</layer>
		<layer id="354" name="Constant_68288194529533" type="Const" version="opset1">
			<data element_type="f16" offset="65824" shape="1,192,1,1" size="384"/>
			<output>
				<port id="0" precision="FP16">
					<dim>1</dim>
					<dim>192</dim>
					<dim>1</dim>
					<dim>1</dim>
				</port>
			</output>
		</layer>
		<layer id="355" name="Constant_68288194518221/restored_convert" type="Convert" version="opset1">
			<data destination_type="f32"/>
			<rt_info>
				<attribute name="decompression" version="0"/>
			</rt_info>
			<input>
				<port id="0">
					<dim>1</dim>
					<dim>192</dim>
					<dim>1</dim>
					<dim>1</dim>
				</port>
			</input>
			<output>
				<port id="1" precision="FP32">
					<dim>1</dim>
					<dim>192</dim>
					<dim>1</dim>
					<dim>1</dim>
				</port>
			</output>
		</layer>
		<layer id="356" name="410" type="Add" version="opset1">
			<data auto_broadcast="numpy"/>
			<rt_info>
				<attribute name="fused_names" value="410, backbone.features.stage3.unit3.conv1.bn.bias, backbone.features.stage3.unit3.conv1.bn.running_mean, backbone.features.stage3.unit3.conv1.bn.running_var, backbone.features.stage3.unit3.conv1.bn.weight" version="0"/>
			</rt_info>
			<input>
				<port id="0">
					<dim>1</dim>
					<dim>192</dim>
					<dim>88</dim>
					<dim>88</dim>
				</port>
				<port id="1">
					<dim>1</dim>
					<dim>192</dim>
					<dim>1</dim>
					<dim>1</dim>
				</port>
			</input>
			<output>
				<port id="2" names="410" precision="FP32">
					<dim>1</dim>
					<dim>192</dim>
					<dim>88</dim>
					<dim>88</dim>
				</port>
			</output>
		</layer>
		<layer id="357" name="411" type="Clamp" version="opset1">
			<data max="6" min="0"/>
			<rt_info>
				<attribute name="fused_names" value="411" version="0"/>
			</rt_info>
			<input>
				<port id="0">
					<dim>1</dim>
					<dim>192</dim>
					<dim>88</dim>
					<dim>88</dim>
				</port>
			</input>
			<output>
				<port id="1" names="411" precision="FP32">
					<dim>1</dim>
					<dim>192</dim>
					<dim>88</dim>
					<dim>88</dim>
				</port>
			</output>
		</layer>
		<layer id="358" name="Multiply_68290/fq_input_0" type="FakeQuantize" version="opset1">
			<data auto_broadcast="numpy" levels="256"/>
			<input>
				<port id="0">
					<dim>1</dim>
					<dim>192</dim>
					<dim>88</dim>
					<dim>88</dim>
				</port>
				<port id="1">
					<dim>1</dim>
					<dim>192</dim>
					<dim>1</dim>
					<dim>1</dim>
				</port>
				<port id="2">
					<dim>1</dim>
					<dim>192</dim>
					<dim>1</dim>
					<dim>1</dim>
				</port>
				<port id="3">
					<dim>1</dim>
					<dim>192</dim>
					<dim>1</dim>
					<dim>1</dim>
				</port>
				<port id="4">
					<dim>1</dim>
					<dim>192</dim>
					<dim>1</dim>
					<dim>1</dim>
				</port>
			</input>
			<output>
				<port id="5" precision="FP32">
					<dim>1</dim>
					<dim>192</dim>
					<dim>88</dim>
					<dim>88</dim>
				</port>
			</output>
		</layer>
		<layer id="359" name="26087/value2608931492" type="Const" version="opset1">
			<data element_type="i64" offset="47992" shape="5" size="40"/>
			<output>
				<port id="0" precision="I64">
					<dim>5</dim>
				</port>
			</output>
		</layer>
		<layer id="360" name="Multiply_68716194918222/restored_convert/quantized2037633538" type="Const" version="opset1">
			<data element_type="i8" offset="66208" shape="192,1,3,3" size="1728"/>
			<output>
				<port id="0" precision="I8">
					<dim>192</dim>
					<dim>1</dim>
					<dim>3</dim>
					<dim>3</dim>
				</port>
			</output>
		</layer>
		<layer id="361" name="Multiply_68716194918222/restored_convert/quantized/to_f32" type="Convert" version="opset1">
			<data destination_type="f32"/>
			<input>
				<port id="0">
					<dim>192</dim>
					<dim>1</dim>
					<dim>3</dim>
					<dim>3</dim>
				</port>
			</input>
			<output>
				<port id="1" precision="FP32">
					<dim>192</dim>
					<dim>1</dim>
					<dim>3</dim>
					<dim>3</dim>
				</port>
			</output>
		</layer>
		<layer id="362" name="Multiply_68290/fq_weights_1/zero_point2039529527" type="Const" version="opset1">
			<data element_type="f32" offset="67936" shape="192,1,1,1" size="768"/>
			<output>
				<port id="0" precision="FP32">
					<dim>192</dim>
					<dim>1</dim>
					<dim>1</dim>
					<dim>1</dim>
				</port>
			</output>
		</layer>
		<layer id="363" name="Multiply_68290/fq_weights_1/minus_zp" type="Subtract" version="opset1">
			<data auto_broadcast="numpy"/>
			<input>
				<port id="0">
					<dim>192</dim>
					<dim>1</dim>
					<dim>3</dim>
					<dim>3</dim>
				</port>
				<port id="1">
					<dim>192</dim>
					<dim>1</dim>
					<dim>1</dim>
					<dim>1</dim>
				</port>
			</input>
			<output>
				<port id="2" precision="FP32">
					<dim>192</dim>
					<dim>1</dim>
					<dim>3</dim>
					<dim>3</dim>
				</port>
			</output>
		</layer>
		<layer id="364" name="Multiply_68290/fq_weights_1/scale2038433373" type="Const" version="opset1">
			<data element_type="f32" offset="68704" shape="192,1,1,1" size="768"/>
			<output>
				<port id="0" precision="FP32">
					<dim>192</dim>
					<dim>1</dim>
					<dim>1</dim>
					<dim>1</dim>
				</port>
			</output>
		</layer>
		<layer id="365" name="Multiply_68290/fq_weights_1/mulpiply_by_scale" type="Multiply" version="opset1">
			<data auto_broadcast="numpy"/>
			<input>
				<port id="0">
					<dim>192</dim>
					<dim>1</dim>
					<dim>3</dim>
					<dim>3</dim>
				</port>
				<port id="1">
					<dim>192</dim>
					<dim>1</dim>
					<dim>1</dim>
					<dim>1</dim>
				</port>
			</input>
			<output>
				<port id="2" precision="FP32">
					<dim>192</dim>
					<dim>1</dim>
					<dim>3</dim>
					<dim>3</dim>
				</port>
			</output>
		</layer>
		<layer id="366" name="26087" type="Reshape" version="opset1">
			<data special_zero="true"/>
			<input>
				<port id="0">
					<dim>192</dim>
					<dim>1</dim>
					<dim>3</dim>
					<dim>3</dim>
				</port>
				<port id="1">
					<dim>5</dim>
				</port>
			</input>
			<output>
				<port id="2" precision="FP32">
					<dim>192</dim>
					<dim>1</dim>
					<dim>1</dim>
					<dim>3</dim>
					<dim>3</dim>
				</port>
			</output>
		</layer>
		<layer id="367" name="Multiply_68290" type="GroupConvolution" version="opset1">
			<data auto_pad="explicit" dilations="1,1" pads_begin="1,1" pads_end="1,1" strides="1,1"/>
			<rt_info>
				<attribute name="fused_names" value="413, backbone.features.stage3.unit3.conv2.bn.bias, backbone.features.stage3.unit3.conv2.bn.running_mean, backbone.features.stage3.unit3.conv2.bn.running_var, backbone.features.stage3.unit3.conv2.bn.weight" version="0"/>
			</rt_info>
			<input>
				<port id="0">
					<dim>1</dim>
					<dim>192</dim>
					<dim>88</dim>
					<dim>88</dim>
				</port>
				<port id="1">
					<dim>192</dim>
					<dim>1</dim>
					<dim>1</dim>
					<dim>3</dim>
					<dim>3</dim>
				</port>
			</input>
			<output>
				<port id="2" names="412" precision="FP32">
					<dim>1</dim>
					<dim>192</dim>
					<dim>88</dim>
					<dim>88</dim>
				</port>
			</output>
		</layer>
		<layer id="368" name="Constant_68295195233253" type="Const" version="opset1">
			<data element_type="f16" offset="69472" shape="1,192,1,1" size="384"/>
			<output>
				<port id="0" precision="FP16">
					<dim>1</dim>
					<dim>192</dim>
					<dim>1</dim>
					<dim>1</dim>
				</port>
			</output>
		</layer>
		<layer id="369" name="Constant_68295195218223/restored_convert" type="Convert" version="opset1">
			<data destination_type="f32"/>
			<rt_info>
				<attribute name="decompression" version="0"/>
			</rt_info>
			<input>
				<port id="0">
					<dim>1</dim>
					<dim>192</dim>
					<dim>1</dim>
					<dim>1</dim>
				</port>
			</input>
			<output>
				<port id="1" precision="FP32">
					<dim>1</dim>
					<dim>192</dim>
					<dim>1</dim>
					<dim>1</dim>
				</port>
			</output>
		</layer>
		<layer id="370" name="413" type="Add" version="opset1">
			<data auto_broadcast="numpy"/>
			<rt_info>
				<attribute name="fused_names" value="413, backbone.features.stage3.unit3.conv2.bn.bias, backbone.features.stage3.unit3.conv2.bn.running_mean, backbone.features.stage3.unit3.conv2.bn.running_var, backbone.features.stage3.unit3.conv2.bn.weight" version="0"/>
			</rt_info>
			<input>
				<port id="0">
					<dim>1</dim>
					<dim>192</dim>
					<dim>88</dim>
					<dim>88</dim>
				</port>
				<port id="1">
					<dim>1</dim>
					<dim>192</dim>
					<dim>1</dim>
					<dim>1</dim>
				</port>
			</input>
			<output>
				<port id="2" names="413" precision="FP32">
					<dim>1</dim>
					<dim>192</dim>
					<dim>88</dim>
					<dim>88</dim>
				</port>
			</output>
		</layer>
		<layer id="371" name="414" type="Clamp" version="opset1">
			<data max="6" min="0"/>
			<rt_info>
				<attribute name="fused_names" value="414" version="0"/>
			</rt_info>
			<input>
				<port id="0">
					<dim>1</dim>
					<dim>192</dim>
					<dim>88</dim>
					<dim>88</dim>
				</port>
			</input>
			<output>
				<port id="1" names="414" precision="FP32">
					<dim>1</dim>
					<dim>192</dim>
					<dim>88</dim>
					<dim>88</dim>
				</port>
			</output>
		</layer>
		<layer id="372" name="Multiply_68297/fq_input_0" type="FakeQuantize" version="opset1">
			<data auto_broadcast="numpy" levels="256"/>
			<input>
				<port id="0">
					<dim>1</dim>
					<dim>192</dim>
					<dim>88</dim>
					<dim>88</dim>
				</port>
				<port id="1"/>
				<port id="2"/>
				<port id="3"/>
				<port id="4"/>
			</input>
			<output>
				<port id="5" precision="FP32">
					<dim>1</dim>
					<dim>192</dim>
					<dim>88</dim>
					<dim>88</dim>
				</port>
			</output>
		</layer>
		<layer id="373" name="Multiply_68724195618224/restored_convert/quantized2235629542" type="Const" version="opset1">
			<data element_type="i8" offset="69856" shape="32,192,1,1" size="6144"/>
			<output>
				<port id="0" precision="I8">
					<dim>32</dim>
					<dim>192</dim>
					<dim>1</dim>
					<dim>1</dim>
				</port>
			</output>
		</layer>
		<layer id="374" name="Multiply_68724195618224/restored_convert/quantized/to_f32" type="Convert" version="opset1">
			<data destination_type="f32"/>
			<input>
				<port id="0">
					<dim>32</dim>
					<dim>192</dim>
					<dim>1</dim>
					<dim>1</dim>
				</port>
			</input>
			<output>
				<port id="1" precision="FP32">
					<dim>32</dim>
					<dim>192</dim>
					<dim>1</dim>
					<dim>1</dim>
				</port>
			</output>
		</layer>
		<layer id="375" name="Multiply_68297/fq_weights_1/zero_point2237532728" type="Const" version="opset1">
			<data element_type="f32" offset="76000" shape="32,1,1,1" size="128"/>
			<output>
				<port id="0" precision="FP32">
					<dim>32</dim>
					<dim>1</dim>
					<dim>1</dim>
					<dim>1</dim>
				</port>
			</output>
		</layer>
		<layer id="376" name="Multiply_68297/fq_weights_1/minus_zp" type="Subtract" version="opset1">
			<data auto_broadcast="numpy"/>
			<input>
				<port id="0">
					<dim>32</dim>
					<dim>192</dim>
					<dim>1</dim>
					<dim>1</dim>
				</port>
				<port id="1">
					<dim>32</dim>
					<dim>1</dim>
					<dim>1</dim>
					<dim>1</dim>
				</port>
			</input>
			<output>
				<port id="2" precision="FP32">
					<dim>32</dim>
					<dim>192</dim>
					<dim>1</dim>
					<dim>1</dim>
				</port>
			</output>
		</layer>
		<layer id="377" name="Multiply_68297/fq_weights_1/scale2236431597" type="Const" version="opset1">
			<data element_type="f32" offset="76128" shape="32,1,1,1" size="128"/>
			<output>
				<port id="0" precision="FP32">
					<dim>32</dim>
					<dim>1</dim>
					<dim>1</dim>
					<dim>1</dim>
				</port>
			</output>
		</layer>
		<layer id="378" name="Multiply_68297/fq_weights_1/mulpiply_by_scale" type="Multiply" version="opset1">
			<data auto_broadcast="numpy"/>
			<input>
				<port id="0">
					<dim>32</dim>
					<dim>192</dim>
					<dim>1</dim>
					<dim>1</dim>
				</port>
				<port id="1">
					<dim>32</dim>
					<dim>1</dim>
					<dim>1</dim>
					<dim>1</dim>
				</port>
			</input>
			<output>
				<port id="2" precision="FP32">
					<dim>32</dim>
					<dim>192</dim>
					<dim>1</dim>
					<dim>1</dim>
				</port>
			</output>
		</layer>
		<layer id="379" name="Multiply_68297" type="Convolution" version="opset1">
			<data auto_pad="explicit" dilations="1,1" pads_begin="0,0" pads_end="0,0" strides="1,1"/>
			<rt_info>
				<attribute name="fused_names" value="415, 416, backbone.features.stage3.unit3.conv3.bn.bias, backbone.features.stage3.unit3.conv3.bn.running_mean, backbone.features.stage3.unit3.conv3.bn.running_var, backbone.features.stage3.unit3.conv3.bn.weight" version="0"/>
			</rt_info>
			<input>
				<port id="0">
					<dim>1</dim>
					<dim>192</dim>
					<dim>88</dim>
					<dim>88</dim>
				</port>
				<port id="1">
					<dim>32</dim>
					<dim>192</dim>
					<dim>1</dim>
					<dim>1</dim>
				</port>
			</input>
			<output>
				<port id="2" precision="FP32">
					<dim>1</dim>
					<dim>32</dim>
					<dim>88</dim>
					<dim>88</dim>
				</port>
			</output>
		</layer>
		<layer id="380" name="Constant_68302195932269" type="Const" version="opset1">
			<data element_type="f16" offset="76256" shape="1,32,1,1" size="64"/>
			<output>
				<port id="0" precision="FP16">
					<dim>1</dim>
					<dim>32</dim>
					<dim>1</dim>
					<dim>1</dim>
				</port>
			</output>
		</layer>
		<layer id="381" name="Constant_68302195918225/restored_convert" type="Convert" version="opset1">
			<data destination_type="f32"/>
			<rt_info>
				<attribute name="decompression" version="0"/>
			</rt_info>
			<input>
				<port id="0">
					<dim>1</dim>
					<dim>32</dim>
					<dim>1</dim>
					<dim>1</dim>
				</port>
			</input>
			<output>
				<port id="1" precision="FP32">
					<dim>1</dim>
…
		<edge from-layer="2495" from-port="3" to-layer="2497" to-port="0"/>
		<edge from-layer="2496" from-port="0" to-layer="2497" to-port="1"/>
		<edge from-layer="2497" from-port="2" to-layer="2499" to-port="0"/>
		<edge from-layer="2498" from-port="0" to-layer="2499" to-port="1"/>
		<edge from-layer="2499" from-port="2" to-layer="2500" to-port="0"/>
		<edge from-layer="2489" from-port="0" to-layer="2500" to-port="1"/>
		<edge from-layer="2491" from-port="1" to-layer="2501" to-port="0"/>
		<edge from-layer="2500" from-port="2" to-layer="2501" to-port="1"/>
		<edge from-layer="2501" from-port="2" to-layer="2502" to-port="0"/>
		<edge from-layer="2502" from-port="1" to-layer="2504" to-port="0"/>
		<edge from-layer="2503" from-port="0" to-layer="2504" to-port="1"/>
		<edge from-layer="2504" from-port="2" to-layer="2505" to-port="0"/>
		<edge from-layer="2489" from-port="0" to-layer="2505" to-port="1"/>
		<edge from-layer="2505" from-port="2" to-layer="2506" to-port="0"/>
		<edge from-layer="2506" from-port="1" to-layer="2508" to-port="0"/>
		<edge from-layer="2507" from-port="0" to-layer="2508" to-port="1"/>
		<edge from-layer="2508" from-port="2" to-layer="2510" to-port="0"/>
		<edge from-layer="2509" from-port="0" to-layer="2511" to-port="0"/>
		<edge from-layer="2510" from-port="1" to-layer="2511" to-port="1"/>
		<edge from-layer="2508" from-port="2" to-layer="2512" to-port="0"/>
		<edge from-layer="2511" from-port="2" to-layer="2512" to-port="1"/>
		<edge from-layer="2514" from-port="0" to-layer="2515" to-port="0"/>
		<edge from-layer="2492" from-port="1" to-layer="2518" to-port="0"/>
		<edge from-layer="2516" from-port="0" to-layer="2518" to-port="1"/>
		<edge from-layer="2517" from-port="0" to-layer="2518" to-port="2"/>
		<edge from-layer="2518" from-port="3" to-layer="2520" to-port="0"/>
		<edge from-layer="2519" from-port="0" to-layer="2520" to-port="1"/>
		<edge from-layer="2520" from-port="2" to-layer="2522" to-port="0"/>
		<edge from-layer="2521" from-port="0" to-layer="2522" to-port="1"/>
		<edge from-layer="2522" from-port="2" to-layer="2523" to-port="0"/>
		<edge from-layer="2513" from-port="0" to-layer="2523" to-port="1"/>
		<edge from-layer="2515" from-port="1" to-layer="2524" to-port="0"/>
		<edge from-layer="2523" from-port="2" to-layer="2524" to-port="1"/>
		<edge from-layer="2524" from-port="2" to-layer="2525" to-port="0"/>
		<edge from-layer="2525" from-port="1" to-layer="2527" to-port="0"/>
		<edge from-layer="2526" from-port="0" to-layer="2527" to-port="1"/>
		<edge from-layer="2527" from-port="2" to-layer="2528" to-port="0"/>
		<edge from-layer="2513" from-port="0" to-layer="2528" to-port="1"/>
		<edge from-layer="2528" from-port="2" to-layer="2529" to-port="0"/>
		<edge from-layer="2529" from-port="1" to-layer="2531" to-port="0"/>
		<edge from-layer="2530" from-port="0" to-layer="2531" to-port="1"/>
		<edge from-layer="2531" from-port="2" to-layer="2532" to-port="0"/>
		<edge from-layer="2532" from-port="1" to-layer="2533" to-port="0"/>
		<edge from-layer="2510" from-port="1" to-layer="2533" to-port="1"/>
		<edge from-layer="2512" from-port="2" to-layer="2534" to-port="0"/>
		<edge from-layer="2533" from-port="2" to-layer="2534" to-port="1"/>
		<edge from-layer="2534" from-port="2" to-layer="2536" to-port="0"/>
		<edge from-layer="2535" from-port="0" to-layer="2536" to-port="1"/>
		<edge from-layer="2536" from-port="2" to-layer="2538" to-port="0"/>
		<edge from-layer="2537" from-port="0" to-layer="2538" to-port="1"/>
		<edge from-layer="2532" from-port="1" to-layer="2540" to-port="0"/>
		<edge from-layer="2539" from-port="0" to-layer="2540" to-port="1"/>
		<edge from-layer="2531" from-port="2" to-layer="2541" to-port="0"/>
		<edge from-layer="2540" from-port="2" to-layer="2541" to-port="1"/>
		<edge from-layer="2541" from-port="2" to-layer="2542" to-port="0"/>
		<edge from-layer="2533" from-port="2" to-layer="2542" to-port="1"/>
		<edge from-layer="2542" from-port="2" to-layer="2544" to-port="0"/>
		<edge from-layer="2543" from-port="0" to-layer="2544" to-port="1"/>
		<edge from-layer="2544" from-port="2" to-layer="2546" to-port="0"/>
		<edge from-layer="2545" from-port="0" to-layer="2546" to-port="1"/>
		<edge from-layer="2538" from-port="2" to-layer="2547" to-port="0"/>
		<edge from-layer="2546" from-port="2" to-layer="2547" to-port="1"/>
		<edge from-layer="2548" from-port="0" to-layer="2549" to-port="0"/>
		<edge from-layer="2547" from-port="2" to-layer="2550" to-port="0"/>
		<edge from-layer="2549" from-port="1" to-layer="2550" to-port="1"/>
		<edge from-layer="1660" from-port="3" to-layer="2551" to-port="0"/>
		<edge from-layer="2550" from-port="2" to-layer="2553" to-port="0"/>
		<edge from-layer="2551" from-port="1" to-layer="2553" to-port="1"/>
		<edge from-layer="2552" from-port="0" to-layer="2553" to-port="2"/>
		<edge from-layer="2553" from-port="3" to-layer="2556" to-port="0"/>
		<edge from-layer="2554" from-port="0" to-layer="2556" to-port="1"/>
		<edge from-layer="2555" from-port="0" to-layer="2556" to-port="2"/>
		<edge from-layer="1564" from-port="5" to-layer="2597" to-port="0"/>
		<edge from-layer="1933" from-port="2" to-layer="2597" to-port="1"/>
		<edge from-layer="2597" from-port="2" to-layer="2598" to-port="0"/>
		<edge from-layer="2596" from-port="0" to-layer="2598" to-port="1"/>
		<edge from-layer="2598" from-port="2" to-layer="2599" to-port="0"/>
		<edge from-layer="2592" from-port="0" to-layer="2599" to-port="1"/>
		<edge from-layer="2593" from-port="0" to-layer="2599" to-port="2"/>
		<edge from-layer="2594" from-port="0" to-layer="2599" to-port="3"/>
		<edge from-layer="2595" from-port="0" to-layer="2599" to-port="4"/>
		<edge from-layer="2599" from-port="5" to-layer="2600" to-port="0"/>
		<edge from-layer="2591" from-port="0" to-layer="2600" to-port="1"/>
		<edge from-layer="2601" from-port="0" to-layer="2602" to-port="0"/>
		<edge from-layer="2600" from-port="2" to-layer="2603" to-port="0"/>
		<edge from-layer="2602" from-port="1" to-layer="2603" to-port="1"/>
		<edge from-layer="2604" from-port="0" to-layer="2605" to-port="0"/>
		<edge from-layer="2603" from-port="2" to-layer="2606" to-port="0"/>
		<edge from-layer="2605" from-port="1" to-layer="2606" to-port="1"/>
		<edge from-layer="2606" from-port="2" to-layer="2607" to-port="0"/>
		<edge from-layer="2607" from-port="1" to-layer="2608" to-port="0"/>
		<edge from-layer="2587" from-port="0" to-layer="2608" to-port="1"/>
		<edge from-layer="2588" from-port="0" to-layer="2608" to-port="2"/>
		<edge from-layer="2589" from-port="0" to-layer="2608" to-port="3"/>
		<edge from-layer="2590" from-port="0" to-layer="2608" to-port="4"/>
		<edge from-layer="2608" from-port="5" to-layer="2609" to-port="0"/>
		<edge from-layer="1951" from-port="2" to-layer="2609" to-port="1"/>
		<edge from-layer="2609" from-port="2" to-layer="2610" to-port="0"/>
		<edge from-layer="2586" from-port="0" to-layer="2610" to-port="1"/>
		<edge from-layer="2610" from-port="2" to-layer="2611" to-port="0"/>
		<edge from-layer="2582" from-port="0" to-layer="2611" to-port="1"/>
		<edge from-layer="2583" from-port="0" to-layer="2611" to-port="2"/>
		<edge from-layer="2584" from-port="0" to-layer="2611" to-port="3"/>
		<edge from-layer="2585" from-port="0" to-layer="2611" to-port="4"/>
		<edge from-layer="2611" from-port="5" to-layer="2612" to-port="0"/>
		<edge from-layer="2581" from-port="0" to-layer="2612" to-port="1"/>
		<edge from-layer="2613" from-port="0" to-layer="2614" to-port="0"/>
		<edge from-layer="2612" from-port="2" to-layer="2615" to-port="0"/>
		<edge from-layer="2614" from-port="1" to-layer="2615" to-port="1"/>
		<edge from-layer="2616" from-port="0" to-layer="2617" to-port="0"/>
		<edge from-layer="2615" from-port="2" to-layer="2618" to-port="0"/>
		<edge from-layer="2617" from-port="1" to-layer="2618" to-port="1"/>
		<edge from-layer="2618" from-port="2" to-layer="2619" to-port="0"/>
		<edge from-layer="2619" from-port="1" to-layer="2620" to-port="0"/>
		<edge from-layer="2577" from-port="0" to-layer="2620" to-port="1"/>
		<edge from-layer="2578" from-port="0" to-layer="2620" to-port="2"/>
		<edge from-layer="2579" from-port="0" to-layer="2620" to-port="3"/>
		<edge from-layer="2580" from-port="0" to-layer="2620" to-port="4"/>
		<edge from-layer="2620" from-port="5" to-layer="2621" to-port="0"/>
		<edge from-layer="1969" from-port="2" to-layer="2621" to-port="1"/>
		<edge from-layer="2621" from-port="2" to-layer="2622" to-port="0"/>
		<edge from-layer="2576" from-port="0" to-layer="2622" to-port="1"/>
		<edge from-layer="2622" from-port="2" to-layer="2623" to-port="0"/>
		<edge from-layer="2572" from-port="0" to-layer="2623" to-port="1"/>
		<edge from-layer="2573" from-port="0" to-layer="2623" to-port="2"/>
		<edge from-layer="2574" from-port="0" to-layer="2623" to-port="3"/>
		<edge from-layer="2575" from-port="0" to-layer="2623" to-port="4"/>
		<edge from-layer="2623" from-port="5" to-layer="2624" to-port="0"/>
		<edge from-layer="2571" from-port="0" to-layer="2624" to-port="1"/>
		<edge from-layer="2625" from-port="0" to-layer="2626" to-port="0"/>
		<edge from-layer="2624" from-port="2" to-layer="2627" to-port="0"/>
		<edge from-layer="2626" from-port="1" to-layer="2627" to-port="1"/>
		<edge from-layer="2628" from-port="0" to-layer="2629" to-port="0"/>
		<edge from-layer="2627" from-port="2" to-layer="2630" to-port="0"/>
		<edge from-layer="2629" from-port="1" to-layer="2630" to-port="1"/>
		<edge from-layer="2630" from-port="2" to-layer="2631" to-port="0"/>
		<edge from-layer="2631" from-port="1" to-layer="2632" to-port="0"/>
		<edge from-layer="2567" from-port="0" to-layer="2632" to-port="1"/>
		<edge from-layer="2568" from-port="0" to-layer="2632" to-port="2"/>
		<edge from-layer="2569" from-port="0" to-layer="2632" to-port="3"/>
		<edge from-layer="2570" from-port="0" to-layer="2632" to-port="4"/>
		<edge from-layer="2632" from-port="5" to-layer="2633" to-port="0"/>
		<edge from-layer="1987" from-port="2" to-layer="2633" to-port="1"/>
		<edge from-layer="2633" from-port="2" to-layer="2634" to-port="0"/>
		<edge from-layer="2566" from-port="0" to-layer="2634" to-port="1"/>
		<edge from-layer="2634" from-port="2" to-layer="2635" to-port="0"/>
		<edge from-layer="2562" from-port="0" to-layer="2635" to-port="1"/>
		<edge from-layer="2563" from-port="0" to-layer="2635" to-port="2"/>
		<edge from-layer="2564" from-port="0" to-layer="2635" to-port="3"/>
		<edge from-layer="2565" from-port="0" to-layer="2635" to-port="4"/>
		<edge from-layer="2635" from-port="5" to-layer="2636" to-port="0"/>
		<edge from-layer="2561" from-port="0" to-layer="2636" to-port="1"/>
		<edge from-layer="2637" from-port="0" to-layer="2638" to-port="0"/>
		<edge from-layer="2636" from-port="2" to-layer="2639" to-port="0"/>
		<edge from-layer="2638" from-port="1" to-layer="2639" to-port="1"/>
		<edge from-layer="2640" from-port="0" to-layer="2641" to-port="0"/>
		<edge from-layer="2639" from-port="2" to-layer="2642" to-port="0"/>
		<edge from-layer="2641" from-port="1" to-layer="2642" to-port="1"/>
		<edge from-layer="2642" from-port="2" to-layer="2643" to-port="0"/>
		<edge from-layer="2643" from-port="1" to-layer="2644" to-port="0"/>
		<edge from-layer="2557" from-port="0" to-layer="2644" to-port="1"/>
		<edge from-layer="2558" from-port="0" to-layer="2644" to-port="2"/>
		<edge from-layer="2559" from-port="0" to-layer="2644" to-port="3"/>
		<edge from-layer="2560" from-port="0" to-layer="2644" to-port="4"/>
		<edge from-layer="2645" from-port="0" to-layer="2646" to-port="0"/>
		<edge from-layer="2646" from-port="1" to-layer="2648" to-port="0"/>
		<edge from-layer="2647" from-port="0" to-layer="2648" to-port="1"/>
		<edge from-layer="2648" from-port="2" to-layer="2650" to-port="0"/>
		<edge from-layer="2649" from-port="0" to-layer="2650" to-port="1"/>
		<edge from-layer="2644" from-port="5" to-layer="2651" to-port="0"/>
		<edge from-layer="2650" from-port="2" to-layer="2651" to-port="1"/>
		<edge from-layer="2652" from-port="0" to-layer="2653" to-port="0"/>
		<edge from-layer="2651" from-port="2" to-layer="2654" to-port="0"/>
		<edge from-layer="2653" from-port="1" to-layer="2654" to-port="1"/>
		<edge from-layer="2654" from-port="2" to-layer="2655" to-port="0"/>
		<edge from-layer="2655" from-port="1" to-layer="2658" to-port="0"/>
		<edge from-layer="2656" from-port="0" to-layer="2658" to-port="1"/>
		<edge from-layer="2657" from-port="0" to-layer="2658" to-port="2"/>
		<edge from-layer="2658" from-port="3" to-layer="2660" to-port="0"/>
		<edge from-layer="2659" from-port="0" to-layer="2660" to-port="1"/>
		<edge from-layer="2660" from-port="2" to-layer="2662" to-port="0"/>
		<edge from-layer="2661" from-port="0" to-layer="2662" to-port="1"/>
		<edge from-layer="1660" from-port="3" to-layer="2663" to-port="0"/>
		<edge from-layer="2662" from-port="2" to-layer="2665" to-port="0"/>
		<edge from-layer="2663" from-port="1" to-layer="2665" to-port="1"/>
		<edge from-layer="2664" from-port="0" to-layer="2665" to-port="2"/>
		<edge from-layer="2665" from-port="3" to-layer="2668" to-port="0"/>
		<edge from-layer="2666" from-port="0" to-layer="2668" to-port="1"/>
		<edge from-layer="2667" from-port="0" to-layer="2668" to-port="2"/>
		<edge from-layer="2556" from-port="3" to-layer="2669" to-port="0"/>
		<edge from-layer="2668" from-port="3" to-layer="2669" to-port="1"/>
		<edge from-layer="2669" from-port="2" to-layer="2670" to-port="0"/>
		<edge from-layer="2670" from-port="1" to-layer="2672" to-port="0"/>
		<edge from-layer="2671" from-port="0" to-layer="2672" to-port="1"/>
		<edge from-layer="2553" from-port="3" to-layer="2675" to-port="0"/>
		<edge from-layer="2673" from-port="0" to-layer="2675" to-port="1"/>
		<edge from-layer="2674" from-port="0" to-layer="2675" to-port="2"/>
		<edge from-layer="2665" from-port="3" to-layer="2678" to-port="0"/>
		<edge from-layer="2676" from-port="0" to-layer="2678" to-port="1"/>
		<edge from-layer="2677" from-port="0" to-layer="2678" to-port="2"/>
		<edge from-layer="2675" from-port="3" to-layer="2679" to-port="0"/>
		<edge from-layer="2678" from-port="3" to-layer="2679" to-port="1"/>
		<edge from-layer="2679" from-port="2" to-layer="2680" to-port="0"/>
		<edge from-layer="2680" from-port="1" to-layer="2682" to-port="0"/>
		<edge from-layer="2681" from-port="0" to-layer="2682" to-port="1"/>
		<edge from-layer="2553" from-port="3" to-layer="2685" to-port="0"/>
		<edge from-layer="2683" from-port="0" to-layer="2685" to-port="1"/>
		<edge from-layer="2684" from-port="0" to-layer="2685" to-port="2"/>
		<edge from-layer="2665" from-port="3" to-layer="2688" to-port="0"/>
		<edge from-layer="2686" from-port="0" to-layer="2688" to-port="1"/>
		<edge from-layer="2687" from-port="0" to-layer="2688" to-port="2"/>
		<edge from-layer="2685" from-port="3" to-layer="2689" to-port="0"/>
		<edge from-layer="2688" from-port="3" to-layer="2689" to-port="1"/>
		<edge from-layer="2689" from-port="2" to-layer="2690" to-port="0"/>
		<edge from-layer="2690" from-port="1" to-layer="2692" to-port="0"/>
		<edge from-layer="2691" from-port="0" to-layer="2692" to-port="1"/>
		<edge from-layer="2553" from-port="3" to-layer="2695" to-port="0"/>
		<edge from-layer="2693" from-port="0" to-layer="2695" to-port="1"/>
		<edge from-layer="2694" from-port="0" to-layer="2695" to-port="2"/>
		<edge from-layer="2665" from-port="3" to-layer="2698" to-port="0"/>
		<edge from-layer="2696" from-port="0" to-layer="2698" to-port="1"/>
		<edge from-layer="2697" from-port="0" to-layer="2698" to-port="2"/>
		<edge from-layer="2695" from-port="3" to-layer="2699" to-port="0"/>
		<edge from-layer="2698" from-port="3" to-layer="2699" to-port="1"/>
		<edge from-layer="2699" from-port="2" to-layer="2700" to-port="0"/>
		<edge from-layer="2700" from-port="1" to-layer="2702" to-port="0"/>
		<edge from-layer="2701" from-port="0" to-layer="2702" to-port="1"/>
		<edge from-layer="2672" from-port="2" to-layer="2703" to-port="0"/>
		<edge from-layer="2682" from-port="2" to-layer="2703" to-port="1"/>
		<edge from-layer="2692" from-port="2" to-layer="2703" to-port="2"/>
		<edge from-layer="2702" from-port="2" to-layer="2703" to-port="3"/>
		<edge from-layer="2705" from-port="0" to-layer="2706" to-port="0"/>
		<edge from-layer="1774" from-port="2" to-layer="2707" to-port="0"/>
		<edge from-layer="2707" from-port="1" to-layer="2710" to-port="0"/>
		<edge from-layer="2708" from-port="0" to-layer="2710" to-port="1"/>
		<edge from-layer="2709" from-port="0" to-layer="2710" to-port="2"/>
		<edge from-layer="2710" from-port="3" to-layer="2712" to-port="0"/>
		<edge from-layer="2711" from-port="0" to-layer="2712" to-port="1"/>
		<edge from-layer="2712" from-port="2" to-layer="2714" to-port="0"/>
		<edge from-layer="2713" from-port="0" to-layer="2714" to-port="1"/>
		<edge from-layer="2714" from-port="2" to-layer="2715" to-port="0"/>
		<edge from-layer="2704" from-port="0" to-layer="2715" to-port="1"/>
		<edge from-layer="2706" from-port="1" to-layer="2716" to-port="0"/>
		<edge from-layer="2715" from-port="2" to-layer="2716" to-port="1"/>
		<edge from-layer="2716" from-port="2" to-layer="2717" to-port="0"/>
		<edge from-layer="2717" from-port="1" to-layer="2719" to-port="0"/>
		<edge from-layer="2718" from-port="0" to-layer="2719" to-port="1"/>
		<edge from-layer="2719" from-port="2" to-layer="2720" to-port="0"/>
		<edge from-layer="2704" from-port="0" to-layer="2720" to-port="1"/>
		<edge from-layer="2720" from-port="2" to-layer="2721" to-port="0"/>
		<edge from-layer="2721" from-port="1" to-layer="2723" to-port="0"/>
		<edge from-layer="2722" from-port="0" to-layer="2723" to-port="1"/>
		<edge from-layer="2723" from-port="2" to-layer="2725" to-port="0"/>
		<edge from-layer="2724" from-port="0" to-layer="2726" to-port="0"/>
		<edge from-layer="2725" from-port="1" to-layer="2726" to-port="1"/>
		<edge from-layer="2723" from-port="2" to-layer="2727" to-port="0"/>
		<edge from-layer="2726" from-port="2" to-layer="2727" to-port="1"/>
		<edge from-layer="2729" from-port="0" to-layer="2730" to-port="0"/>
		<edge from-layer="2707" from-port="1" to-layer="2733" to-port="0"/>
		<edge from-layer="2731" from-port="0" to-layer="2733" to-port="1"/>
		<edge from-layer="2732" from-port="0" to-layer="2733" to-port="2"/>
		<edge from-layer="2733" from-port="3" to-layer="2735" to-port="0"/>
		<edge from-layer="2734" from-port="0" to-layer="2735" to-port="1"/>
		<edge from-layer="2735" from-port="2" to-layer="2737" to-port="0"/>
		<edge from-layer="2736" from-port="0" to-layer="2737" to-port="1"/>
		<edge from-layer="2737" from-port="2" to-layer="2738" to-port="0"/>
		<edge from-layer="2728" from-port="0" to-layer="2738" to-port="1"/>
		<edge from-layer="2730" from-port="1" to-layer="2739" to-port="0"/>
		<edge from-layer="2738" from-port="2" to-layer="2739" to-port="1"/>
		<edge from-layer="2739" from-port="2" to-layer="2740" to-port="0"/>
		<edge from-layer="2740" from-port="1" to-layer="2742" to-port="0"/>
		<edge from-layer="2741" from-port="0" to-layer="2742" to-port="1"/>
		<edge from-layer="2742" from-port="2" to-layer="2743" to-port="0"/>
		<edge from-layer="2728" from-port="0" to-layer="2743" to-port="1"/>
		<edge from-layer="2743" from-port="2" to-layer="2744" to-port="0"/>
		<edge from-layer="2744" from-port="1" to-layer="2746" to-port="0"/>
		<edge from-layer="2745" from-port="0" to-layer="2746" to-port="1"/>
		<edge from-layer="2746" from-port="2" to-layer="2747" to-port="0"/>
		<edge from-layer="2747" from-port="1" to-layer="2748" to-port="0"/>
		<edge from-layer="2725" from-port="1" to-layer="2748" to-port="1"/>
		<edge from-layer="2727" from-port="2" to-layer="2749" to-port="0"/>
		<edge from-layer="2748" from-port="2" to-layer="2749" to-port="1"/>
		<edge from-layer="2749" from-port="2" to-layer="2751" to-port="0"/>
		<edge from-layer="2750" from-port="0" to-layer="2751" to-port="1"/>
		<edge from-layer="2751" from-port="2" to-layer="2753" to-port="0"/>
		<edge from-layer="2752" from-port="0" to-layer="2753" to-port="1"/>
		<edge from-layer="2747" from-port="1" to-layer="2755" to-port="0"/>
		<edge from-layer="2754" from-port="0" to-layer="2755" to-port="1"/>
		<edge from-layer="2746" from-port="2" to-layer="2756" to-port="0"/>
		<edge from-layer="2755" from-port="2" to-layer="2756" to-port="1"/>
		<edge from-layer="2756" from-port="2" to-layer="2757" to-port="0"/>
		<edge from-layer="2748" from-port="2" to-layer="2757" to-port="1"/>
		<edge from-layer="2757" from-port="2" to-layer="2759" to-port="0"/>
		<edge from-layer="2758" from-port="0" to-layer="2759" to-port="1"/>
		<edge from-layer="2759" from-port="2" to-layer="2761" to-port="0"/>
		<edge from-layer="2760" from-port="0" to-layer="2761" to-port="1"/>
		<edge from-layer="2753" from-port="2" to-layer="2762" to-port="0"/>
		<edge from-layer="2761" from-port="2" to-layer="2762" to-port="1"/>
		<edge from-layer="2763" from-port="0" to-layer="2764" to-port="0"/>
		<edge from-layer="2762" from-port="2" to-layer="2765" to-port="0"/>
		<edge from-layer="2764" from-port="1" to-layer="2765" to-port="1"/>
		<edge from-layer="1818" from-port="3" to-layer="2766" to-port="0"/>
		<edge from-layer="2765" from-port="2" to-layer="2768" to-port="0"/>
		<edge from-layer="2766" from-port="1" to-layer="2768" to-port="1"/>
		<edge from-layer="2767" from-port="0" to-layer="2768" to-port="2"/>
		<edge from-layer="2768" from-port="3" to-layer="2771" to-port="0"/>
		<edge from-layer="2769" from-port="0" to-layer="2771" to-port="1"/>
		<edge from-layer="2770" from-port="0" to-layer="2771" to-port="2"/>
		<edge from-layer="1722" from-port="5" to-layer="2812" to-port="0"/>
		<edge from-layer="1933" from-port="2" to-layer="2812" to-port="1"/>
		<edge from-layer="2812" from-port="2" to-layer="2813" to-port="0"/>
		<edge from-layer="2811" from-port="0" to-layer="2813" to-port="1"/>
		<edge from-layer="2813" from-port="2" to-layer="2814" to-port="0"/>
		<edge from-layer="2807" from-port="0" to-layer="2814" to-port="1"/>
		<edge from-layer="2808" from-port="0" to-layer="2814" to-port="2"/>
		<edge from-layer="2809" from-port="0" to-layer="2814" to-port="3"/>
		<edge from-layer="2810" from-port="0" to-layer="2814" to-port="4"/>
		<edge from-layer="2814" from-port="5" to-layer="2815" to-port="0"/>
		<edge from-layer="2806" from-port="0" to-layer="2815" to-port="1"/>
		<edge from-layer="2816" from-port="0" to-layer="2817" to-port="0"/>
		<edge from-layer="2815" from-port="2" to-layer="2818" to-port="0"/>
		<edge from-layer="2817" from-port="1" to-layer="2818" to-port="1"/>
		<edge from-layer="2819" from-port="0" to-layer="2820" to-port="0"/>
		<edge from-layer="2818" from-port="2" to-layer="2821" to-port="0"/>
		<edge from-layer="2820" from-port="1" to-layer="2821" to-port="1"/>
		<edge from-layer="2821" from-port="2" to-layer="2822" to-port="0"/>
		<edge from-layer="2822" from-port="1" to-layer="2823" to-port="0"/>
		<edge from-layer="2802" from-port="0" to-layer="2823" to-port="1"/>
		<edge from-layer="2803" from-port="0" to-layer="2823" to-port="2"/>
		<edge from-layer="2804" from-port="0" to-layer="2823" to-port="3"/>
		<edge from-layer="2805" from-port="0" to-layer="2823" to-port="4"/>
		<edge from-layer="2823" from-port="5" to-layer="2824" to-port="0"/>
		<edge from-layer="1951" from-port="2" to-layer="2824" to-port="1"/>
		<edge from-layer="2824" from-port="2" to-layer="2825" to-port="0"/>
		<edge from-layer="2801" from-port="0" to-layer="2825" to-port="1"/>
		<edge from-layer="2825" from-port="2" to-layer="2826" to-port="0"/>
		<edge from-layer="2797" from-port="0" to-layer="2826" to-port="1"/>
		<edge from-layer="2798" from-port="0" to-layer="2826" to-port="2"/>
		<edge from-layer="2799" from-port="0" to-layer="2826" to-port="3"/>
		<edge from-layer="2800" from-port="0" to-layer="2826" to-port="4"/>
		<edge from-layer="2826" from-port="5" to-layer="2827" to-port="0"/>
		<edge from-layer="2796" from-port="0" to-layer="2827" to-port="1"/>
		<edge from-layer="2828" from-port="0" to-layer="2829" to-port="0"/>
		<edge from-layer="2827" from-port="2" to-layer="2830" to-port="0"/>
		<edge from-layer="2829" from-port="1" to-layer="2830" to-port="1"/>
		<edge from-layer="2831" from-port="0" to-layer="2832" to-port="0"/>
		<edge from-layer="2830" from-port="2" to-layer="2833" to-port="0"/>
		<edge from-layer="2832" from-port="1" to-layer="2833" to-port="1"/>
		<edge from-layer="2833" from-port="2" to-layer="2834" to-port="0"/>
		<edge from-layer="2834" from-port="1" to-layer="2835" to-port="0"/>
		<edge from-layer="2792" from-port="0" to-layer="2835" to-port="1"/>
		<edge from-layer="2793" from-port="0" to-layer="2835" to-port="2"/>
		<edge from-layer="2794" from-port="0" to-layer="2835" to-port="3"/>
		<edge from-layer="2795" from-port="0" to-layer="2835" to-port="4"/>
		<edge from-layer="2835" from-port="5" to-layer="2836" to-port="0"/>
		<edge from-layer="1969" from-port="2" to-layer="2836" to-port="1"/>
		<edge from-layer="2836" from-port="2" to-layer="2837" to-port="0"/>
		<edge from-layer="2791" from-port="0" to-layer="2837" to-port="1"/>
		<edge from-layer="2837" from-port="2" to-layer="2838" to-port="0"/>
		<edge from-layer="2787" from-port="0" to-layer="2838" to-port="1"/>
		<edge from-layer="2788" from-port="0" to-layer="2838" to-port="2"/>
		<edge from-layer="2789" from-port="0" to-layer="2838" to-port="3"/>
		<edge from-layer="2790" from-port="0" to-layer="2838" to-port="4"/>
		<edge from-layer="2838" from-port="5" to-layer="2839" to-port="0"/>
		<edge from-layer="2786" from-port="0" to-layer="2839" to-port="1"/>
		<edge from-layer="2840" from-port="0" to-layer="2841" to-port="0"/>
		<edge from-layer="2839" from-port="2" to-layer="2842" to-port="0"/>
		<edge from-layer="2841" from-port="1" to-layer="2842" to-port="1"/>
		<edge from-layer="2843" from-port="0" to-layer="2844" to-port="0"/>
		<edge from-layer="2842" from-port="2" to-layer="2845" to-port="0"/>
		<edge from-layer="2844" from-port="1" to-layer="2845" to-port="1"/>
		<edge from-layer="2845" from-port="2" to-layer="2846" to-port="0"/>
		<edge from-layer="2846" from-port="1" to-layer="2847" to-port="0"/>
		<edge from-layer="2782" from-port="0" to-layer="2847" to-port="1"/>
		<edge from-layer="2783" from-port="0" to-layer="2847" to-port="2"/>
		<edge from-layer="2784" from-port="0" to-layer="2847" to-port="3"/>
		<edge from-layer="2785" from-port="0" to-layer="2847" to-port="4"/>
		<edge from-layer="2847" from-port="5" to-layer="2848" to-port="0"/>
		<edge from-layer="1987" from-port="2" to-layer="2848" to-port="1"/>
		<edge from-layer="2848" from-port="2" to-layer="2849" to-port="0"/>
		<edge from-layer="2781" from-port="0" to-layer="2849" to-port="1"/>
		<edge from-layer="2849" from-port="2" to-layer="2850" to-port="0"/>
		<edge from-layer="2777" from-port="0" to-layer="2850" to-port="1"/>
		<edge from-layer="2778" from-port="0" to-layer="2850" to-port="2"/>
		<edge from-layer="2779" from-port="0" to-layer="2850" to-port="3"/>
		<edge from-layer="2780" from-port="0" to-layer="2850" to-port="4"/>
		<edge from-layer="2850" from-port="5" to-layer="2851" to-port="0"/>
		<edge from-layer="2776" from-port="0" to-layer="2851" to-port="1"/>
		<edge from-layer="2852" from-port="0" to-layer="2853" to-port="0"/>
		<edge from-layer="2851" from-port="2" to-layer="2854" to-port="0"/>
		<edge from-layer="2853" from-port="1" to-layer="2854" to-port="1"/>
		<edge from-layer="2855" from-port="0" to-layer="2856" to-port="0"/>
		<edge from-layer="2854" from-port="2" to-layer="2857" to-port="0"/>
		<edge from-layer="2856" from-port="1" to-layer="2857" to-port="1"/>
		<edge from-layer="2857" from-port="2" to-layer="2858" to-port="0"/>
		<edge from-layer="2858" from-port="1" to-layer="2859" to-port="0"/>
		<edge from-layer="2772" from-port="0" to-layer="2859" to-port="1"/>
		<edge from-layer="2773" from-port="0" to-layer="2859" to-port="2"/>
		<edge from-layer="2774" from-port="0" to-layer="2859" to-port="3"/>
		<edge from-layer="2775" from-port="0" to-layer="2859" to-port="4"/>
		<edge from-layer="2860" from-port="0" to-layer="2861" to-port="0"/>
		<edge from-layer="2861" from-port="1" to-layer="2863" to-port="0"/>
		<edge from-layer="2862" from-port="0" to-layer="2863" to-port="1"/>
		<edge from-layer="2863" from-port="2" to-layer="2865" to-port="0"/>
		<edge from-layer="2864" from-port="0" to-layer="2865" to-port="1"/>
		<edge from-layer="2859" from-port="5" to-layer="2866" to-port="0"/>
		<edge from-layer="2865" from-port="2" to-layer="2866" to-port="1"/>
		<edge from-layer="2867" from-port="0" to-layer="2868" to-port="0"/>
		<edge from-layer="2866" from-port="2" to-layer="2869" to-port="0"/>
		<edge from-layer="2868" from-port="1" to-layer="2869" to-port="1"/>
		<edge from-layer="2869" from-port="2" to-layer="2870" to-port="0"/>
		<edge from-layer="2870" from-port="1" to-layer="2873" to-port="0"/>
		<edge from-layer="2871" from-port="0" to-layer="2873" to-port="1"/>
		<edge from-layer="2872" from-port="0" to-layer="2873" to-port="2"/>
		<edge from-layer="2873" from-port="3" to-layer="2875" to-port="0"/>
		<edge from-layer="2874" from-port="0" to-layer="2875" to-port="1"/>
		<edge from-layer="2875" from-port="2" to-layer="2877" to-port="0"/>
		<edge from-layer="2876" from-port="0" to-layer="2877" to-port="1"/>
		<edge from-layer="1818" from-port="3" to-layer="2878" to-port="0"/>
		<edge from-layer="2877" from-port="2" to-layer="2880" to-port="0"/>
		<edge from-layer="2878" from-port="1" to-layer="2880" to-port="1"/>
		<edge from-layer="2879" from-port="0" to-layer="2880" to-port="2"/>
		<edge from-layer="2880" from-port="3" to-layer="2883" to-port="0"/>
		<edge from-layer="2881" from-port="0" to-layer="2883" to-port="1"/>
		<edge from-layer="2882" from-port="0" to-layer="2883" to-port="2"/>
		<edge from-layer="2771" from-port="3" to-layer="2884" to-port="0"/>
		<edge from-layer="2883" from-port="3" to-layer="2884" to-port="1"/>
		<edge from-layer="2884" from-port="2" to-layer="2885" to-port="0"/>
		<edge from-layer="2885" from-port="1" to-layer="2887" to-port="0"/>
		<edge from-layer="2886" from-port="0" to-layer="2887" to-port="1"/>
		<edge from-layer="2768" from-port="3" to-layer="2890" to-port="0"/>
		<edge from-layer="2888" from-port="0" to-layer="2890" to-port="1"/>
		<edge from-layer="2889" from-port="0" to-layer="2890" to-port="2"/>
		<edge from-layer="2880" from-port="3" to-layer="2893" to-port="0"/>
		<edge from-layer="2891" from-port="0" to-layer="2893" to-port="1"/>
		<edge from-layer="2892" from-port="0" to-layer="2893" to-port="2"/>
		<edge from-layer="2890" from-port="3" to-layer="2894" to-port="0"/>
		<edge from-layer="2893" from-port="3" to-layer="2894" to-port="1"/>
		<edge from-layer="2894" from-port="2" to-layer="2895" to-port="0"/>
		<edge from-layer="2895" from-port="1" to-layer="2897" to-port="0"/>
		<edge from-layer="2896" from-port="0" to-layer="2897" to-port="1"/>
		<edge from-layer="2768" from-port="3" to-layer="2900" to-port="0"/>
		<edge from-layer="2898" from-port="0" to-layer="2900" to-port="1"/>
		<edge from-layer="2899" from-port="0" to-layer="2900" to-port="2"/>
		<edge from-layer="2880" from-port="3" to-layer="2903" to-port="0"/>
		<edge from-layer="2901" from-port="0" to-layer="2903" to-port="1"/>
		<edge from-layer="2902" from-port="0" to-layer="2903" to-port="2"/>
		<edge from-layer="2900" from-port="3" to-layer="2904" to-port="0"/>
		<edge from-layer="2903" from-port="3" to-layer="2904" to-port="1"/>
		<edge from-layer="2904" from-port="2" to-layer="2905" to-port="0"/>
		<edge from-layer="2905" from-port="1" to-layer="2907" to-port="0"/>
		<edge from-layer="2906" from-port="0" to-layer="2907" to-port="1"/>
		<edge from-layer="2768" from-port="3" to-layer="2910" to-port="0"/>
		<edge from-layer="2908" from-port="0" to-layer="2910" to-port="1"/>
		<edge from-layer="2909" from-port="0" to-layer="2910" to-port="2"/>
		<edge from-layer="2880" from-port="3" to-layer="2913" to-port="0"/>
		<edge from-layer="2911" from-port="0" to-layer="2913" to-port="1"/>
		<edge from-layer="2912" from-port="0" to-layer="2913" to-port="2"/>
		<edge from-layer="2910" from-port="3" to-layer="2914" to-port="0"/>
		<edge from-layer="2913" from-port="3" to-layer="2914" to-port="1"/>
		<edge from-layer="2914" from-port="2" to-layer="2915" to-port="0"/>
		<edge from-layer="2915" from-port="1" to-layer="2917" to-port="0"/>
		<edge from-layer="2916" from-port="0" to-layer="2917" to-port="1"/>
		<edge from-layer="2887" from-port="2" to-layer="2918" to-port="0"/>
		<edge from-layer="2897" from-port="2" to-layer="2918" to-port="1"/>
		<edge from-layer="2907" from-port="2" to-layer="2918" to-port="2"/>
		<edge from-layer="2917" from-port="2" to-layer="2918" to-port="3"/>
		<edge from-layer="2058" from-port="4" to-layer="2919" to-port="0"/>
		<edge from-layer="2273" from-port="4" to-layer="2919" to-port="1"/>
		<edge from-layer="2488" from-port="4" to-layer="2919" to-port="2"/>
		<edge from-layer="2703" from-port="4" to-layer="2919" to-port="3"/>
		<edge from-layer="2918" from-port="4" to-layer="2919" to-port="4"/>
		<edge from-layer="2919" from-port="5" to-layer="2921" to-port="0"/>
		<edge from-layer="2920" from-port="0" to-layer="2921" to-port="1"/>
		<edge from-layer="2921" from-port="2" to-layer="2923" to-port="0"/>
		<edge from-layer="2922" from-port="0" to-layer="2923" to-port="1"/>
		<edge from-layer="1204" from-port="3" to-layer="2924" to-port="0"/>
		<edge from-layer="1165" from-port="1" to-layer="2926" to-port="0"/>
		<edge from-layer="2924" from-port="1" to-layer="2926" to-port="1"/>
		<edge from-layer="2925" from-port="0" to-layer="2926" to-port="2"/>
		<edge from-layer="1356" from-port="3" to-layer="2927" to-port="0"/>
		<edge from-layer="1323" from-port="1" to-layer="2929" to-port="0"/>
		<edge from-layer="2927" from-port="1" to-layer="2929" to-port="1"/>
		<edge from-layer="2928" from-port="0" to-layer="2929" to-port="2"/>
		<edge from-layer="1508" from-port="3" to-layer="2930" to-port="0"/>
		<edge from-layer="1475" from-port="1" to-layer="2932" to-port="0"/>
		<edge from-layer="2930" from-port="1" to-layer="2932" to-port="1"/>
		<edge from-layer="2931" from-port="0" to-layer="2932" to-port="2"/>
		<edge from-layer="1660" from-port="3" to-layer="2933" to-port="0"/>
		<edge from-layer="1627" from-port="1" to-layer="2935" to-port="0"/>
		<edge from-layer="2933" from-port="1" to-layer="2935" to-port="1"/>
		<edge from-layer="2934" from-port="0" to-layer="2935" to-port="2"/>
		<edge from-layer="1818" from-port="3" to-layer="2936" to-port="0"/>
		<edge from-layer="1785" from-port="1" to-layer="2938" to-port="0"/>
		<edge from-layer="2936" from-port="1" to-layer="2938" to-port="1"/>
		<edge from-layer="2937" from-port="0" to-layer="2938" to-port="2"/>
		<edge from-layer="2926" from-port="3" to-layer="2939" to-port="0"/>
		<edge from-layer="2929" from-port="3" to-layer="2939" to-port="1"/>
		<edge from-layer="2932" from-port="3" to-layer="2939" to-port="2"/>
		<edge from-layer="2935" from-port="3" to-layer="2939" to-port="3"/>
		<edge from-layer="2938" from-port="3" to-layer="2939" to-port="4"/>
		<edge from-layer="1204" from-port="3" to-layer="2940" to-port="0"/>
		<edge from-layer="1186" from-port="1" to-layer="2942" to-port="0"/>
		<edge from-layer="2940" from-port="1" to-layer="2942" to-port="1"/>
		<edge from-layer="2941" from-port="0" to-layer="2942" to-port="2"/>
		<edge from-layer="1356" from-port="3" to-layer="2943" to-port="0"/>
		<edge from-layer="1338" from-port="1" to-layer="2945" to-port="0"/>
		<edge from-layer="2943" from-port="1" to-layer="2945" to-port="1"/>
		<edge from-layer="2944" from-port="0" to-layer="2945" to-port="2"/>
		<edge from-layer="1508" from-port="3" to-layer="2946" to-port="0"/>
		<edge from-layer="1490" from-port="1" to-layer="2948" to-port="0"/>
		<edge from-layer="2946" from-port="1" to-layer="2948" to-port="1"/>
		<edge from-layer="2947" from-port="0" to-layer="2948" to-port="2"/>
		<edge from-layer="1660" from-port="3" to-layer="2949" to-port="0"/>
		<edge from-layer="1642" from-port="1" to-layer="2951" to-port="0"/>
		<edge from-layer="2949" from-port="1" to-layer="2951" to-port="1"/>
		<edge from-layer="2950" from-port="0" to-layer="2951" to-port="2"/>
		<edge from-layer="1818" from-port="3" to-layer="2952" to-port="0"/>
		<edge from-layer="1800" from-port="1" to-layer="2954" to-port="0"/>
		<edge from-layer="2952" from-port="1" to-layer="2954" to-port="1"/>
		<edge from-layer="2953" from-port="0" to-layer="2954" to-port="2"/>
		<edge from-layer="2942" from-port="3" to-layer="2955" to-port="0"/>
		<edge from-layer="2945" from-port="3" to-layer="2955" to-port="1"/>
		<edge from-layer="2948" from-port="3" to-layer="2955" to-port="2"/>
		<edge from-layer="2951" from-port="3" to-layer="2955" to-port="3"/>
		<edge from-layer="2954" from-port="3" to-layer="2955" to-port="4"/>
		<edge from-layer="2955" from-port="5" to-layer="2956" to-port="0"/>
		<edge from-layer="2956" from-port="1" to-layer="2958" to-port="0"/>
		<edge from-layer="2957" from-port="0" to-layer="2958" to-port="1"/>
		<edge from-layer="2955" from-port="5" to-layer="2959" to-port="0"/>
		<edge from-layer="2958" from-port="2" to-layer="2959" to-port="1"/>
		<edge from-layer="2939" from-port="5" to-layer="2960" to-port="0"/>
		<edge from-layer="2959" from-port="2" to-layer="2960" to-port="1"/>
		<edge from-layer="2960" from-port="2" to-layer="2962" to-port="0"/>
		<edge from-layer="2961" from-port="0" to-layer="2962" to-port="1"/>
		<edge from-layer="2923" from-port="2" to-layer="2963" to-port="0"/>
		<edge from-layer="2963" from-port="1" to-layer="2967" to-port="0"/>
		<edge from-layer="2964" from-port="0" to-layer="2967" to-port="1"/>
		<edge from-layer="2965" from-port="0" to-layer="2967" to-port="2"/>
		<edge from-layer="2966" from-port="0" to-layer="2967" to-port="3"/>
		<edge from-layer="2963" from-port="1" to-layer="2972" to-port="0"/>
		<edge from-layer="2969" from-port="0" to-layer="2972" to-port="1"/>
		<edge from-layer="2970" from-port="0" to-layer="2972" to-port="2"/>
		<edge from-layer="2971" from-port="0" to-layer="2972" to-port="3"/>
		<edge from-layer="2967" from-port="4" to-layer="2973" to-port="0"/>
		<edge from-layer="2968" from-port="0" to-layer="2973" to-port="1"/>
		<edge from-layer="2972" from-port="4" to-layer="2973" to-port="2"/>
		<edge from-layer="2962" from-port="2" to-layer="2974" to-port="0"/>
		<edge from-layer="2973" from-port="3" to-layer="2974" to-port="1"/>
		<edge from-layer="2975" from-port="0" to-layer="2976" to-port="0"/>
		<edge from-layer="2977" from-port="0" to-layer="2978" to-port="0"/>
		<edge from-layer="2923" from-port="2" to-layer="2980" to-port="0"/>
		<edge from-layer="2974" from-port="2" to-layer="2980" to-port="1"/>
		<edge from-layer="2979" from-port="0" to-layer="2980" to-port="2"/>
		<edge from-layer="2976" from-port="1" to-layer="2980" to-port="3"/>
		<edge from-layer="2978" from-port="1" to-layer="2980" to-port="4"/>
		<edge from-layer="2923" from-port="2" to-layer="2984" to-port="0"/>
		<edge from-layer="2983" from-port="0" to-layer="2984" to-port="1"/>
		<edge from-layer="2980" from-port="5" to-layer="2988" to-port="0"/>
		<edge from-layer="2985" from-port="0" to-layer="2988" to-port="1"/>
		<edge from-layer="2986" from-port="0" to-layer="2988" to-port="2"/>
		<edge from-layer="2987" from-port="0" to-layer="2988" to-port="3"/>
		<edge from-layer="2988" from-port="4" to-layer="2989" to-port="0"/>
		<edge from-layer="2972" from-port="4" to-layer="2989" to-port="1"/>
		<edge from-layer="2980" from-port="5" to-layer="2993" to-port="0"/>
		<edge from-layer="2990" from-port="0" to-layer="2993" to-port="1"/>
		<edge from-layer="2991" from-port="0" to-layer="2993" to-port="2"/>
		<edge from-layer="2992" from-port="0" to-layer="2993" to-port="3"/>
		<edge from-layer="2989" from-port="2" to-layer="2994" to-port="0"/>
		<edge from-layer="2993" from-port="4" to-layer="2994" to-port="1"/>
		<edge from-layer="2994" from-port="2" to-layer="2995" to-port="0"/>
		<edge from-layer="2984" from-port="2" to-layer="2997" to-port="0"/>
		<edge from-layer="2995" from-port="1" to-layer="2997" to-port="1"/>
		<edge from-layer="2996" from-port="0" to-layer="2997" to-port="2"/>
		<edge from-layer="2997" from-port="3" to-layer="2999" to-port="0"/>
		<edge from-layer="2998" from-port="0" to-layer="2999" to-port="1"/>
		<edge from-layer="2974" from-port="2" to-layer="3001" to-port="0"/>
		<edge from-layer="3000" from-port="0" to-layer="3001" to-port="1"/>
		<edge from-layer="2974" from-port="2" to-layer="3002" to-port="0"/>
		<edge from-layer="3002" from-port="1" to-layer="3006" to-port="0"/>
		<edge from-layer="3003" from-port="0" to-layer="3006" to-port="1"/>
		<edge from-layer="3004" from-port="0" to-layer="3006" to-port="2"/>
		<edge from-layer="3005" from-port="0" to-layer="3006" to-port="3"/>
		<edge from-layer="2988" from-port="4" to-layer="3007" to-port="0"/>
		<edge from-layer="3006" from-port="4" to-layer="3007" to-port="1"/>
		<edge from-layer="2980" from-port="5" to-layer="3011" to-port="0"/>
		<edge from-layer="3008" from-port="0" to-layer="3011" to-port="1"/>
		<edge from-layer="3009" from-port="0" to-layer="3011" to-port="2"/>
		<edge from-layer="3010" from-port="0" to-layer="3011" to-port="3"/>
		<edge from-layer="3007" from-port="2" to-layer="3012" to-port="0"/>
		<edge from-layer="3011" from-port="4" to-layer="3012" to-port="1"/>
		<edge from-layer="3012" from-port="2" to-layer="3013" to-port="0"/>
		<edge from-layer="2972" from-port="4" to-layer="3013" to-port="1"/>
		<edge from-layer="3013" from-port="2" to-layer="3014" to-port="0"/>
		<edge from-layer="2993" from-port="4" to-layer="3014" to-port="1"/>
		<edge from-layer="3014" from-port="2" to-layer="3015" to-port="0"/>
		<edge from-layer="3001" from-port="2" to-layer="3017" to-port="0"/>
		<edge from-layer="3015" from-port="1" to-layer="3017" to-port="1"/>
		<edge from-layer="3016" from-port="0" to-layer="3017" to-port="2"/>
		<edge from-layer="3017" from-port="3" to-layer="3019" to-port="0"/>
		<edge from-layer="3018" from-port="0" to-layer="3019" to-port="1"/>
		<edge from-layer="3011" from-port="4" to-layer="3020" to-port="0"/>
		<edge from-layer="2988" from-port="4" to-layer="3020" to-port="1"/>
		<edge from-layer="3020" from-port="2" to-layer="3021" to-port="0"/>
		<edge from-layer="3021" from-port="1" to-layer="3023" to-port="0"/>
		<edge from-layer="3022" from-port="0" to-layer="3023" to-port="1"/>
		<edge from-layer="2999" from-port="2" to-layer="3024" to-port="0"/>
		<edge from-layer="3019" from-port="2" to-layer="3024" to-port="1"/>
		<edge from-layer="3023" from-port="2" to-layer="3024" to-port="2"/>
		<edge from-layer="3024" from-port="3" to-layer="3027" to-port="0"/>
		<edge from-layer="3025" from-port="0" to-layer="3027" to-port="1"/>
		<edge from-layer="3026" from-port="0" to-layer="3027" to-port="2"/>
		<edge from-layer="3027" from-port="3" to-layer="3029" to-port="0"/>
		<edge from-layer="3028" from-port="0" to-layer="3029" to-port="1"/>
		<edge from-layer="3029" from-port="2" to-layer="3031" to-port="0"/>
		<edge from-layer="3030" from-port="0" to-layer="3032" to-port="0"/>
		<edge from-layer="3031" from-port="1" to-layer="3032" to-port="1"/>
		<edge from-layer="3032" from-port="2" to-layer="3033" to-port="0"/>
		<edge from-layer="3033" from-port="1" to-layer="3035" to-port="0"/>
		<edge from-layer="3034" from-port="0" to-layer="3035" to-port="1"/>
		<edge from-layer="3035" from-port="2" to-layer="3036" to-port="0"/>
		<edge from-layer="3036" from-port="1" to-layer="3038" to-port="0"/>
		<edge from-layer="3037" from-port="0" to-layer="3038" to-port="1"/>
		<edge from-layer="3038" from-port="2" to-layer="3040" to-port="0"/>
		<edge from-layer="3039" from-port="0" to-layer="3040" to-port="1"/>
		<edge from-layer="3040" from-port="2" to-layer="3041" to-port="0"/>
		<edge from-layer="3029" from-port="2" to-layer="3042" to-port="0"/>
		<edge from-layer="3041" from-port="1" to-layer="3042" to-port="1"/>
		<edge from-layer="3042" from-port="3" to-layer="3044" to-port="0"/>
		<edge from-layer="3024" from-port="3" to-layer="3046" to-port="0"/>
		<edge from-layer="3044" from-port="1" to-layer="3046" to-port="1"/>
		<edge from-layer="3045" from-port="0" to-layer="3046" to-port="2"/>
		<edge from-layer="3046" from-port="3" to-layer="3050" to-port="0"/>
		<edge from-layer="3047" from-port="0" to-layer="3050" to-port="1"/>
		<edge from-layer="3048" from-port="0" to-layer="3050" to-port="2"/>
		<edge from-layer="3049" from-port="0" to-layer="3050" to-port="3"/>
		<edge from-layer="3046" from-port="3" to-layer="3054" to-port="0"/>
		<edge from-layer="3052" from-port="0" to-layer="3054" to-port="1"/>
		<edge from-layer="3053" from-port="0" to-layer="3054" to-port="2"/>
		<edge from-layer="3054" from-port="3" to-layer="3055" to-port="0"/>
		<edge from-layer="3055" from-port="1" to-layer="3057" to-port="0"/>
		<edge from-layer="3056" from-port="0" to-layer="3057" to-port="1"/>
		<edge from-layer="3050" from-port="4" to-layer="3051" to-port="0"/>
		<edge from-layer="3057" from-port="2" to-layer="3058" to-port="0"/>
	</edges>
	<meta_data>
		<MO_version value="custom_HEAD_73caba0f677dd6dbf9e464753baad9afa26b28dc"/>
		<Runtime_version value="custom_HEAD_73caba0f677dd6dbf9e464753baad9afa26b28dc"/>
		<legacy_path value="True"/>
		<cli_parameters>
			<caffe_parser_path value="DIR"/>
			<compress_fp16 value="True"/>
			<data_type value="FP32"/>
			<disable_nhwc_to_nchw value="False"/>
			<disable_omitting_optional value="False"/>
			<disable_resnet_optimization value="False"/>
			<disable_weights_compression value="False"/>
			<enable_concat_optimization value="False"/>
			<enable_flattening_nested_params value="False"/>
			<enable_ssd_gluoncv value="False"/>
			<extensions value="DIR"/>
			<framework value="onnx"/>
			<freeze_placeholder_with_value value="{}"/>
			<generate_deprecated_IR_V7 value="False"/>
			<input value="image"/>
			<input_model value="DIR/model.onnx"/>
			<input_model_is_text value="False"/>
			<input_shape value="[1,3,704,704]"/>
			<k value="DIR/CustomLayersMapping.xml"/>
			<keep_shape_ops value="True"/>
			<layout value="image(nchw)"/>
			<layout_values value="{'image': {'source_layout': 'nchw', 'target_layout': None, 'is_input': True}}"/>
			<legacy_ir_generation value="False"/>
			<legacy_mxnet_model value="False"/>
			<log_level value="ERROR"/>
			<mean_scale_values value="{'image': {'mean': array([0., 0., 0.]), 'scale': array([255., 255., 255.])}}"/>
			<mean_values value="image[0.0,0.0,0.0]"/>
			<model_name value="horizontal-text-detection-0001"/>
			<output value="['boxes', 'labels']"/>
			<output_dir value="DIR"/>
			<placeholder_data_types value="{}"/>
			<placeholder_shapes value="{'image': (1, 3, 704, 704)}"/>
			<progress value="False"/>
			<remove_memory value="False"/>
			<remove_output_softmax value="False"/>
			<reverse_input_channels value="True"/>
			<save_params_from_nd value="False"/>
			<scale_values value="image[255.0,255.0,255.0]"/>
			<silent value="False"/>
			<source_layout value="()"/>
			<static_shape value="False"/>
			<stream_output value="False"/>
			<target_layout value="()"/>
			<transform value=""/>
			<use_legacy_frontend value="False"/>
			<use_new_frontend value="False"/>
			<unset unset_cli_parameters="batch, counts, disable_fusing, disable_gfusing, finegrain_fusing, input_checkpoint, input_meta_graph, input_proto, input_symbol, mean_file, mean_file_offsets, move_to_preprocess, nd_prefix_name, pretrained_model_name, saved_model_dir, saved_model_tags, scale, tensorboard_logdir, tensorflow_custom_layer_libraries, tensorflow_custom_operations_config_update, tensorflow_object_detection_api_pipeline_config, tensorflow_use_custom_operations_config, transformations_config"/>
		</cli_parameters>
	</meta_data>
	<quantization_parameters>
		<config>{
		'compression': {
			'algorithms': [
				{
					'name': 'DefaultQuantization',
					'params': {
						'num_samples_for_tuning': 2000,
						'preset': 'performance',
						'stat_subset_size': 300,
						'use_layerwise_tuning': false
					}
				}
			],
			'dump_intermediate_model': true,
			'target_device': 'ANY'
		},
		'engine': {
			'models': [
				{
					'name': 'horizontal-text-detection-0001',
					'launchers': [
						{
							'framework': 'openvino',
							'adapter': {
								'type': 'class_agnostic_detection',
								'scale': 0.0014204
							},
							'device': 'cpu'
						}
					],
					'datasets': [
						{
							'name': 'ICDAR2013_detection',
							'data_source': 'PATH',
							'annotation_conversion': {
								'converter': 'icdar_detection',
								'data_dir': 'PATH'
							},
							'annotation': 'PATH',
							'preprocessing': [
								{
									'type': 'resize',
									'size': 704
								}
							],
							'postprocessing': [
								{
									'type': 'resize_prediction_boxes'
								},
								{
									'type': 'cast_to_int'
								},
								{
									'type': 'filter',
									'apply_to': 'prediction',
									'min_confidence': 0.25,
									'remove_filtered': true
								},
								{
									'type': 'nms',
									'overlap': 0.5
								}
							],
							'metrics': [
								{
									'type': 'focused_text_hmean',
									'ignore_difficult': true,
									'area_recall_constrain': 0.5,
									'area_precision_constrain': 0.5,
									'reference': 0.8845
								}
							],
							'_command_line_mapping': {
								'data_dir': 'PATH'
							}
						}
					]
				}
			],
			'stat_requests_number': null,
			'eval_requests_number': null,
			'type': 'accuracy_checker'
		}
	}</config>
		<version value="invalid version"/>
		<cli_params value="{'quantize': None, 'preset': None, 'model': None, 'weights': None, 'name': None, 'engine': None, 'ac_config': None, 'max_drop': None, 'evaluate': False, 'output_dir': 'PATH', 'direct_dump': True, 'log_level': 'INFO', 'pbar': False, 'stream_output': False, 'keep_uncompressed_weights': False, 'data_source': None, 'shape': None, 'data_type': 'image', 'generate_data': False}"/>
	</quantization_parameters>
</net>
