<?xml version="1.0" ?>
<net name="road-segmentation-adas-0001" version="11">
	<layers>
		<layer id="88" name="data" type="Parameter" version="opset1">
			<data element_type="f32" shape="1,3,512,896"/>
			<rt_info>
				<attribute name="fused_names" value="data" version="0"/>
				<attribute name="old_api_map_element_type" value="f16" version="0"/>
			</rt_info>
			<output>
				<port id="0" names="data" precision="FP32">
					<dim>1</dim>
					<dim>3</dim>
					<dim>512</dim>
					<dim>896</dim>
					<rt_info>
						<attribute layout="[N,C,H,W]" name="layout" version="0"/>
					</rt_info>
				</port>
			</output>
		</layer>
		<layer id="0" name="6851685530061" type="Const" version="opset1">
			<data element_type="f32" offset="0" shape="" size="4"/>
			<output>
				<port id="0" precision="FP32"/>
			</output>
		</layer>
		<layer id="1" name="6852685629851" type="Const" version="opset1">
			<data element_type="f32" offset="4" shape="" size="4"/>
			<output>
				<port id="0" precision="FP32"/>
			</output>
		</layer>
		<layer id="2" name="6853685730820" type="Const" version="opset1">
			<data element_type="f32" offset="0" shape="" size="4"/>
			<output>
				<port id="0" precision="FP32"/>
			</output>
		</layer>
		<layer id="3" name="6854685830664" type="Const" version="opset1">
			<data element_type="f32" offset="4" shape="" size="4"/>
			<output>
				<port id="0" precision="FP32"/>
			</output>
		</layer>
		<layer id="4" name="6751675531030" type="Const" version="opset1">
			<data element_type="f32" offset="8" shape="" size="4"/>
			<output>
				<port id="0" precision="FP32"/>
			</output>
		</layer>
		<layer id="5" name="6752675629251" type="Const" version="opset1">
			<data element_type="f32" offset="12" shape="" size="4"/>
			<output>
				<port id="0" precision="FP32"/>
			</output>
		</layer>
		<layer id="6" name="6753675727223" type="Const" version="opset1">
			<data element_type="f32" offset="8" shape="" size="4"/>
			<output>
				<port id="0" precision="FP32"/>
			</output>
		</layer>
		<layer id="7" name="6754675827922" type="Const" version="opset1">
			<data element_type="f32" offset="12" shape="" size="4"/>
			<output>
				<port id="0" precision="FP32"/>
			</output>
		</layer>
		<layer id="8" name="6711671528165" type="Const" version="opset1">
			<data element_type="f32" offset="0" shape="" size="4"/>
			<output>
				<port id="0" precision="FP32"/>
			</output>
		</layer>
		<layer id="9" name="6712671630805" type="Const" version="opset1">
			<data element_type="f32" offset="16" shape="" size="4"/>
			<output>
				<port id="0" precision="FP32"/>
			</output>
		</layer>
		<layer id="10" name="6713671728987" type="Const" version="opset1">
			<data element_type="f32" offset="0" shape="" size="4"/>
			<output>
				<port id="0" precision="FP32"/>
			</output>
		</layer>
		<layer id="11" name="6714671830736" type="Const" version="opset1">
			<data element_type="f32" offset="16" shape="" size="4"/>
			<output>
				<port id="0" precision="FP32"/>
			</output>
		</layer>
		<layer id="12" name="6191619528069" type="Const" version="opset1">
			<data element_type="f32" offset="20" shape="1,8,1,1" size="32"/>
			<output>
				<port id="0" precision="FP32">
					<dim>1</dim>
					<dim>8</dim>
					<dim>1</dim>
					<dim>1</dim>
				</port>
			</output>
		</layer>
		<layer id="13" name="6192619629839" type="Const" version="opset1">
			<data element_type="f32" offset="52" shape="1,8,1,1" size="32"/>
			<output>
				<port id="0" precision="FP32">
					<dim>1</dim>
					<dim>8</dim>
					<dim>1</dim>
					<dim>1</dim>
				</port>
			</output>
		</layer>
		<layer id="14" name="6193619727925" type="Const" version="opset1">
			<data element_type="f32" offset="20" shape="1,8,1,1" size="32"/>
			<output>
				<port id="0" precision="FP32">
					<dim>1</dim>
					<dim>8</dim>
					<dim>1</dim>
					<dim>1</dim>
				</port>
			</output>
		</layer>
		<layer id="15" name="6194619830217" type="Const" version="opset1">
			<data element_type="f32" offset="52" shape="1,8,1,1" size="32"/>
			<output>
				<port id="0" precision="FP32">
					<dim>1</dim>
					<dim>8</dim>
					<dim>1</dim>
					<dim>1</dim>
				</port>
			</output>
		</layer>
		<layer id="16" name="4591459531141" type="Const" version="opset1">
			<data element_type="f32" offset="0" shape="" size="4"/>
			<output>
				<port id="0" precision="FP32"/>
			</output>
		</layer>
		<layer id="17" name="4592459629107" type="Const" version="opset1">
			<data element_type="f32" offset="84" shape="" size="4"/>
			<output>
				<port id="0" precision="FP32"/>
			</output>
		</layer>
		<layer id="18" name="4593459727826" type="Const" version="opset1">
			<data element_type="f32" offset="0" shape="" size="4"/>
			<output>
				<port id="0" precision="FP32"/>
			</output>
		</layer>
		<layer id="19" name="4594459827871" type="Const" version="opset1">
			<data element_type="f32" offset="84" shape="" size="4"/>
			<output>
				<port id="0" precision="FP32"/>
			</output>
		</layer>
		<layer id="20" name="4751475531108" type="Const" version="opset1">
			<data element_type="f32" offset="88" shape="" size="4"/>
			<output>
				<port id="0" precision="FP32"/>
			</output>
		</layer>
		<layer id="21" name="4752475628915" type="Const" version="opset1">
			<data element_type="f32" offset="92" shape="" size="4"/>
			<output>
				<port id="0" precision="FP32"/>
			</output>
		</layer>
		<layer id="22" name="4753475728972" type="Const" version="opset1">
			<data element_type="f32" offset="88" shape="" size="4"/>
			<output>
				<port id="0" precision="FP32"/>
			</output>
		</layer>
		<layer id="23" name="4754475827547" type="Const" version="opset1">
			<data element_type="f32" offset="92" shape="" size="4"/>
			<output>
				<port id="0" precision="FP32"/>
			</output>
		</layer>
		<layer id="24" name="6301630528918" type="Const" version="opset1">
			<data element_type="f32" offset="0" shape="" size="4"/>
			<output>
				<port id="0" precision="FP32"/>
			</output>
		</layer>
		<layer id="25" name="6302630628318" type="Const" version="opset1">
			<data element_type="f32" offset="96" shape="" size="4"/>
			<output>
				<port id="0" precision="FP32"/>
			</output>
		</layer>
		<layer id="26" name="6303630730583" type="Const" version="opset1">
			<data element_type="f32" offset="0" shape="" size="4"/>
			<output>
				<port id="0" precision="FP32"/>
			</output>
		</layer>
		<layer id="27" name="6304630829746" type="Const" version="opset1">
			<data element_type="f32" offset="96" shape="" size="4"/>
			<output>
				<port id="0" precision="FP32"/>
			</output>
		</layer>
		<layer id="28" name="4951495528861" type="Const" version="opset1">
			<data element_type="f32" offset="20" shape="1,8,1,1" size="32"/>
			<output>
				<port id="0" precision="FP32">
					<dim>1</dim>
					<dim>8</dim>
					<dim>1</dim>
					<dim>1</dim>
				</port>
			</output>
		</layer>
		<layer id="29" name="4952495627232" type="Const" version="opset1">
			<data element_type="f32" offset="100" shape="1,8,1,1" size="32"/>
			<output>
				<port id="0" precision="FP32">
					<dim>1</dim>
					<dim>8</dim>
					<dim>1</dim>
					<dim>1</dim>
				</port>
			</output>
		</layer>
		<layer id="30" name="4953495728306" type="Const" version="opset1">
			<data element_type="f32" offset="20" shape="1,8,1,1" size="32"/>
			<output>
				<port id="0" precision="FP32">
					<dim>1</dim>
					<dim>8</dim>
					<dim>1</dim>
					<dim>1</dim>
				</port>
			</output>
		</layer>
		<layer id="31" name="4954495828930" type="Const" version="opset1">
			<data element_type="f32" offset="100" shape="1,8,1,1" size="32"/>
			<output>
				<port id="0" precision="FP32">
					<dim>1</dim>
					<dim>8</dim>
					<dim>1</dim>
					<dim>1</dim>
				</port>
			</output>
		</layer>
		<layer id="32" name="5691569530661" type="Const" version="opset1">
			<data element_type="f32" offset="0" shape="" size="4"/>
			<output>
				<port id="0" precision="FP32"/>
			</output>
		</layer>
		<layer id="33" name="5692569628129" type="Const" version="opset1">
			<data element_type="f32" offset="132" shape="" size="4"/>
			<output>
				<port id="0" precision="FP32"/>
			</output>
		</layer>
		<layer id="34" name="5693569727964" type="Const" version="opset1">
			<data element_type="f32" offset="0" shape="" size="4"/>
			<output>
				<port id="0" precision="FP32"/>
			</output>
		</layer>
		<layer id="35" name="5694569828963" type="Const" version="opset1">
			<data element_type="f32" offset="132" shape="" size="4"/>
			<output>
				<port id="0" precision="FP32"/>
			</output>
		</layer>
		<layer id="36" name="3541354530010" type="Const" version="opset1">
			<data element_type="f32" offset="136" shape="" size="4"/>
			<output>
				<port id="0" precision="FP32"/>
			</output>
		</layer>
		<layer id="37" name="3542354627841" type="Const" version="opset1">
			<data element_type="f32" offset="140" shape="" size="4"/>
			<output>
				<port id="0" precision="FP32"/>
			</output>
		</layer>
		<layer id="38" name="3543354729539" type="Const" version="opset1">
			<data element_type="f32" offset="136" shape="" size="4"/>
			<output>
				<port id="0" precision="FP32"/>
			</output>
		</layer>
		<layer id="39" name="3544354831189" type="Const" version="opset1">
			<data element_type="f32" offset="140" shape="" size="4"/>
			<output>
				<port id="0" precision="FP32"/>
			</output>
		</layer>
		<layer id="40" name="4431443527700" type="Const" version="opset1">
			<data element_type="f32" offset="0" shape="" size="4"/>
			<output>
				<port id="0" precision="FP32"/>
			</output>
		</layer>
		<layer id="41" name="4432443628711" type="Const" version="opset1">
			<data element_type="f32" offset="144" shape="" size="4"/>
			<output>
				<port id="0" precision="FP32"/>
			</output>
		</layer>
		<layer id="42" name="4433443729500" type="Const" version="opset1">
			<data element_type="f32" offset="0" shape="" size="4"/>
			<output>
				<port id="0" precision="FP32"/>
			</output>
		</layer>
		<layer id="43" name="4434443827859" type="Const" version="opset1">
			<data element_type="f32" offset="144" shape="" size="4"/>
			<output>
				<port id="0" precision="FP32"/>
			</output>
		</layer>
		<layer id="44" name="5011501531114" type="Const" version="opset1">
			<data element_type="f32" offset="20" shape="1,8,1,1" size="32"/>
			<output>
				<port id="0" precision="FP32">
					<dim>1</dim>
					<dim>8</dim>
					<dim>1</dim>
					<dim>1</dim>
				</port>
			</output>
		</layer>
		<layer id="45" name="5012501627448" type="Const" version="opset1">
			<data element_type="f32" offset="148" shape="1,8,1,1" size="32"/>
			<output>
				<port id="0" precision="FP32">
					<dim>1</dim>
					<dim>8</dim>
					<dim>1</dim>
					<dim>1</dim>
				</port>
			</output>
		</layer>
		<layer id="46" name="5013501730364" type="Const" version="opset1">
			<data element_type="f32" offset="20" shape="1,8,1,1" size="32"/>
			<output>
				<port id="0" precision="FP32">
					<dim>1</dim>
					<dim>8</dim>
					<dim>1</dim>
					<dim>1</dim>
				</port>
			</output>
		</layer>
		<layer id="47" name="5014501830184" type="Const" version="opset1">
			<data element_type="f32" offset="148" shape="1,8,1,1" size="32"/>
			<output>
				<port id="0" precision="FP32">
					<dim>1</dim>
					<dim>8</dim>
					<dim>1</dim>
					<dim>1</dim>
				</port>
			</output>
		</layer>
		<layer id="48" name="4891489531087" type="Const" version="opset1">
			<data element_type="f32" offset="0" shape="" size="4"/>
			<output>
				<port id="0" precision="FP32"/>
			</output>
		</layer>
		<layer id="49" name="4892489627961" type="Const" version="opset1">
			<data element_type="f32" offset="180" shape="" size="4"/>
			<output>
				<port id="0" precision="FP32"/>
			</output>
		</layer>
		<layer id="50" name="4893489728210" type="Const" version="opset1">
			<data element_type="f32" offset="0" shape="" size="4"/>
			<output>
				<port id="0" precision="FP32"/>
			</output>
		</layer>
		<layer id="51" name="4894489829590" type="Const" version="opset1">
			<data element_type="f32" offset="180" shape="" size="4"/>
			<output>
				<port id="0" precision="FP32"/>
			</output>
		</layer>
		<layer id="52" name="4141414529113" type="Const" version="opset1">
			<data element_type="f32" offset="184" shape="" size="4"/>
			<output>
				<port id="0" precision="FP32"/>
			</output>
		</layer>
		<layer id="53" name="4142414631165" type="Const" version="opset1">
			<data element_type="f32" offset="188" shape="" size="4"/>
			<output>
				<port id="0" precision="FP32"/>
			</output>
		</layer>
		<layer id="54" name="4143414730520" type="Const" version="opset1">
			<data element_type="f32" offset="184" shape="" size="4"/>
			<output>
				<port id="0" precision="FP32"/>
			</output>
		</layer>
		<layer id="55" name="4144414827880" type="Const" version="opset1">
			<data element_type="f32" offset="188" shape="" size="4"/>
			<output>
				<port id="0" precision="FP32"/>
			</output>
		</layer>
		<layer id="56" name="4871487530055" type="Const" version="opset1">
			<data element_type="f32" offset="0" shape="" size="4"/>
			<output>
				<port id="0" precision="FP32"/>
			</output>
		</layer>
		<layer id="57" name="4872487628381" type="Const" version="opset1">
			<data element_type="f32" offset="192" shape="" size="4"/>
			<output>
				<port id="0" precision="FP32"/>
			</output>
		</layer>
		<layer id="58" name="4873487729038" type="Const" version="opset1">
			<data element_type="f32" offset="0" shape="" size="4"/>
			<output>
				<port id="0" precision="FP32"/>
			</output>
		</layer>
		<layer id="59" name="4874487830691" type="Const" version="opset1">
			<data element_type="f32" offset="192" shape="" size="4"/>
			<output>
				<port id="0" precision="FP32"/>
			</output>
		</layer>
		<layer id="60" name="4771477530625" type="Const" version="opset1">
			<data element_type="f32" offset="20" shape="1,8,1,1" size="32"/>
			<output>
				<port id="0" precision="FP32">
					<dim>1</dim>
					<dim>8</dim>
					<dim>1</dim>
					<dim>1</dim>
				</port>
			</output>
		</layer>
		<layer id="61" name="4772477628843" type="Const" version="opset1">
			<data element_type="f32" offset="196" shape="1,8,1,1" size="32"/>
			<output>
				<port id="0" precision="FP32">
					<dim>1</dim>
					<dim>8</dim>
					<dim>1</dim>
					<dim>1</dim>
				</port>
			</output>
		</layer>
		<layer id="62" name="4773477728651" type="Const" version="opset1">
			<data element_type="f32" offset="20" shape="1,8,1,1" size="32"/>
			<output>
				<port id="0" precision="FP32">
					<dim>1</dim>
					<dim>8</dim>
					<dim>1</dim>
					<dim>1</dim>
				</port>
			</output>
		</layer>
		<layer id="63" name="4774477829875" type="Const" version="opset1">
			<data element_type="f32" offset="196" shape="1,8,1,1" size="32"/>
			<output>
				<port id="0" precision="FP32">
					<dim>1</dim>
					<dim>8</dim>
					<dim>1</dim>
					<dim>1</dim>
				</port>
			</output>
		</layer>
		<layer id="64" name="5031503530775" type="Const" version="opset1">
			<data element_type="f32" offset="0" shape="" size="4"/>
			<output>
				<port id="0" precision="FP32"/>
			</output>
		</layer>
		<layer id="65" name="5032503630970" type="Const" version="opset1">
			<data element_type="f32" offset="228" shape="" size="4"/>
			<output>
				<port id="0" precision="FP32"/>
			</output>
		</layer>
		<layer id="66" name="5033503728507" type="Const" version="opset1">
			<data element_type="f32" offset="0" shape="" size="4"/>
			<output>
				<port id="0" precision="FP32"/>
			</output>
		</layer>
		<layer id="67" name="5034503829020" type="Const" version="opset1">
			<data element_type="f32" offset="228" shape="" size="4"/>
			<output>
				<port id="0" precision="FP32"/>
			</output>
		</layer>
		<layer id="68" name="6321632528348" type="Const" version="opset1">
			<data element_type="f32" offset="232" shape="" size="4"/>
			<output>
				<port id="0" precision="FP32"/>
			</output>
		</layer>
		<layer id="69" name="6322632630907" type="Const" version="opset1">
			<data element_type="f32" offset="236" shape="" size="4"/>
			<output>
				<port id="0" precision="FP32"/>
			</output>
		</layer>
		<layer id="70" name="6323632730163" type="Const" version="opset1">
			<data element_type="f32" offset="232" shape="" size="4"/>
			<output>
				<port id="0" precision="FP32"/>
			</output>
		</layer>
		<layer id="71" name="6324632829728" type="Const" version="opset1">
			<data element_type="f32" offset="236" shape="" size="4"/>
			<output>
				<port id="0" precision="FP32"/>
			</output>
		</layer>
		<layer id="72" name="5731573530088" type="Const" version="opset1">
			<data element_type="f32" offset="0" shape="" size="4"/>
			<output>
				<port id="0" precision="FP32"/>
			</output>
		</layer>
		<layer id="73" name="5732573629905" type="Const" version="opset1">
			<data element_type="f32" offset="240" shape="" size="4"/>
			<output>
				<port id="0" precision="FP32"/>
			</output>
		</layer>
		<layer id="74" name="5733573729884" type="Const" version="opset1">
			<data element_type="f32" offset="0" shape="" size="4"/>
			<output>
				<port id="0" precision="FP32"/>
			</output>
		</layer>
		<layer id="75" name="5734573830418" type="Const" version="opset1">
			<data element_type="f32" offset="240" shape="" size="4"/>
			<output>
				<port id="0" precision="FP32"/>
			</output>
		</layer>
		<layer id="76" name="6501650527658" type="Const" version="opset1">
			<data element_type="f32" offset="20" shape="1,8,1,1" size="32"/>
			<output>
				<port id="0" precision="FP32">
					<dim>1</dim>
					<dim>8</dim>
					<dim>1</dim>
					<dim>1</dim>
				</port>
			</output>
		</layer>
		<layer id="77" name="6502650628012" type="Const" version="opset1">
			<data element_type="f32" offset="244" shape="1,8,1,1" size="32"/>
			<output>
				<port id="0" precision="FP32">
					<dim>1</dim>
					<dim>8</dim>
					<dim>1</dim>
					<dim>1</dim>
				</port>
			</output>
		</layer>
		<layer id="78" name="6503650727928" type="Const" version="opset1">
			<data element_type="f32" offset="20" shape="1,8,1,1" size="32"/>
			<output>
				<port id="0" precision="FP32">
					<dim>1</dim>
					<dim>8</dim>
					<dim>1</dim>
					<dim>1</dim>
				</port>
			</output>
		</layer>
		<layer id="79" name="6504650828414" type="Const" version="opset1">
			<data element_type="f32" offset="244" shape="1,8,1,1" size="32"/>
			<output>
				<port id="0" precision="FP32">
					<dim>1</dim>
					<dim>8</dim>
					<dim>1</dim>
					<dim>1</dim>
				</port>
			</output>
		</layer>
		<layer id="80" name="4931493530067" type="Const" version="opset1">
			<data element_type="f32" offset="0" shape="" size="4"/>
			<output>
				<port id="0" precision="FP32"/>
			</output>
		</layer>
		<layer id="81" name="4932493630106" type="Const" version="opset1">
			<data element_type="f32" offset="276" shape="" size="4"/>
			<output>
				<port id="0" precision="FP32"/>
			</output>
		</layer>
		<layer id="82" name="4933493729098" type="Const" version="opset1">
			<data element_type="f32" offset="0" shape="" size="4"/>
			<output>
				<port id="0" precision="FP32"/>
			</output>
		</layer>
		<layer id="83" name="4934493830286" type="Const" version="opset1">
			<data element_type="f32" offset="276" shape="" size="4"/>
			<output>
				<port id="0" precision="FP32"/>
			</output>
		</layer>
		<layer id="84" name="5611561527529" type="Const" version="opset1">
			<data element_type="f32" offset="0" shape="" size="4"/>
			<output>
				<port id="0" precision="FP32"/>
			</output>
		</layer>
		<layer id="85" name="5612561629932" type="Const" version="opset1">
			<data element_type="f32" offset="280" shape="" size="4"/>
			<output>
				<port id="0" precision="FP32"/>
			</output>
		</layer>
		<layer id="86" name="5613561728087" type="Const" version="opset1">
			<data element_type="f32" offset="0" shape="" size="4"/>
			<output>
				<port id="0" precision="FP32"/>
			</output>
		</layer>
		<layer id="87" name="5614561830007" type="Const" version="opset1">
			<data element_type="f32" offset="280" shape="" size="4"/>
			<output>
				<port id="0" precision="FP32"/>
			</output>
		</layer>
		<layer id="89" name="L0000_Conv2d_BN/WithoutBiases/fq_input_0" type="FakeQuantize" version="opset1">
			<data auto_broadcast="numpy" levels="256"/>
			<input>
				<port id="0">
					<dim>1</dim>
					<dim>3</dim>
					<dim>512</dim>
					<dim>896</dim>
				</port>
				<port id="1"/>
				<port id="2"/>
				<port id="3"/>
				<port id="4"/>
			</input>
			<output>
				<port id="5" precision="FP32">
					<dim>1</dim>
					<dim>3</dim>
					<dim>512</dim>
					<dim>896</dim>
				</port>
			</output>
		</layer>
		<layer id="90" name="497105315354/restored_convert/quantized1879930082" type="Const" version="opset1">
			<data element_type="i8" offset="284" shape="16,3,3,3" size="432"/>
			<output>
				<port id="0" precision="I8">
					<dim>16</dim>
					<dim>3</dim>
					<dim>3</dim>
					<dim>3</dim>
				</port>
			</output>
		</layer>
		<layer id="91" name="497105315354/restored_convert/quantized/to_f32" type="Convert" version="opset1">
			<data destination_type="f32"/>
			<input>
				<port id="0">
					<dim>16</dim>
					<dim>3</dim>
					<dim>3</dim>
					<dim>3</dim>
				</port>
			</input>
			<output>
				<port id="1" precision="FP32">
					<dim>16</dim>
					<dim>3</dim>
					<dim>3</dim>
					<dim>3</dim>
				</port>
			</output>
		</layer>
		<layer id="92" name="L0000_Conv2d_BN/WithoutBiases/fq_weights_1/zero_point1881829476" type="Const" version="opset1">
			<data element_type="f32" offset="716" shape="16,1,1,1" size="64"/>
			<output>
				<port id="0" precision="FP32">
					<dim>16</dim>
					<dim>1</dim>
					<dim>1</dim>
					<dim>1</dim>
				</port>
			</output>
		</layer>
		<layer id="93" name="L0000_Conv2d_BN/WithoutBiases/fq_weights_1/minus_zp" type="Subtract" version="opset1">
			<data auto_broadcast="numpy"/>
			<input>
				<port id="0">
					<dim>16</dim>
					<dim>3</dim>
					<dim>3</dim>
					<dim>3</dim>
				</port>
				<port id="1">
					<dim>16</dim>
					<dim>1</dim>
					<dim>1</dim>
					<dim>1</dim>
				</port>
			</input>
			<output>
				<port id="2" precision="FP32">
					<dim>16</dim>
					<dim>3</dim>
					<dim>3</dim>
					<dim>3</dim>
				</port>
			</output>
		</layer>
		<layer id="94" name="L0000_Conv2d_BN/WithoutBiases/fq_weights_1/scale1880727676" type="Const" version="opset1">
			<data element_type="f32" offset="780" shape="16,1,1,1" size="64"/>
			<output>
				<port id="0" precision="FP32">
					<dim>16</dim>
					<dim>1</dim>
					<dim>1</dim>
					<dim>1</dim>
				</port>
			</output>
		</layer>
		<layer id="95" name="L0000_Conv2d_BN/WithoutBiases/fq_weights_1/mulpiply_by_scale" type="Multiply" version="opset1">
			<data auto_broadcast="numpy"/>
			<input>
				<port id="0">
					<dim>16</dim>
					<dim>3</dim>
					<dim>3</dim>
					<dim>3</dim>
				</port>
				<port id="1">
					<dim>16</dim>
					<dim>1</dim>
					<dim>1</dim>
					<dim>1</dim>
				</port>
			</input>
			<output>
				<port id="2" precision="FP32">
					<dim>16</dim>
					<dim>3</dim>
					<dim>3</dim>
					<dim>3</dim>
				</port>
			</output>
		</layer>
		<layer id="96" name="L0000_Conv2d_BN/WithoutBiases" type="Convolution" version="opset1">
			<data auto_pad="explicit" dilations="1,1" pads_begin="1,1" pads_end="1,1" strides="2,2"/>
			<rt_info>
				<attribute name="fused_names" value="L0000_Conv2d_BN/WithoutBiases" version="0"/>
			</rt_info>
			<input>
				<port id="0">
					<dim>1</dim>
					<dim>3</dim>
					<dim>512</dim>
					<dim>896</dim>
				</port>
				<port id="1">
					<dim>16</dim>
					<dim>3</dim>
					<dim>3</dim>
					<dim>3</dim>
				</port>
			</input>
			<output>
				<port id="2" precision="FP32">
					<dim>1</dim>
					<dim>16</dim>
					<dim>256</dim>
					<dim>448</dim>
				</port>
			</output>
		</layer>
		<layer id="97" name="L0000_Conv2d_BN/Dims5825105628588" type="Const" version="opset1">
			<data element_type="f16" offset="844" shape="1,16,1,1" size="32"/>
			<output>
				<port id="0" precision="FP16">
					<dim>1</dim>
					<dim>16</dim>
					<dim>1</dim>
					<dim>1</dim>
				</port>
			</output>
		</layer>
		<layer id="98" name="L0000_Conv2d_BN/Dims5825105615355/restored_convert" type="Convert" version="opset1">
			<data destination_type="f32"/>
			<rt_info>
				<attribute name="decompression" version="0"/>
				<attribute name="fused_names" value="L0000_Conv2d_BN/Dims5825" version="0"/>
			</rt_info>
			<input>
				<port id="0">
					<dim>1</dim>
					<dim>16</dim>
					<dim>1</dim>
					<dim>1</dim>
				</port>
			</input>
			<output>
				<port id="1" precision="FP32">
					<dim>1</dim>
					<dim>16</dim>
					<dim>1</dim>
					<dim>1</dim>
				</port>
			</output>
		</layer>
		<layer id="99" name="L0000_Conv2d_BN" type="Add" version="opset1">
			<data auto_broadcast="numpy"/>
			<rt_info>
				<attribute name="fused_names" value="L0000_Conv2d_BN" version="0"/>
			</rt_info>
			<input>
				<port id="0">
					<dim>1</dim>
					<dim>16</dim>
					<dim>256</dim>
					<dim>448</dim>
				</port>
				<port id="1">
					<dim>1</dim>
					<dim>16</dim>
					<dim>1</dim>
					<dim>1</dim>
				</port>
			</input>
			<output>
				<port id="2" names="L0000_Conv2d_BN" precision="FP32">
					<dim>1</dim>
					<dim>16</dim>
					<dim>256</dim>
					<dim>448</dim>
				</port>
			</output>
		</layer>
		<layer id="100" name="L0001_ReLU" type="ReLU" version="opset1">
			<rt_info>
				<attribute name="fused_names" value="L0001_ReLU" version="0"/>
			</rt_info>
			<input>
				<port id="0">
					<dim>1</dim>
					<dim>16</dim>
					<dim>256</dim>
					<dim>448</dim>
				</port>
			</input>
			<output>
				<port id="1" names="L0001_ReLU" precision="FP32">
					<dim>1</dim>
					<dim>16</dim>
					<dim>256</dim>
					<dim>448</dim>
				</port>
			</output>
		</layer>
		<layer id="101" name="L0002_Conv2d_BN/WithoutBiases/fq_input_0" type="FakeQuantize" version="opset1">
			<data auto_broadcast="numpy" levels="256"/>
			<input>
				<port id="0">
					<dim>1</dim>
					<dim>16</dim>
					<dim>256</dim>
					<dim>448</dim>
				</port>
				<port id="1"/>
				<port id="2"/>
				<port id="3"/>
				<port id="4"/>
			</input>
			<output>
				<port id="5" precision="FP32">
					<dim>1</dim>
					<dim>16</dim>
					<dim>256</dim>
					<dim>448</dim>
				</port>
			</output>
		</layer>
		<layer id="102" name="355106015356/restored_convert/quantized2044930685" type="Const" version="opset1">
			<data element_type="i8" offset="876" shape="8,16,1,1" size="128"/>
			<output>
				<port id="0" precision="I8">
					<dim>8</dim>
					<dim>16</dim>
					<dim>1</dim>
					<dim>1</dim>
				</port>
			</output>
		</layer>
		<layer id="103" name="355106015356/restored_convert/quantized/to_f32" type="Convert" version="opset1">
			<data destination_type="f32"/>
			<input>
				<port id="0">
					<dim>8</dim>
					<dim>16</dim>
					<dim>1</dim>
					<dim>1</dim>
				</port>
			</input>
			<output>
				<port id="1" precision="FP32">
					<dim>8</dim>
					<dim>16</dim>
					<dim>1</dim>
					<dim>1</dim>
				</port>
			</output>
		</layer>
		<layer id="104" name="L0002_Conv2d_BN/WithoutBiases/fq_weights_1/zero_point2046828177" type="Const" version="opset1">
			<data element_type="f32" offset="1004" shape="8,1,1,1" size="32"/>
			<output>
				<port id="0" precision="FP32">
					<dim>8</dim>
					<dim>1</dim>
					<dim>1</dim>
					<dim>1</dim>
				</port>
			</output>
		</layer>
		<layer id="105" name="L0002_Conv2d_BN/WithoutBiases/fq_weights_1/minus_zp" type="Subtract" version="opset1">
			<data auto_broadcast="numpy"/>
			<input>
				<port id="0">
					<dim>8</dim>
					<dim>16</dim>
					<dim>1</dim>
					<dim>1</dim>
				</port>
				<port id="1">
					<dim>8</dim>
					<dim>1</dim>
					<dim>1</dim>
					<dim>1</dim>
				</port>
			</input>
			<output>
				<port id="2" precision="FP32">
					<dim>8</dim>
					<dim>16</dim>
					<dim>1</dim>
					<dim>1</dim>
				</port>
			</output>
		</layer>
		<layer id="106" name="L0002_Conv2d_BN/WithoutBiases/fq_weights_1/scale2045731036" type="Const" version="opset1">
			<data element_type="f32" offset="1036" shape="8,1,1,1" size="32"/>
			<output>
				<port id="0" precision="FP32">
					<dim>8</dim>
					<dim>1</dim>
					<dim>1</dim>
					<dim>1</dim>
				</port>
			</output>
		</layer>
		<layer id="107" name="L0002_Conv2d_BN/WithoutBiases/fq_weights_1/mulpiply_by_scale" type="Multiply" version="opset1">
			<data auto_broadcast="numpy"/>
			<input>
				<port id="0">
					<dim>8</dim>
					<dim>16</dim>
					<dim>1</dim>
					<dim>1</dim>
				</port>
				<port id="1">
					<dim>8</dim>
					<dim>1</dim>
					<dim>1</dim>
					<dim>1</dim>
				</port>
			</input>
			<output>
				<port id="2" precision="FP32">
					<dim>8</dim>
					<dim>16</dim>
					<dim>1</dim>
					<dim>1</dim>
				</port>
			</output>
		</layer>
		<layer id="108" name="L0002_Conv2d_BN/WithoutBiases" type="Convolution" version="opset1">
			<data auto_pad="explicit" dilations="1,1" pads_begin="0,0" pads_end="0,0" strides="1,1"/>
			<rt_info>
				<attribute name="fused_names" value="L0002_Conv2d_BN/WithoutBiases" version="0"/>
			</rt_info>
			<input>
				<port id="0">
					<dim>1</dim>
					<dim>16</dim>
					<dim>256</dim>
					<dim>448</dim>
				</port>
				<port id="1">
					<dim>8</dim>
					<dim>16</dim>
					<dim>1</dim>
					<dim>1</dim>
				</port>
			</input>
			<output>
				<port id="2" precision="FP32">
					<dim>1</dim>
					<dim>8</dim>
					<dim>256</dim>
					<dim>448</dim>
				</port>
			</output>
		</layer>
		<layer id="109" name="L0002_Conv2d_BN/Dims6071106328294" type="Const" version="opset1">
			<data element_type="f16" offset="1068" shape="1,8,1,1" size="16"/>
			<output>
				<port id="0" precision="FP16">
					<dim>1</dim>
					<dim>8</dim>
					<dim>1</dim>
					<dim>1</dim>
				</port>
			</output>
		</layer>
		<layer id="110" name="L0002_Conv2d_BN/Dims6071106315357/restored_convert" type="Convert" version="opset1">
			<data destination_type="f32"/>
			<rt_info>
				<attribute name="decompression" version="0"/>
				<attribute name="fused_names" value="L0002_Conv2d_BN/Dims6071" version="0"/>
			</rt_info>
			<input>
				<port id="0">
					<dim>1</dim>
					<dim>8</dim>
					<dim>1</dim>
					<dim>1</dim>
				</port>
			</input>
			<output>
				<port id="1" precision="FP32">
					<dim>1</dim>
					<dim>8</dim>
					<dim>1</dim>
					<dim>1</dim>
				</port>
			</output>
		</layer>
		<layer id="111" name="L0002_Conv2d_BN" type="Add" version="opset1">
			<data auto_broadcast="numpy"/>
			<rt_info>
				<attribute name="fused_names" value="L0002_Conv2d_BN" version="0"/>
			</rt_info>
			<input>
				<port id="0">
					<dim>1</dim>
					<dim>8</dim>
					<dim>256</dim>
					<dim>448</dim>
				</port>
				<port id="1">
					<dim>1</dim>
					<dim>8</dim>
					<dim>1</dim>
					<dim>1</dim>
				</port>
			</input>
			<output>
				<port id="2" names="L0002_Conv2d_BN" precision="FP32">
					<dim>1</dim>
					<dim>8</dim>
					<dim>256</dim>
					<dim>448</dim>
				</port>
			</output>
		</layer>
		<layer id="112" name="L0003_ReLU" type="ReLU" version="opset1">
			<rt_info>
				<attribute name="fused_names" value="L0003_ReLU" version="0"/>
			</rt_info>
			<input>
				<port id="0">
					<dim>1</dim>
					<dim>8</dim>
					<dim>256</dim>
					<dim>448</dim>
				</port>
			</input>
			<output>
				<port id="1" names="L0003_ReLU" precision="FP32">
					<dim>1</dim>
					<dim>8</dim>
					<dim>256</dim>
					<dim>448</dim>
				</port>
			</output>
		</layer>
		<layer id="113" name="L0004_Conv2d_BN/WithoutBiases/fq_input_0" type="FakeQuantize" version="opset1">
			<data auto_broadcast="numpy" levels="256"/>
			<input>
				<port id="0">
					<dim>1</dim>
					<dim>8</dim>
					<dim>256</dim>
					<dim>448</dim>
				</port>
				<port id="1">
					<dim>1</dim>
					<dim>8</dim>
					<dim>1</dim>
					<dim>1</dim>
				</port>
				<port id="2">
					<dim>1</dim>
					<dim>8</dim>
					<dim>1</dim>
					<dim>1</dim>
				</port>
				<port id="3">
					<dim>1</dim>
					<dim>8</dim>
					<dim>1</dim>
					<dim>1</dim>
				</port>
				<port id="4">
					<dim>1</dim>
					<dim>8</dim>
					<dim>1</dim>
					<dim>1</dim>
				</port>
			</input>
			<output>
				<port id="5" precision="FP32">
					<dim>1</dim>
					<dim>8</dim>
					<dim>256</dim>
					<dim>448</dim>
				</port>
			</output>
		</layer>
		<layer id="114" name="24304/value2430627580" type="Const" version="opset1">
			<data element_type="i64" offset="1084" shape="5" size="40"/>
			<output>
				<port id="0" precision="I64">
					<dim>5</dim>
				</port>
			</output>
		</layer>
		<layer id="115" name="563106715358/restored_convert/quantized1918930352" type="Const" version="opset1">
			<data element_type="i8" offset="1124" shape="8,1,3,3" size="72"/>
			<output>
				<port id="0" precision="I8">
					<dim>8</dim>
					<dim>1</dim>
					<dim>3</dim>
					<dim>3</dim>
				</port>
			</output>
		</layer>
		<layer id="116" name="563106715358/restored_convert/quantized/to_f32" type="Convert" version="opset1">
			<data destination_type="f32"/>
			<input>
				<port id="0">
					<dim>8</dim>
					<dim>1</dim>
					<dim>3</dim>
					<dim>3</dim>
				</port>
			</input>
			<output>
				<port id="1" precision="FP32">
					<dim>8</dim>
					<dim>1</dim>
					<dim>3</dim>
					<dim>3</dim>
				</port>
			</output>
		</layer>
		<layer id="117" name="L0004_Conv2d_BN/WithoutBiases/fq_weights_1/zero_point1920830637" type="Const" version="opset1">
			<data element_type="f32" offset="1196" shape="8,1,1,1" size="32"/>
			<output>
				<port id="0" precision="FP32">
					<dim>8</dim>
					<dim>1</dim>
					<dim>1</dim>
					<dim>1</dim>
				</port>
			</output>
		</layer>
		<layer id="118" name="L0004_Conv2d_BN/WithoutBiases/fq_weights_1/minus_zp" type="Subtract" version="opset1">
			<data auto_broadcast="numpy"/>
			<input>
				<port id="0">
					<dim>8</dim>
					<dim>1</dim>
					<dim>3</dim>
					<dim>3</dim>
				</port>
				<port id="1">
					<dim>8</dim>
					<dim>1</dim>
					<dim>1</dim>
					<dim>1</dim>
				</port>
			</input>
			<output>
				<port id="2" precision="FP32">
					<dim>8</dim>
					<dim>1</dim>
					<dim>3</dim>
					<dim>3</dim>
				</port>
			</output>
		</layer>
		<layer id="119" name="L0004_Conv2d_BN/WithoutBiases/fq_weights_1/scale1919728768" type="Const" version="opset1">
			<data element_type="f32" offset="1228" shape="8,1,1,1" size="32"/>
			<output>
				<port id="0" precision="FP32">
					<dim>8</dim>
					<dim>1</dim>
					<dim>1</dim>
					<dim>1</dim>
				</port>
			</output>
		</layer>
		<layer id="120" name="L0004_Conv2d_BN/WithoutBiases/fq_weights_1/mulpiply_by_scale" type="Multiply" version="opset1">
			<data auto_broadcast="numpy"/>
			<input>
				<port id="0">
					<dim>8</dim>
					<dim>1</dim>
					<dim>3</dim>
					<dim>3</dim>
				</port>
				<port id="1">
					<dim>8</dim>
					<dim>1</dim>
					<dim>1</dim>
					<dim>1</dim>
				</port>
			</input>
			<output>
				<port id="2" precision="FP32">
					<dim>8</dim>
					<dim>1</dim>
					<dim>3</dim>
					<dim>3</dim>
				</port>
			</output>
		</layer>
		<layer id="121" name="24304" type="Reshape" version="opset1">
			<data special_zero="true"/>
			<input>
				<port id="0">
					<dim>8</dim>
					<dim>1</dim>
					<dim>3</dim>
					<dim>3</dim>
				</port>
				<port id="1">
					<dim>5</dim>
				</port>
			</input>
			<output>
				<port id="2" precision="FP32">
					<dim>8</dim>
					<dim>1</dim>
					<dim>1</dim>
					<dim>3</dim>
					<dim>3</dim>
				</port>
			</output>
		</layer>
		<layer id="122" name="L0004_Conv2d_BN/WithoutBiases" type="GroupConvolution" version="opset1">
			<data auto_pad="explicit" dilations="1,1" pads_begin="1,1" pads_end="1,1" strides="1,1"/>
			<rt_info>
				<attribute name="fused_names" value="L0004_Conv2d_BN/WithoutBiases" version="0"/>
			</rt_info>
			<input>
				<port id="0">
					<dim>1</dim>
					<dim>8</dim>
					<dim>256</dim>
					<dim>448</dim>
				</port>
				<port id="1">
					<dim>8</dim>
					<dim>1</dim>
					<dim>1</dim>
					<dim>3</dim>
					<dim>3</dim>
				</port>
			</input>
			<output>
				<port id="2" precision="FP32">
					<dim>1</dim>
					<dim>8</dim>
					<dim>256</dim>
					<dim>448</dim>
				</port>
			</output>
		</layer>
		<layer id="123" name="L0004_Conv2d_BN/Dims6035107027766" type="Const" version="opset1">
			<data element_type="f16" offset="1260" shape="1,8,1,1" size="16"/>
			<output>
				<port id="0" precision="FP16">
					<dim>1</dim>
					<dim>8</dim>
					<dim>1</dim>
					<dim>1</dim>
				</port>
			</output>
		</layer>
		<layer id="124" name="L0004_Conv2d_BN/Dims6035107015359/restored_convert" type="Convert" version="opset1">
			<data destination_type="f32"/>
			<rt_info>
				<attribute name="decompression" version="0"/>
				<attribute name="fused_names" value="L0004_Conv2d_BN/Dims6035" version="0"/>
			</rt_info>
			<input>
				<port id="0">
					<dim>1</dim>
					<dim>8</dim>
					<dim>1</dim>
					<dim>1</dim>
				</port>
			</input>
			<output>
				<port id="1" precision="FP32">
					<dim>1</dim>
					<dim>8</dim>
					<dim>1</dim>
					<dim>1</dim>
				</port>
			</output>
		</layer>
		<layer id="125" name="L0004_Conv2d_BN" type="Add" version="opset1">
			<data auto_broadcast="numpy"/>
			<rt_info>
				<attribute name="fused_names" value="L0004_Conv2d_BN" version="0"/>
			</rt_info>
			<input>
				<port id="0">
					<dim>1</dim>
					<dim>8</dim>
					<dim>256</dim>
					<dim>448</dim>
				</port>
				<port id="1">
					<dim>1</dim>
					<dim>8</dim>
					<dim>1</dim>
					<dim>1</dim>
				</port>
			</input>
			<output>
				<port id="2" names="L0004_Conv2d_BN" precision="FP32">
					<dim>1</dim>
					<dim>8</dim>
					<dim>256</dim>
					<dim>448</dim>
				</port>
			</output>
		</layer>
		<layer id="126" name="L0005_ReLU" type="ReLU" version="opset1">
			<rt_info>
				<attribute name="fused_names" value="L0005_ReLU" version="0"/>
			</rt_info>
			<input>
				<port id="0">
					<dim>1</dim>
					<dim>8</dim>
					<dim>256</dim>
					<dim>448</dim>
				</port>
			</input>
			<output>
				<port id="1" names="L0005_ReLU" precision="FP32">
					<dim>1</dim>
					<dim>8</dim>
					<dim>256</dim>
					<dim>448</dim>
				</port>
			</output>
		</layer>
		<layer id="127" name="L0006_Conv2d_BN/WithoutBiases/fq_input_0" type="FakeQuantize" version="opset1">
			<data auto_broadcast="numpy" levels="256"/>
			<input>
				<port id="0">
					<dim>1</dim>
					<dim>8</dim>
					<dim>256</dim>
					<dim>448</dim>
				</port>
				<port id="1"/>
				<port id="2"/>
				<port id="3"/>
				<port id="4"/>
			</input>
			<output>
				<port id="5" precision="FP32">
					<dim>1</dim>
					<dim>8</dim>
					<dim>256</dim>
					<dim>448</dim>
				</port>
			</output>
		</layer>
		<layer id="128" name="389107415360/restored_convert/quantized1975930346" type="Const" version="opset1">
			<data element_type="i8" offset="1276" shape="16,8,1,1" size="128"/>
			<output>
				<port id="0" precision="I8">
					<dim>16</dim>
					<dim>8</dim>
					<dim>1</dim>
					<dim>1</dim>
				</port>
			</output>
		</layer>
		<layer id="129" name="389107415360/restored_convert/quantized/to_f32" type="Convert" version="opset1">
			<data destination_type="f32"/>
			<input>
				<port id="0">
					<dim>16</dim>
					<dim>8</dim>
					<dim>1</dim>
					<dim>1</dim>
				</port>
			</input>
			<output>
				<port id="1" precision="FP32">
					<dim>16</dim>
					<dim>8</dim>
					<dim>1</dim>
					<dim>1</dim>
				</port>
			</output>
		</layer>
		<layer id="130" name="L0006_Conv2d_BN/WithoutBiases/fq_weights_1/zero_point1977827229" type="Const" version="opset1">
			<data element_type="f32" offset="1404" shape="16,1,1,1" size="64"/>
			<output>
				<port id="0" precision="FP32">
					<dim>16</dim>
					<dim>1</dim>
					<dim>1</dim>
					<dim>1</dim>
				</port>
			</output>
		</layer>
		<layer id="131" name="L0006_Conv2d_BN/WithoutBiases/fq_weights_1/minus_zp" type="Subtract" version="opset1">
			<data auto_broadcast="numpy"/>
			<input>
				<port id="0">
					<dim>16</dim>
					<dim>8</dim>
					<dim>1</dim>
					<dim>1</dim>
				</port>
				<port id="1">
					<dim>16</dim>
					<dim>1</dim>
					<dim>1</dim>
					<dim>1</dim>
				</port>
			</input>
			<output>
				<port id="2" precision="FP32">
					<dim>16</dim>
					<dim>8</dim>
					<dim>1</dim>
					<dim>1</dim>
				</port>
			</output>
		</layer>
		<layer id="132" name="L0006_Conv2d_BN/WithoutBiases/fq_weights_1/scale1976728039" type="Const" version="opset1">
			<data element_type="f32" offset="1468" shape="16,1,1,1" size="64"/>
			<output>
				<port id="0" precision="FP32">
					<dim>16</dim>
					<dim>1</dim>
					<dim>1</dim>
					<dim>1</dim>
				</port>
			</output>
		</layer>
		<layer id="133" name="L0006_Conv2d_BN/WithoutBiases/fq_weights_1/mulpiply_by_scale" type="Multiply" version="opset1">
			<data auto_broadcast="numpy"/>
			<input>
				<port id="0">
					<dim>16</dim>
					<dim>8</dim>
					<dim>1</dim>
					<dim>1</dim>
				</port>
				<port id="1">
					<dim>16</dim>
					<dim>1</dim>
					<dim>1</dim>
					<dim>1</dim>
				</port>
			</input>
			<output>
				<port id="2" precision="FP32">
					<dim>16</dim>
					<dim>8</dim>
					<dim>1</dim>
					<dim>1</dim>
				</port>
			</output>
		</layer>
		<layer id="134" name="L0006_Conv2d_BN/WithoutBiases" type="Convolution" version="opset1">
			<data auto_pad="explicit" dilations="1,1" pads_begin="0,0" pads_end="0,0" strides="1,1"/>
			<rt_info>
				<attribute name="fused_names" value="L0006_Conv2d_BN/WithoutBiases" version="0"/>
			</rt_info>
			<input>
				<port id="0">
					<dim>1</dim>
					<dim>8</dim>
					<dim>256</dim>
					<dim>448</dim>
				</port>
				<port id="1">
					<dim>16</dim>
					<dim>8</dim>
					<dim>1</dim>
					<dim>1</dim>
				</port>
			</input>
			<output>
				<port id="2" precision="FP32">
					<dim>1</dim>
					<dim>16</dim>
					<dim>256</dim>
					<dim>448</dim>
				</port>
			</output>
		</layer>
		<layer id="135" name="L0006_Conv2d_BN/Dims5717107731084" type="Const" version="opset1">
			<data element_type="f16" offset="1532" shape="1,16,1,1" size="32"/>
			<output>
				<port id="0" precision="FP16">
					<dim>1</dim>
					<dim>16</dim>
					<dim>1</dim>
					<dim>1</dim>
				</port>
			</output>
		</layer>
		<layer id="136" name="L0006_Conv2d_BN/Dims5717107715361/restored_convert" type="Convert" version="opset1">
			<data destination_type="f32"/>
			<rt_info>
				<attribute name="decompression" version="0"/>
				<attribute name="fused_names" value="L0006_Conv2d_BN/Dims5717" version="0"/>
			</rt_info>
			<input>
				<port id="0">
					<dim>1</dim>
					<dim>16</dim>
					<dim>1</dim>
					<dim>1</dim>
				</port>
			</input>
			<output>
				<port id="1" precision="FP32">
					<dim>1</dim>
					<dim>16</dim>
					<dim>1</dim>
					<dim>1</dim>
				</port>
			</output>
		</layer>
		<layer id="137" name="L0006_Conv2d_BN" type="Add" version="opset1">
			<data auto_broadcast="numpy"/>
			<rt_info>
				<attribute name="fused_names" value="L0006_Conv2d_BN" version="0"/>
			</rt_info>
			<input>
				<port id="0">
					<dim>1</dim>
					<dim>16</dim>
					<dim>256</dim>
					<dim>448</dim>
				</port>
				<port id="1">
					<dim>1</dim>
					<dim>16</dim>
					<dim>1</dim>
					<dim>1</dim>
				</port>
			</input>
			<output>
				<port id="2" names="L0006_Conv2d_BN" precision="FP32">
					<dim>1</dim>
					<dim>16</dim>
					<dim>256</dim>
					<dim>448</dim>
				</port>
			</output>
		</layer>
		<layer id="138" name="L0007_AddBackward1/fq_input_0" type="FakeQuantize" version="opset1">
			<data auto_broadcast="numpy" levels="256"/>
			<input>
				<port id="0">
					<dim>1</dim>
					<dim>16</dim>
					<dim>256</dim>
					<dim>448</dim>
				</port>
				<port id="1"/>
				<port id="2"/>
				<port id="3"/>
				<port id="4"/>
			</input>
			<output>
				<port id="5" precision="FP32">
					<dim>1</dim>
					<dim>16</dim>
					<dim>256</dim>
					<dim>448</dim>
				</port>
			</output>
		</layer>
		<layer id="139" name="L0007_AddBackward1" type="Add" version="opset1">
			<data auto_broadcast="numpy"/>
			<rt_info>
				<attribute name="fused_names" value="L0007_AddBackward1" version="0"/>
			</rt_info>
			<input>
				<port id="0">
					<dim>1</dim>
					<dim>16</dim>
					<dim>256</dim>
					<dim>448</dim>
				</port>
				<port id="1">
					<dim>1</dim>
					<dim>16</dim>
					<dim>256</dim>
					<dim>448</dim>
				</port>
			</input>
			<output>
				<port id="2" names="L0007_AddBackward1" precision="FP32">
					<dim>1</dim>
					<dim>16</dim>
					<dim>256</dim>
					<dim>448</dim>
				</port>
			</output>
		</layer>
		<layer id="140" name="L0008_ReLU" type="ReLU" version="opset1">
			<rt_info>
				<attribute name="fused_names" value="L0008_ReLU" version="0"/>
			</rt_info>
			<input>
				<port id="0">
					<dim>1</dim>
					<dim>16</dim>
					<dim>256</dim>
					<dim>448</dim>
				</port>
			</input>
			<output>
				<port id="1" names="L0008_ReLU" precision="FP32">
					<dim>1</dim>
					<dim>16</dim>
					<dim>256</dim>
					<dim>448</dim>
				</port>
			</output>
		</layer>
		<layer id="141" name="L0009_Conv2d_BN/WithoutBiases/fq_input_0" type="FakeQuantize" version="opset1">
			<data auto_broadcast="numpy" levels="256"/>
			<input>
				<port id="0">
					<dim>1</dim>
					<dim>16</dim>
					<dim>256</dim>
					<dim>448</dim>
				</port>
				<port id="1"/>
				<port id="2"/>
				<port id="3"/>
				<port id="4"/>
			</input>
			<output>
				<port id="5" precision="FP32">
					<dim>1</dim>
					<dim>16</dim>
					<dim>256</dim>
					<dim>448</dim>
				</port>
			</output>
		</layer>
		<layer id="142" name="533108215362/restored_convert/quantized2140927886" type="Const" version="opset1">
			<data element_type="i8" offset="1564" shape="8,16,1,1" size="128"/>
			<output>
				<port id="0" precision="I8">
					<dim>8</dim>
					<dim>16</dim>
					<dim>1</dim>
					<dim>1</dim>
				</port>
			</output>
		</layer>
		<layer id="143" name="533108215362/restored_convert/quantized/to_f32" type="Convert" version="opset1">
			<data destination_type="f32"/>
			<input>
				<port id="0">
					<dim>8</dim>
					<dim>16</dim>
					<dim>1</dim>
					<dim>1</dim>
				</port>
			</input>
			<output>
				<port id="1" precision="FP32">
					<dim>8</dim>
					<dim>16</dim>
					<dim>1</dim>
					<dim>1</dim>
				</port>
			</output>
		</layer>
		<layer id="144" name="L0009_Conv2d_BN/WithoutBiases/fq_weights_1/zero_point2142827550" type="Const" version="opset1">
			<data element_type="f32" offset="1692" shape="8,1,1,1" size="32"/>
			<output>
				<port id="0" precision="FP32">
					<dim>8</dim>
					<dim>1</dim>
					<dim>1</dim>
					<dim>1</dim>
				</port>
			</output>
		</layer>
		<layer id="145" name="L0009_Conv2d_BN/WithoutBiases/fq_weights_1/minus_zp" type="Subtract" version="opset1">
			<data auto_broadcast="numpy"/>
			<input>
				<port id="0">
					<dim>8</dim>
					<dim>16</dim>
					<dim>1</dim>
					<dim>1</dim>
				</port>
				<port id="1">
					<dim>8</dim>
					<dim>1</dim>
					<dim>1</dim>
					<dim>1</dim>
				</port>
			</input>
			<output>
				<port id="2" precision="FP32">
					<dim>8</dim>
					<dim>16</dim>
					<dim>1</dim>
					<dim>1</dim>
				</port>
			</output>
		</layer>
		<layer id="146" name="L0009_Conv2d_BN/WithoutBiases/fq_weights_1/scale2141731075" type="Const" version="opset1">
			<data element_type="f32" offset="1724" shape="8,1,1,1" size="32"/>
			<output>
				<port id="0" precision="FP32">
					<dim>8</dim>
					<dim>1</dim>
					<dim>1</dim>
					<dim>1</dim>
				</port>
			</output>
		</layer>
		<layer id="147" name="L0009_Conv2d_BN/WithoutBiases/fq_weights_1/mulpiply_by_scale" type="Multiply" version="opset1">
			<data auto_broadcast="numpy"/>
			<input>
				<port id="0">
					<dim>8</dim>
					<dim>16</dim>
					<dim>1</dim>
					<dim>1</dim>
				</port>
				<port id="1">
					<dim>8</dim>
					<dim>1</dim>
					<dim>1</dim>
					<dim>1</dim>
				</port>
			</input>
			<output>
				<port id="2" precision="FP32">
					<dim>8</dim>
					<dim>16</dim>
					<dim>1</dim>
					<dim>1</dim>
				</port>
			</output>
		</layer>
		<layer id="148" name="L0009_Conv2d_BN/WithoutBiases" type="Convolution" version="opset1">
			<data auto_pad="explicit" dilations="1,1" pads_begin="0,0" pads_end="0,0" strides="1,1"/>
			<rt_info>
				<attribute name="fused_names" value="L0009_Conv2d_BN/WithoutBiases" version="0"/>
			</rt_info>
			<input>
				<port id="0">
					<dim>1</dim>
					<dim>16</dim>
					<dim>256</dim>
					<dim>448</dim>
				</port>
				<port id="1">
					<dim>8</dim>
					<dim>16</dim>
					<dim>1</dim>
					<dim>1</dim>
				</port>
			</input>
			<output>
				<port id="2" precision="FP32">
					<dim>1</dim>
					<dim>8</dim>
					<dim>256</dim>
					<dim>448</dim>
				</port>
			</output>
		</layer>
		<layer id="149" name="L0009_Conv2d_BN/Dims6233108528351" type="Const" version="opset1">
			<data element_type="f16" offset="1756" shape="1,8,1,1" size="16"/>
			<output>
				<port id="0" precision="FP16">
					<dim>1</dim>
					<dim>8</dim>
					<dim>1</dim>
					<dim>1</dim>
				</port>
			</output>
		</layer>
		<layer id="150" name="L0009_Conv2d_BN/Dims6233108515363/restored_convert" type="Convert" version="opset1">
			<data destination_type="f32"/>
			<rt_info>
				<attribute name="decompression" version="0"/>
				<attribute name="fused_names" value="L0009_Conv2d_BN/Dims6233" version="0"/>
			</rt_info>
			<input>
				<port id="0">
					<dim>1</dim>
					<dim>8</dim>
					<dim>1</dim>
					<dim>1</dim>
				</port>
			</input>
			<output>
				<port id="1" precision="FP32">
					<dim>1</dim>
					<dim>8</dim>
					<dim>1</dim>
					<dim>1</dim>
				</port>
			</output>
		</layer>
		<layer id="151" name="L0009_Conv2d_BN" type="Add" version="opset1">
			<data auto_broadcast="numpy"/>
			<rt_info>
				<attribute name="fused_names" value="L0009_Conv2d_BN" version="0"/>
			</rt_info>
			<input>
				<port id="0">
					<dim>1</dim>
					<dim>8</dim>
					<dim>256</dim>
					<dim>448</dim>
				</port>
				<port id="1">
					<dim>1</dim>
					<dim>8</dim>
					<dim>1</dim>
					<dim>1</dim>
				</port>
			</input>
			<output>
				<port id="2" names="L0009_Conv2d_BN" precision="FP32">
					<dim>1</dim>
					<dim>8</dim>
					<dim>256</dim>
					<dim>448</dim>
				</port>
			</output>
		</layer>
		<layer id="152" name="L0010_ReLU" type="ReLU" version="opset1">
			<rt_info>
				<attribute name="fused_names" value="L0010_ReLU" version="0"/>
			</rt_info>
			<input>
				<port id="0">
					<dim>1</dim>
					<dim>8</dim>
					<dim>256</dim>
					<dim>448</dim>
				</port>
			</input>
			<output>
				<port id="1" names="L0010_ReLU" precision="FP32">
					<dim>1</dim>
					<dim>8</dim>
					<dim>256</dim>
					<dim>448</dim>
				</port>
			</output>
		</layer>
		<layer id="153" name="L0011_Conv2d_BN/WithoutBiases/fq_input_0" type="FakeQuantize" version="opset1">
			<data auto_broadcast="numpy" levels="256"/>
			<input>
				<port id="0">
					<dim>1</dim>
					<dim>8</dim>
					<dim>256</dim>
					<dim>448</dim>
				</port>
				<port id="1">
					<dim>1</dim>
					<dim>8</dim>
					<dim>1</dim>
					<dim>1</dim>
				</port>
				<port id="2">
					<dim>1</dim>
					<dim>8</dim>
					<dim>1</dim>
					<dim>1</dim>
				</port>
				<port id="3">
					<dim>1</dim>
					<dim>8</dim>
					<dim>1</dim>
					<dim>1</dim>
				</port>
				<port id="4">
					<dim>1</dim>
					<dim>8</dim>
					<dim>1</dim>
					<dim>1</dim>
				</port>
			</input>
			<output>
				<port id="5" precision="FP32">
					<dim>1</dim>
					<dim>8</dim>
					<dim>256</dim>
					<dim>448</dim>
				</port>
			</output>
		</layer>
		<layer id="154" name="24308/value2431030430" type="Const" version="opset1">
			<data element_type="i64" offset="1084" shape="5" size="40"/>
			<output>
				<port id="0" precision="I64">
					<dim>5</dim>
				</port>
			</output>
		</layer>
		<layer id="155" name="395108915364/restored_convert/quantized2134927787" type="Const" version="opset1">
			<data element_type="i8" offset="1772" shape="8,1,3,3" size="72"/>
			<output>
				<port id="0" precision="I8">
					<dim>8</dim>
					<dim>1</dim>
					<dim>3</dim>
					<dim>3</dim>
				</port>
			</output>
		</layer>
		<layer id="156" name="395108915364/restored_convert/quantized/to_f32" type="Convert" version="opset1">
			<data destination_type="f32"/>
			<input>
				<port id="0">
					<dim>8</dim>
					<dim>1</dim>
					<dim>3</dim>
					<dim>3</dim>
				</port>
			</input>
			<output>
				<port id="1" precision="FP32">
					<dim>8</dim>
					<dim>1</dim>
					<dim>3</dim>
					<dim>3</dim>
				</port>
			</output>
		</layer>
		<layer id="157" name="L0011_Conv2d_BN/WithoutBiases/fq_weights_1/zero_point2136830157" type="Const" version="opset1">
			<data element_type="f32" offset="1844" shape="8,1,1,1" size="32"/>
			<output>
				<port id="0" precision="FP32">
					<dim>8</dim>
					<dim>1</dim>
					<dim>1</dim>
					<dim>1</dim>
				</port>
			</output>
		</layer>
		<layer id="158" name="L0011_Conv2d_BN/WithoutBiases/fq_weights_1/minus_zp" type="Subtract" version="opset1">
			<data auto_broadcast="numpy"/>
			<input>
				<port id="0">
					<dim>8</dim>
					<dim>1</dim>
					<dim>3</dim>
					<dim>3</dim>
				</port>
				<port id="1">
					<dim>8</dim>
					<dim>1</dim>
					<dim>1</dim>
					<dim>1</dim>
				</port>
			</input>
			<output>
				<port id="2" precision="FP32">
					<dim>8</dim>
					<dim>1</dim>
					<dim>3</dim>
					<dim>3</dim>
				</port>
			</output>
		</layer>
		<layer id="159" name="L0011_Conv2d_BN/WithoutBiases/fq_weights_1/scale2135728681" type="Const" version="opset1">
			<data element_type="f32" offset="1876" shape="8,1,1,1" size="32"/>
			<output>
				<port id="0" precision="FP32">
					<dim>8</dim>
					<dim>1</dim>
					<dim>1</dim>
					<dim>1</dim>
				</port>
			</output>
		</layer>
		<layer id="160" name="L0011_Conv2d_BN/WithoutBiases/fq_weights_1/mulpiply_by_scale" type="Multiply" version="opset1">
			<data auto_broadcast="numpy"/>
			<input>
				<port id="0">
					<dim>8</dim>
					<dim>1</dim>
					<dim>3</dim>
					<dim>3</dim>
				</port>
				<port id="1">
					<dim>8</dim>
					<dim>1</dim>
					<dim>1</dim>
					<dim>1</dim>
				</port>
			</input>
			<output>
				<port id="2" precision="FP32">
					<dim>8</dim>
					<dim>1</dim>
					<dim>3</dim>
					<dim>3</dim>
				</port>
			</output>
		</layer>
		<layer id="161" name="24308" type="Reshape" version="opset1">
			<data special_zero="true"/>
			<input>
				<port id="0">
					<dim>8</dim>
					<dim>1</dim>
					<dim>3</dim>
					<dim>3</dim>
				</port>
				<port id="1">
					<dim>5</dim>
				</port>
			</input>
			<output>
				<port id="2" precision="FP32">
					<dim>8</dim>
					<dim>1</dim>
					<dim>1</dim>
					<dim>3</dim>
					<dim>3</dim>
				</port>
			</output>
		</layer>
		<layer id="162" name="L0011_Conv2d_BN/WithoutBiases" type="GroupConvolution" version="opset1">
			<data auto_pad="explicit" dilations="1,1" pads_begin="1,1" pads_end="1,1" strides="1,1"/>
			<rt_info>
				<attribute name="fused_names" value="L0011_Conv2d_BN/WithoutBiases" version="0"/>
			</rt_info>
			<input>
				<port id="0">
					<dim>1</dim>
					<dim>8</dim>
					<dim>256</dim>
					<dim>448</dim>
				</port>
				<port id="1">
					<dim>8</dim>
					<dim>1</dim>
					<dim>1</dim>
					<dim>3</dim>
					<dim>3</dim>
				</port>
			</input>
			<output>
				<port id="2" precision="FP32">
					<dim>1</dim>
					<dim>8</dim>
					<dim>256</dim>
					<dim>448</dim>
				</port>
			</output>
		</layer>
		<layer id="163" name="L0011_Conv2d_BN/Dims6101109229635" type="Const" version="opset1">
			<data element_type="f16" offset="1908" shape="1,8,1,1" size="16"/>
			<output>
				<port id="0" precision="FP16">
					<dim>1</dim>
					<dim>8</dim>
					<dim>1</dim>
					<dim>1</dim>
				</port>
			</output>
		</layer>
		<layer id="164" name="L0011_Conv2d_BN/Dims6101109215365/restored_convert" type="Convert" version="opset1">
			<data destination_type="f32"/>
			<rt_info>
				<attribute name="decompression" version="0"/>
				<attribute name="fused_names" value="L0011_Conv2d_BN/Dims6101" version="0"/>
			</rt_info>
			<input>
				<port id="0">
					<dim>1</dim>
					<dim>8</dim>
					<dim>1</dim>
					<dim>1</dim>
				</port>
			</input>
			<output>
				<port id="1" precision="FP32">
					<dim>1</dim>
					<dim>8</dim>
					<dim>1</dim>
					<dim>1</dim>
				</port>
			</output>
		</layer>
		<layer id="165" name="L0011_Conv2d_BN" type="Add" version="opset1">
			<data auto_broadcast="numpy"/>
			<rt_info>
				<attribute name="fused_names" value="L0011_Conv2d_BN" version="0"/>
			</rt_info>
			<input>
				<port id="0">
					<dim>1</dim>
					<dim>8</dim>
					<dim>256</dim>
					<dim>448</dim>
				</port>
				<port id="1">
					<dim>1</dim>
					<dim>8</dim>
					<dim>1</dim>
					<dim>1</dim>
				</port>
			</input>
			<output>
				<port id="2" names="L0011_Conv2d_BN" precision="FP32">
					<dim>1</dim>
					<dim>8</dim>
					<dim>256</dim>
					<dim>448</dim>
				</port>
			</output>
		</layer>
		<layer id="166" name="L0012_ReLU" type="ReLU" version="opset1">
			<rt_info>
				<attribute name="fused_names" value="L0012_ReLU" version="0"/>
			</rt_info>
			<input>
				<port id="0">
					<dim>1</dim>
					<dim>8</dim>
					<dim>256</dim>
					<dim>448</dim>
				</port>
			</input>
			<output>
				<port id="1" names="L0012_ReLU" precision="FP32">
					<dim>1</dim>
					<dim>8</dim>
					<dim>256</dim>
					<dim>448</dim>
				</port>
			</output>
		</layer>
		<layer id="167" name="L0013_Conv2d_BN/WithoutBiases/fq_input_0" type="FakeQuantize" version="opset1">
			<data auto_broadcast="numpy" levels="256"/>
			<input>
				<port id="0">
					<dim>1</dim>
					<dim>8</dim>
					<dim>256</dim>
					<dim>448</dim>
				</port>
				<port id="1"/>
				<port id="2"/>
				<port id="3"/>
				<port id="4"/>
			</input>
			<output>
				<port id="5" precision="FP32">
					<dim>1</dim>
					<dim>8</dim>
					<dim>256</dim>
					<dim>448</dim>
				</port>
			</output>
		</layer>
		<layer id="168" name="409109615366/restored_convert/quantized1825929266" type="Const" version="opset1">
			<data element_type="i8" offset="1924" shape="24,8,1,1" size="192"/>
			<output>
				<port id="0" precision="I8">
					<dim>24</dim>
					<dim>8</dim>
					<dim>1</dim>
					<dim>1</dim>
				</port>
			</output>
		</layer>
		<layer id="169" name="409109615366/restored_convert/quantized/to_f32" type="Convert" version="opset1">
			<data destination_type="f32"/>
			<input>
				<port id="0">
					<dim>24</dim>
					<dim>8</dim>
					<dim>1</dim>
					<dim>1</dim>
				</port>
			</input>
			<output>
				<port id="1" precision="FP32">
					<dim>24</dim>
					<dim>8</dim>
					<dim>1</dim>
					<dim>1</dim>
				</port>
			</output>
		</layer>
		<layer id="170" name="L0013_Conv2d_BN/WithoutBiases/fq_weights_1/zero_point1827830937" type="Const" version="opset1">
			<data element_type="f32" offset="2116" shape="24,1,1,1" size="96"/>
			<output>
				<port id="0" precision="FP32">
					<dim>24</dim>
					<dim>1</dim>
					<dim>1</dim>
					<dim>1</dim>
				</port>
			</output>
		</layer>
		<layer id="171" name="L0013_Conv2d_BN/WithoutBiases/fq_weights_1/minus_zp" type="Subtract" version="opset1">
			<data auto_broadcast="numpy"/>
			<input>
				<port id="0">
					<dim>24</dim>
					<dim>8</dim>
					<dim>1</dim>
					<dim>1</dim>
				</port>
				<port id="1">
					<dim>24</dim>
					<dim>1</dim>
					<dim>1</dim>
					<dim>1</dim>
				</port>
			</input>
			<output>
				<port id="2" precision="FP32">
					<dim>24</dim>
					<dim>8</dim>
					<dim>1</dim>
					<dim>1</dim>
				</port>
			</output>
		</layer>
		<layer id="172" name="L0013_Conv2d_BN/WithoutBiases/fq_weights_1/scale1826731000" type="Const" version="opset1">
			<data element_type="f32" offset="2212" shape="24,1,1,1" size="96"/>
			<output>
				<port id="0" precision="FP32">
					<dim>24</dim>
					<dim>1</dim>
					<dim>1</dim>
					<dim>1</dim>
				</port>
			</output>
		</layer>
		<layer id="173" name="L0013_Conv2d_BN/WithoutBiases/fq_weights_1/mulpiply_by_scale" type="Multiply" version="opset1">
			<data auto_broadcast="numpy"/>
			<input>
				<port id="0">
					<dim>24</dim>
					<dim>8</dim>
					<dim>1</dim>
					<dim>1</dim>
				</port>
				<port id="1">
					<dim>24</dim>
					<dim>1</dim>
					<dim>1</dim>
					<dim>1</dim>
				</port>
			</input>
			<output>
				<port id="2" precision="FP32">
					<dim>24</dim>
					<dim>8</dim>
					<dim>1</dim>
					<dim>1</dim>
				</port>
			</output>
		</layer>
		<layer id="174" name="L0013_Conv2d_BN/WithoutBiases" type="Convolution" version="opset1">
			<data auto_pad="explicit" dilations="1,1" pads_begin="0,0" pads_end="0,0" strides="1,1"/>
			<rt_info>
				<attribute name="fused_names" value="L0013_Conv2d_BN/WithoutBiases" version="0"/>
			</rt_info>
			<input>
				<port id="0">
					<dim>1</dim>
					<dim>8</dim>
					<dim>256</dim>
					<dim>448</dim>
				</port>
				<port id="1">
					<dim>24</dim>
					<dim>8</dim>
					<dim>1</dim>
					<dim>1</dim>
				</port>
			</input>
			<output>
				<port id="2" precision="FP32">
					<dim>1</dim>
					<dim>24</dim>
					<dim>256</dim>
					<dim>448</dim>
				</port>
			</output>
		</layer>
		<layer id="175" name="L0013_Conv2d_BN/Dims6113109930448" type="Const" version="opset1">
			<data element_type="f16" offset="2308" shape="1,24,1,1" size="48"/>
			<output>
				<port id="0" precision="FP16">
					<dim>1</dim>
					<dim>24</dim>
					<dim>1</dim>
					<dim>1</dim>
				</port>
			</output>
		</layer>
		<layer id="176" name="L0013_Conv2d_BN/Dims6113109915367/restored_convert" type="Convert" version="opset1">
			<data destination_type="f32"/>
			<rt_info>
				<attribute name="decompression" version="0"/>
				<attribute name="fused_names" value="L0013_Conv2d_BN/Dims6113" version="0"/>
			</rt_info>
			<input>
				<port id="0">
					<dim>1</dim>
					<dim>24</dim>
					<dim>1</dim>
					<dim>1</dim>
				</port>
			</input>
			<output>
				<port id="1" precision="FP32">
					<dim>1</dim>
					<dim>24</dim>
					<dim>1</dim>
					<dim>1</dim>
				</port>
			</output>
		</layer>
		<layer id="177" name="L0013_Conv2d_BN" type="Add" version="opset1">
			<data auto_broadcast="numpy"/>
			<rt_info>
				<attribute name="fused_names" value="L0013_Conv2d_BN" version="0"/>
			</rt_info>
			<input>
				<port id="0">
					<dim>1</dim>
					<dim>24</dim>
					<dim>256</dim>
					<dim>448</dim>
				</port>
				<port id="1">
					<dim>1</dim>
					<dim>24</dim>
					<dim>1</dim>
					<dim>1</dim>
				</port>
			</input>
			<output>
				<port id="2" names="L0013_Conv2d_BN" precision="FP32">
					<dim>1</dim>
					<dim>24</dim>
					<dim>256</dim>
					<dim>448</dim>
				</port>
			</output>
		</layer>
		<layer id="178" name="L0015_AddBackward1/fq_input_0" type="FakeQuantize" version="opset1">
			<data auto_broadcast="numpy" levels="256"/>
			<input>
				<port id="0">
					<dim>1</dim>
					<dim>24</dim>
					<dim>256</dim>
					<dim>448</dim>
				</port>
				<port id="1"/>
				<port id="2"/>
				<port id="3"/>
				<port id="4"/>
			</input>
			<output>
				<port id="5" precision="FP32">
					<dim>1</dim>
					<dim>24</dim>
					<dim>256</dim>
					<dim>448</dim>
				</port>
			</output>
		</layer>
		<layer id="179" name="4151415527349" type="Const" version="opset1">
			<data element_type="f32" offset="2356" shape="" size="4"/>
			<output>
				<port id="0" precision="FP32"/>
			</output>
		</layer>
		<layer id="180" name="4152415630700" type="Const" version="opset1">
			<data element_type="f32" offset="2360" shape="" size="4"/>
			<output>
				<port id="0" precision="FP32"/>
			</output>
		</layer>
		<layer id="181" name="4153415727736" type="Const" version="opset1">
			<data element_type="f32" offset="2356" shape="" size="4"/>
			<output>
				<port id="0" precision="FP32"/>
			</output>
		</layer>
		<layer id="182" name="4154415830271" type="Const" version="opset1">
			<data element_type="f32" offset="2360" shape="" size="4"/>
			<output>
				<port id="0" precision="FP32"/>
			</output>
		</layer>
		<layer id="183" name="325110215368/restored_convert/quantized1978929314" type="Const" version="opset1">
			<data element_type="i8" offset="2364" shape="24,16,1,1" size="384"/>
			<output>
				<port id="0" precision="I8">
					<dim>24</dim>
					<dim>16</dim>
					<dim>1</dim>
					<dim>1</dim>
				</port>
			</output>
		</layer>
		<layer id="184" name="325110215368/restored_convert/quantized/to_f32" type="Convert" version="opset1">
			<data destination_type="f32"/>
			<input>
				<port id="0">
					<dim>24</dim>
					<dim>16</dim>
					<dim>1</dim>
					<dim>1</dim>
				</port>
			</input>
			<output>
				<port id="1" precision="FP32">
					<dim>24</dim>
					<dim>16</dim>
					<dim>1</dim>
					<dim>1</dim>
				</port>
			</output>
		</layer>
		<layer id="185" name="L0014_Conv2d_BN/WithoutBiases/fq_weights_1/zero_point1980830760" type="Const" version="opset1">
			<data element_type="f32" offset="2748" shape="24,1,1,1" size="96"/>
			<output>
				<port id="0" precision="FP32">
					<dim>24</dim>
					<dim>1</dim>
					<dim>1</dim>
					<dim>1</dim>
				</port>
			</output>
		</layer>
		<layer id="186" name="L0014_Conv2d_BN/WithoutBiases/fq_weights_1/minus_zp" type="Subtract" version="opset1">
			<data auto_broadcast="numpy"/>
			<input>
				<port id="0">
					<dim>24</dim>
					<dim>16</dim>
					<dim>1</dim>
					<dim>1</dim>
				</port>
				<port id="1">
					<dim>24</dim>
					<dim>1</dim>
					<dim>1</dim>
					<dim>1</dim>
				</port>
			</input>
			<output>
				<port id="2" precision="FP32">
					<dim>24</dim>
					<dim>16</dim>
					<dim>1</dim>
					<dim>1</dim>
				</port>
			</output>
		</layer>
		<layer id="187" name="L0014_Conv2d_BN/WithoutBiases/fq_weights_1/scale1979728378" type="Const" version="opset1">
			<data element_type="f32" offset="2844" shape="24,1,1,1" size="96"/>
			<output>
				<port id="0" precision="FP32">
					<dim>24</dim>
					<dim>1</dim>
					<dim>1</dim>
					<dim>1</dim>
				</port>
			</output>
		</layer>
		<layer id="188" name="L0014_Conv2d_BN/WithoutBiases/fq_weights_1/mulpiply_by_scale" type="Multiply" version="opset1">
			<data auto_broadcast="numpy"/>
			<input>
				<port id="0">
					<dim>24</dim>
					<dim>16</dim>
					<dim>1</dim>
					<dim>1</dim>
				</port>
				<port id="1">
					<dim>24</dim>
					<dim>1</dim>
					<dim>1</dim>
					<dim>1</dim>
				</port>
			</input>
			<output>
				<port id="2" precision="FP32">
					<dim>24</dim>
					<dim>16</dim>
					<dim>1</dim>
					<dim>1</dim>
				</port>
			</output>
		</layer>
		<layer id="189" name="L0014_Conv2d_BN/WithoutBiases" type="Convolution" version="opset1">
			<data auto_pad="explicit" dilations="1,1" pads_begin="0,0" pads_end="0,0" strides="1,1"/>
			<rt_info>
				<attribute name="fused_names" value="L0014_Conv2d_BN/WithoutBiases" version="0"/>
			</rt_info>
			<input>
				<port id="0">
					<dim>1</dim>
					<dim>16</dim>
					<dim>256</dim>
					<dim>448</dim>
				</port>
				<port id="1">
					<dim>24</dim>
					<dim>16</dim>
					<dim>1</dim>
					<dim>1</dim>
				</port>
			</input>
			<output>
				<port id="2" precision="FP32">
					<dim>1</dim>
					<dim>24</dim>
					<dim>256</dim>
					<dim>448</dim>
				</port>
			</output>
		</layer>
		<layer id="190" name="L0014_Conv2d_BN/Dims6311110530811" type="Const" version="opset1">
			<data element_type="f16" offset="2940" shape="1,24,1,1" size="48"/>
			<output>
				<port id="0" precision="FP16">
					<dim>1</dim>
					<dim>24</dim>
					<dim>1</dim>
					<dim>1</dim>
				</port>
			</output>
		</layer>
		<layer id="191" name="L0014_Conv2d_BN/Dims6311110515369/restored_convert" type="Convert" version="opset1">
			<data destination_type="f32"/>
			<rt_info>
				<attribute name="decompression" version="0"/>
				<attribute name="fused_names" value="L0014_Conv2d_BN/Dims6311" version="0"/>
			</rt_info>
			<input>
				<port id="0">
					<dim>1</dim>
					<dim>24</dim>
					<dim>1</dim>
					<dim>1</dim>
				</port>
			</input>
			<output>
				<port id="1" precision="FP32">
					<dim>1</dim>
					<dim>24</dim>
					<dim>1</dim>
					<dim>1</dim>
				</port>
			</output>
		</layer>
		<layer id="192" name="L0014_Conv2d_BN" type="Add" version="opset1">
			<data auto_broadcast="numpy"/>
			<rt_info>
				<attribute name="fused_names" value="L0014_Conv2d_BN" version="0"/>
			</rt_info>
			<input>
				<port id="0">
					<dim>1</dim>
					<dim>24</dim>
					<dim>256</dim>
					<dim>448</dim>
				</port>
				<port id="1">
					<dim>1</dim>
					<dim>24</dim>
					<dim>1</dim>
					<dim>1</dim>
				</port>
			</input>
			<output>
				<port id="2" names="L0014_Conv2d_BN" precision="FP32">
					<dim>1</dim>
					<dim>24</dim>
					<dim>256</dim>
					<dim>448</dim>
				</port>
			</output>
		</layer>
		<layer id="193" name="L0015_AddBackward1/fq_input_1" type="FakeQuantize" version="opset1">
			<data auto_broadcast="numpy" levels="256"/>
			<input>
				<port id="0">
					<dim>1</dim>
					<dim>24</dim>
					<dim>256</dim>
					<dim>448</dim>
				</port>
				<port id="1"/>
				<port id="2"/>
				<port id="3"/>
				<port id="4"/>
			</input>
			<output>
				<port id="5" precision="FP32">
					<dim>1</dim>
					<dim>24</dim>
					<dim>256</dim>
					<dim>448</dim>
				</port>
			</output>
		</layer>
		<layer id="194" name="L0015_AddBackward1" type="Add" version="opset1">
			<data auto_broadcast="numpy"/>
			<rt_info>
				<attribute name="fused_names" value="L0015_AddBackward1" version="0"/>
			</rt_info>
			<input>
				<port id="0">
					<dim>1</dim>
					<dim>24</dim>
					<dim>256</dim>
					<dim>448</dim>
				</port>
				<port id="1">
					<dim>1</dim>
					<dim>24</dim>
					<dim>256</dim>
					<dim>448</dim>
				</port>
			</input>
			<output>
				<port id="2" names="L0015_AddBackward1" precision="FP32">
					<dim>1</dim>
					<dim>24</dim>
					<dim>256</dim>
					<dim>448</dim>
				</port>
			</output>
		</layer>
		<layer id="195" name="L0016_ReLU" type="ReLU" version="opset1">
			<rt_info>
				<attribute name="fused_names" value="L0016_ReLU" version="0"/>
			</rt_info>
			<input>
				<port id="0">
					<dim>1</dim>
					<dim>24</dim>
					<dim>256</dim>
					<dim>448</dim>
				</port>
			</input>
			<output>
				<port id="1" names="L0016_ReLU" precision="FP32">
					<dim>1</dim>
					<dim>24</dim>
					<dim>256</dim>
					<dim>448</dim>
				</port>
			</output>
		</layer>
		<layer id="196" name="L0017_Conv2d_BN/WithoutBiases/fq_input_0" type="FakeQuantize" version="opset1">
			<data auto_broadcast="numpy" levels="256"/>
			<input>
				<port id="0">
					<dim>1</dim>
					<dim>24</dim>
					<dim>256</dim>
					<dim>448</dim>
				</port>
				<port id="1"/>
				<port id="2"/>
				<port id="3"/>
				<port id="4"/>
			</input>
			<output>
				<port id="5" precision="FP32">
					<dim>1</dim>
					<dim>24</dim>
					<dim>256</dim>
					<dim>448</dim>
				</port>
			</output>
		</layer>
		<layer id="197" name="349111015370/restored_convert/quantized2107929272" type="Const" version="opset1">
			<data element_type="i8" offset="2988" shape="8,24,1,1" size="192"/>
			<output>
				<port id="0" precision="I8">
					<dim>8</dim>
					<dim>24</dim>
					<dim>1</dim>
					<dim>1</dim>
				</port>
			</output>
		</layer>
		<layer id="198" name="349111015370/restored_convert/quantized/to_f32" type="Convert" version="opset1">
			<data destination_type="f32"/>
			<input>
				<port id="0">
					<dim>8</dim>
					<dim>24</dim>
					<dim>1</dim>
					<dim>1</dim>
				</port>
			</input>
			<output>
				<port id="1" precision="FP32">
					<dim>8</dim>
					<dim>24</dim>
					<dim>1</dim>
					<dim>1</dim>
				</port>
			</output>
		</layer>
		<layer id="199" name="L0017_Conv2d_BN/WithoutBiases/fq_weights_1/zero_point2109830334" type="Const" version="opset1">
			<data element_type="f32" offset="3180" shape="8,1,1,1" size="32"/>
			<output>
				<port id="0" precision="FP32">
					<dim>8</dim>
					<dim>1</dim>
					<dim>1</dim>
					<dim>1</dim>
				</port>
			</output>
		</layer>
		<layer id="200" name="L0017_Conv2d_BN/WithoutBiases/fq_weights_1/minus_zp" type="Subtract" version="opset1">
			<data auto_broadcast="numpy"/>
			<input>
				<port id="0">
					<dim>8</dim>
					<dim>24</dim>
					<dim>1</dim>
					<dim>1</dim>
				</port>
				<port id="1">
					<dim>8</dim>
					<dim>1</dim>
					<dim>1</dim>
					<dim>1</dim>
				</port>
			</input>
			<output>
				<port id="2" precision="FP32">
					<dim>8</dim>
					<dim>24</dim>
					<dim>1</dim>
					<dim>1</dim>
				</port>
			</output>
		</layer>
		<layer id="201" name="L0017_Conv2d_BN/WithoutBiases/fq_weights_1/scale2108728735" type="Const" version="opset1">
			<data element_type="f32" offset="3212" shape="8,1,1,1" size="32"/>
			<output>
				<port id="0" precision="FP32">
					<dim>8</dim>
					<dim>1</dim>
					<dim>1</dim>
					<dim>1</dim>
				</port>
			</output>
		</layer>
		<layer id="202" name="L0017_Conv2d_BN/WithoutBiases/fq_weights_1/mulpiply_by_scale" type="Multiply" version="opset1">
			<data auto_broadcast="numpy"/>
			<input>
				<port id="0">
					<dim>8</dim>
					<dim>24</dim>
					<dim>1</dim>
					<dim>1</dim>
				</port>
				<port id="1">
					<dim>8</dim>
					<dim>1</dim>
					<dim>1</dim>
					<dim>1</dim>
				</port>
			</input>
			<output>
				<port id="2" precision="FP32">
					<dim>8</dim>
					<dim>24</dim>
					<dim>1</dim>
					<dim>1</dim>
				</port>
			</output>
		</layer>
		<layer id="203" name="L0017_Conv2d_BN/WithoutBiases" type="Convolution" version="opset1">
			<data auto_pad="explicit" dilations="1,1" pads_begin="0,0" pads_end="0,0" strides="1,1"/>
			<rt_info>
				<attribute name="fused_names" value="L0017_Conv2d_BN/WithoutBiases" version="0"/>
			</rt_info>
			<input>
				<port id="0">
					<dim>1</dim>
					<dim>24</dim>
					<dim>256</dim>
					<dim>448</dim>
				</port>
				<port id="1">
					<dim>8</dim>
					<dim>24</dim>
					<dim>1</dim>
					<dim>1</dim>
				</port>
			</input>
			<output>
				<port id="2" precision="FP32">
					<dim>1</dim>
					<dim>8</dim>
					<dim>256</dim>
					<dim>448</dim>
				</port>
			</output>
		</layer>
		<layer id="204" name="L0017_Conv2d_BN/Dims5909111327583" type="Const" version="opset1">
			<data element_type="f16" offset="3244" shape="1,8,1,1" size="16"/>
			<output>
				<port id="0" precision="FP16">
					<dim>1</dim>
					<dim>8</dim>
					<dim>1</dim>
					<dim>1</dim>
				</port>
			</output>
		</layer>
		<layer id="205" name="L0017_Conv2d_BN/Dims5909111315371/restored_convert" type="Convert" version="opset1">
			<data destination_type="f32"/>
			<rt_info>
				<attribute name="decompression" version="0"/>
				<attribute name="fused_names" value="L0017_Conv2d_BN/Dims5909" version="0"/>
			</rt_info>
			<input>
				<port id="0">
					<dim>1</dim>
					<dim>8</dim>
					<dim>1</dim>
					<dim>1</dim>
				</port>
			</input>
			<output>
				<port id="1" precision="FP32">
					<dim>1</dim>
					<dim>8</dim>
					<dim>1</dim>
					<dim>1</dim>
				</port>
			</output>
		</layer>
		<layer id="206" name="L0017_Conv2d_BN" type="Add" version="opset1">
			<data auto_broadcast="numpy"/>
			<rt_info>
				<attribute name="fused_names" value="L0017_Conv2d_BN" version="0"/>
			</rt_info>
			<input>
				<port id="0">
					<dim>1</dim>
					<dim>8</dim>
					<dim>256</dim>
					<dim>448</dim>
				</port>
				<port id="1">
					<dim>1</dim>
					<dim>8</dim>
					<dim>1</dim>
					<dim>1</dim>
				</port>
			</input>
			<output>
				<port id="2" names="L0017_Conv2d_BN" precision="FP32">
					<dim>1</dim>
					<dim>8</dim>
					<dim>256</dim>
					<dim>448</dim>
				</port>
			</output>
		</layer>
		<layer id="207" name="L0018_ReLU" type="ReLU" version="opset1">
			<rt_info>
				<attribute name="fused_names" value="L0018_ReLU" version="0"/>
			</rt_info>
			<input>
				<port id="0">
					<dim>1</dim>
					<dim>8</dim>
					<dim>256</dim>
					<dim>448</dim>
				</port>
			</input>
			<output>
				<port id="1" names="L0018_ReLU" precision="FP32">
					<dim>1</dim>
					<dim>8</dim>
					<dim>256</dim>
					<dim>448</dim>
				</port>
			</output>
		</layer>
		<layer id="208" name="L0019_Conv2d_BN/WithoutBiases/fq_input_0" type="FakeQuantize" version="opset1">
			<data auto_broadcast="numpy" levels="256"/>
			<input>
				<port id="0">
					<dim>1</dim>
					<dim>8</dim>
					<dim>256</dim>
					<dim>448</dim>
				</port>
				<port id="1">
					<dim>1</dim>
					<dim>8</dim>
					<dim>1</dim>
					<dim>1</dim>
				</port>
				<port id="2">
					<dim>1</dim>
					<dim>8</dim>
					<dim>1</dim>
					<dim>1</dim>
				</port>
				<port id="3">
					<dim>1</dim>
					<dim>8</dim>
					<dim>1</dim>
					<dim>1</dim>
				</port>
				<port id="4">
					<dim>1</dim>
					<dim>8</dim>
					<dim>1</dim>
					<dim>1</dim>
				</port>
			</input>
			<output>
				<port id="5" precision="FP32">
					<dim>1</dim>
					<dim>8</dim>
					<dim>256</dim>
					<dim>448</dim>
				</port>
			</output>
		</layer>
		<layer id="209" name="24312/value2431429404" type="Const" version="opset1">
			<data element_type="i64" offset="1084" shape="5" size="40"/>
			<output>
				<port id="0" precision="I64">
					<dim>5</dim>
				</port>
			</output>
		</layer>
		<layer id="210" name="357111715372/restored_convert/quantized1861927850" type="Const" version="opset1">
			<data element_type="i8" offset="3260" shape="8,1,3,3" size="72"/>
			<output>
				<port id="0" precision="I8">
					<dim>8</dim>
					<dim>1</dim>
					<dim>3</dim>
					<dim>3</dim>
				</port>
			</output>
		</layer>
		<layer id="211" name="357111715372/restored_convert/quantized/to_f32" type="Convert" version="opset1">
			<data destination_type="f32"/>
			<input>
				<port id="0">
					<dim>8</dim>
					<dim>1</dim>
					<dim>3</dim>
					<dim>3</dim>
				</port>
			</input>
			<output>
				<port id="1" precision="FP32">
					<dim>8</dim>
					<dim>1</dim>
					<dim>3</dim>
					<dim>3</dim>
				</port>
			</output>
		</layer>
		<layer id="212" name="L0019_Conv2d_BN/WithoutBiases/fq_weights_1/zero_point1863827535" type="Const" version="opset1">
			<data element_type="f32" offset="3332" shape="8,1,1,1" size="32"/>
			<output>
				<port id="0" precision="FP32">
					<dim>8</dim>
					<dim>1</dim>
					<dim>1</dim>
					<dim>1</dim>
				</port>
			</output>
		</layer>
		<layer id="213" name="L0019_Conv2d_BN/WithoutBiases/fq_weights_1/minus_zp" type="Subtract" version="opset1">
			<data auto_broadcast="numpy"/>
			<input>
				<port id="0">
					<dim>8</dim>
					<dim>1</dim>
					<dim>3</dim>
					<dim>3</dim>
				</port>
				<port id="1">
					<dim>8</dim>
					<dim>1</dim>
					<dim>1</dim>
					<dim>1</dim>
				</port>
			</input>
			<output>
				<port id="2" precision="FP32">
					<dim>8</dim>
					<dim>1</dim>
					<dim>3</dim>
					<dim>3</dim>
				</port>
			</output>
		</layer>
		<layer id="214" name="L0019_Conv2d_BN/WithoutBiases/fq_weights_1/scale1862729659" type="Const" version="opset1">
			<data element_type="f32" offset="3364" shape="8,1,1,1" size="32"/>
			<output>
				<port id="0" precision="FP32">
					<dim>8</dim>
					<dim>1</dim>
					<dim>1</dim>
					<dim>1</dim>
				</port>
			</output>
		</layer>
		<layer id="215" name="L0019_Conv2d_BN/WithoutBiases/fq_weights_1/mulpiply_by_scale" type="Multiply" version="opset1">
			<data auto_broadcast="numpy"/>
			<input>
				<port id="0">
					<dim>8</dim>
					<dim>1</dim>
					<dim>3</dim>
					<dim>3</dim>
				</port>
				<port id="1">
					<dim>8</dim>
					<dim>1</dim>
					<dim>1</dim>
					<dim>1</dim>
				</port>
			</input>
			<output>
				<port id="2" precision="FP32">
					<dim>8</dim>
					<dim>1</dim>
					<dim>3</dim>
					<dim>3</dim>
				</port>
			</output>
		</layer>
		<layer id="216" name="24312" type="Reshape" version="opset1">
			<data special_zero="true"/>
			<input>
				<port id="0">
					<dim>8</dim>
					<dim>1</dim>
					<dim>3</dim>
					<dim>3</dim>
				</port>
				<port id="1">
					<dim>5</dim>
				</port>
			</input>
			<output>
				<port id="2" precision="FP32">
					<dim>8</dim>
					<dim>1</dim>
					<dim>1</dim>
					<dim>3</dim>
					<dim>3</dim>
				</port>
			</output>
		</layer>
		<layer id="217" name="L0019_Conv2d_BN/WithoutBiases" type="GroupConvolution" version="opset1">
			<data auto_pad="explicit" dilations="1,1" pads_begin="1,1" pads_end="1,1" strides="1,1"/>
			<rt_info>
				<attribute name="fused_names" value="L0019_Conv2d_BN/WithoutBiases" version="0"/>
			</rt_info>
			<input>
				<port id="0">
					<dim>1</dim>
					<dim>8</dim>
					<dim>256</dim>
					<dim>448</dim>
				</port>
				<port id="1">
					<dim>8</dim>
					<dim>1</dim>
					<dim>1</dim>
					<dim>3</dim>
					<dim>3</dim>
				</port>
			</input>
			<output>
				<port id="2" precision="FP32">
					<dim>1</dim>
					<dim>8</dim>
					<dim>256</dim>
					<dim>448</dim>
				</port>
			</output>
		</layer>
		<layer id="218" name="L0019_Conv2d_BN/Dims6077112030916" type="Const" version="opset1">
			<data element_type="f16" offset="3396" shape="1,8,1,1" size="16"/>
			<output>
				<port id="0" precision="FP16">
					<dim>1</dim>
					<dim>8</dim>
					<dim>1</dim>
					<dim>1</dim>
				</port>
			</output>
		</layer>
		<layer id="219" name="L0019_Conv2d_BN/Dims6077112015373/restored_convert" type="Convert" version="opset1">
			<data destination_type="f32"/>
			<rt_info>
				<attribute name="decompression" version="0"/>
				<attribute name="fused_names" value="L0019_Conv2d_BN/Dims6077" version="0"/>
			</rt_info>
			<input>
				<port id="0">
					<dim>1</dim>
					<dim>8</dim>
					<dim>1</dim>
					<dim>1</dim>
				</port>
			</input>
			<output>
				<port id="1" precision="FP32">
					<dim>1</dim>
					<dim>8</dim>
					<dim>1</dim>
					<dim>1</dim>
				</port>
			</output>
		</layer>
		<layer id="220" name="L0019_Conv2d_BN" type="Add" version="opset1">
			<data auto_broadcast="numpy"/>
			<rt_info>
				<attribute name="fused_names" value="L0019_Conv2d_BN" version="0"/>
			</rt_info>
			<input>
				<port id="0">
					<dim>1</dim>
					<dim>8</dim>
					<dim>256</dim>
					<dim>448</dim>
				</port>
				<port id="1">
					<dim>1</dim>
					<dim>8</dim>
					<dim>1</dim>
					<dim>1</dim>
				</port>
			</input>
			<output>
				<port id="2" names="L0019_Conv2d_BN" precision="FP32">
					<dim>1</dim>
					<dim>8</dim>
					<dim>256</dim>
					<dim>448</dim>
				</port>
			</output>
		</layer>
		<layer id="221" name="L0020_ReLU" type="ReLU" version="opset1">
			<rt_info>
				<attribute name="fused_names" value="L0020_ReLU" version="0"/>
			</rt_info>
			<input>
				<port id="0">
					<dim>1</dim>
					<dim>8</dim>
					<dim>256</dim>
					<dim>448</dim>
				</port>
			</input>
			<output>
				<port id="1" names="L0020_ReLU" precision="FP32">
					<dim>1</dim>
					<dim>8</dim>
					<dim>256</dim>
					<dim>448</dim>
				</port>
			</output>
		</layer>
		<layer id="222" name="L0021_Conv2d_BN/WithoutBiases/fq_input_0" type="FakeQuantize" version="opset1">
			<data auto_broadcast="numpy" levels="256"/>
			<input>
				<port id="0">
					<dim>1</dim>
					<dim>8</dim>
					<dim>256</dim>
					<dim>448</dim>
				</port>
				<port id="1"/>
				<port id="2"/>
				<port id="3"/>
				<port id="4"/>
			</input>
			<output>
				<port id="5" precision="FP32">
					<dim>1</dim>
					<dim>8</dim>
					<dim>256</dim>
					<dim>448</dim>
				</port>
			</output>
		</layer>
		<layer id="223" name="339112415374/restored_convert/quantized2149929206" type="Const" version="opset1">
			<data element_type="i8" offset="3412" shape="24,8,1,1" size="192"/>
			<output>
				<port id="0" precision="I8">
					<dim>24</dim>
					<dim>8</dim>
					<dim>1</dim>
					<dim>1</dim>
				</port>
			</output>
		</layer>
		<layer id="224" name="339112415374/restored_convert/quantized/to_f32" type="Convert" version="opset1">
			<data destination_type="f32"/>
			<input>
				<port id="0">
					<dim>24</dim>
					<dim>8</dim>
					<dim>1</dim>
					<dim>1</dim>
				</port>
			</input>
			<output>
				<port id="1" precision="FP32">
					<dim>24</dim>
					<dim>8</dim>
					<dim>1</dim>
					<dim>1</dim>
				</port>
			</output>
		</layer>
		<layer id="225" name="L0021_Conv2d_BN/WithoutBiases/fq_weights_1/zero_point2151828096" type="Const" version="opset1">
			<data element_type="f32" offset="3604" shape="24,1,1,1" size="96"/>
			<output>
				<port id="0" precision="FP32">
					<dim>24</dim>
					<dim>1</dim>
					<dim>1</dim>
					<dim>1</dim>
				</port>
			</output>
		</layer>
		<layer id="226" name="L0021_Conv2d_BN/WithoutBiases/fq_weights_1/minus_zp" type="Subtract" version="opset1">
			<data auto_broadcast="numpy"/>
			<input>
				<port id="0">
					<dim>24</dim>
					<dim>8</dim>
					<dim>1</dim>
					<dim>1</dim>
				</port>
				<port id="1">
					<dim>24</dim>
					<dim>1</dim>
					<dim>1</dim>
					<dim>1</dim>
				</port>
			</input>
			<output>
				<port id="2" precision="FP32">
					<dim>24</dim>
					<dim>8</dim>
					<dim>1</dim>
					<dim>1</dim>
				</port>
			</output>
		</layer>
		<layer id="227" name="L0021_Conv2d_BN/WithoutBiases/fq_weights_1/scale2150728042" type="Const" version="opset1">
			<data element_type="f32" offset="3700" shape="24,1,1,1" size="96"/>
			<output>
				<port id="0" precision="FP32">
					<dim>24</dim>
					<dim>1</dim>
					<dim>1</dim>
					<dim>1</dim>
				</port>
			</output>
		</layer>
		<layer id="228" name="L0021_Conv2d_BN/WithoutBiases/fq_weights_1/mulpiply_by_scale" type="Multiply" version="opset1">
			<data auto_broadcast="numpy"/>
			<input>
				<port id="0">
					<dim>24</dim>
					<dim>8</dim>
					<dim>1</dim>
					<dim>1</dim>
				</port>
				<port id="1">
					<dim>24</dim>
					<dim>1</dim>
					<dim>1</dim>
					<dim>1</dim>
				</port>
			</input>
			<output>
				<port id="2" precision="FP32">
					<dim>24</dim>
					<dim>8</dim>
					<dim>1</dim>
					<dim>1</dim>
				</port>
			</output>
		</layer>
		<layer id="229" name="L0021_Conv2d_BN/WithoutBiases" type="Convolution" version="opset1">
			<data auto_pad="explicit" dilations="1,1" pads_begin="0,0" pads_end="0,0" strides="1,1"/>
			<rt_info>
				<attribute name="fused_names" value="L0021_Conv2d_BN/WithoutBiases" version="0"/>
			</rt_info>
			<input>
				<port id="0">
					<dim>1</dim>
					<dim>8</dim>
					<dim>256</dim>
					<dim>448</dim>
				</port>
				<port id="1">
					<dim>24</dim>
					<dim>8</dim>
					<dim>1</dim>
					<dim>1</dim>
				</port>
			</input>
			<output>
				<port id="2" precision="FP32">
					<dim>1</dim>
					<dim>24</dim>
					<dim>256</dim>
					<dim>448</dim>
				</port>
			</output>
		</layer>
		<layer id="230" name="L0021_Conv2d_BN/Dims5891112730793" type="Const" version="opset1">
			<data element_type="f16" offset="3796" shape="1,24,1,1" size="48"/>
			<output>
				<port id="0" precision="FP16">
					<dim>1</dim>
					<dim>24</dim>
					<dim>1</dim>
					<dim>1</dim>
				</port>
			</output>
		</layer>
		<layer id="231" name="L0021_Conv2d_BN/Dims5891112715375/restored_convert" type="Convert" version="opset1">
			<data destination_type="f32"/>
			<rt_info>
				<attribute name="decompression" version="0"/>
				<attribute name="fused_names" value="L0021_Conv2d_BN/Dims5891" version="0"/>
			</rt_info>
			<input>
				<port id="0">
					<dim>1</dim>
					<dim>24</dim>
					<dim>1</dim>
					<dim>1</dim>
				</port>
			</input>
			<output>
				<port id="1" precision="FP32">
					<dim>1</dim>
					<dim>24</dim>
					<dim>1</dim>
					<dim>1</dim>
				</port>
			</output>
		</layer>
		<layer id="232" name="L0021_Conv2d_BN" type="Add" version="opset1">
			<data auto_broadcast="numpy"/>
			<rt_info>
				<attribute name="fused_names" value="L0021_Conv2d_BN" version="0"/>
			</rt_info>
			<input>
				<port id="0">
					<dim>1</dim>
					<dim>24</dim>
					<dim>256</dim>
					<dim>448</dim>
				</port>
				<port id="1">
					<dim>1</dim>
					<dim>24</dim>
					<dim>1</dim>
					<dim>1</dim>
				</port>
			</input>
			<output>
				<port id="2" names="L0021_Conv2d_BN" precision="FP32">
					<dim>1</dim>
					<dim>24</dim>
					<dim>256</dim>
					<dim>448</dim>
				</port>
			</output>
		</layer>
		<layer id="233" name="L0022_AddBackward1/fq_input_0" type="FakeQuantize" version="opset1">
			<data auto_broadcast="numpy" levels="256"/>
			<input>
				<port id="0">
					<dim>1</dim>
					<dim>24</dim>
					<dim>256</dim>
					<dim>448</dim>
				</port>
				<port id="1"/>
				<port id="2"/>
				<port id="3"/>
				<port id="4"/>
			</input>
			<output>
				<port id="5" precision="FP32">
					<dim>1</dim>
					<dim>24</dim>
					<dim>256</dim>
					<dim>448</dim>
				</port>
			</output>
		</layer>
		<layer id="234" name="L0022_AddBackward1" type="Add" version="opset1">
			<data auto_broadcast="numpy"/>
			<rt_info>
				<attribute name="fused_names" value="L0022_AddBackward1" version="0"/>
			</rt_info>
			<input>
				<port id="0">
					<dim>1</dim>
					<dim>24</dim>
					<dim>256</dim>
					<dim>448</dim>
				</port>
				<port id="1">
					<dim>1</dim>
					<dim>24</dim>
					<dim>256</dim>
					<dim>448</dim>
				</port>
			</input>
			<output>
				<port id="2" names="L0022_AddBackward1" precision="FP32">
					<dim>1</dim>
					<dim>24</dim>
					<dim>256</dim>
					<dim>448</dim>
				</port>
			</output>
		</layer>
		<layer id="235" name="L0023_ReLU" type="ReLU" version="opset1">
			<rt_info>
				<attribute name="fused_names" value="L0023_ReLU" version="0"/>
			</rt_info>
			<input>
				<port id="0">
					<dim>1</dim>
					<dim>24</dim>
					<dim>256</dim>
					<dim>448</dim>
				</port>
			</input>
			<output>
				<port id="1" names="L0023_ReLU" precision="FP32">
					<dim>1</dim>
					<dim>24</dim>
					<dim>256</dim>
					<dim>448</dim>
				</port>
			</output>
		</layer>
		<layer id="236" name="L0024_Conv2d_BN/WithoutBiases/fq_input_0" type="FakeQuantize" version="opset1">
			<data auto_broadcast="numpy" levels="256"/>
			<input>
				<port id="0">
					<dim>1</dim>
					<dim>24</dim>
					<dim>256</dim>
					<dim>448</dim>
				</port>
				<port id="1"/>
				<port id="2"/>
				<port id="3"/>
				<port id="4"/>
			</input>
			<output>
				<port id="5" precision="FP32">
					<dim>1</dim>
					<dim>24</dim>
					<dim>256</dim>
					<dim>448</dim>
				</port>
			</output>
		</layer>
		<layer id="237" name="489113215376/restored_convert/quantized1954928495" type="Const" version="opset1">
			<data element_type="i8" offset="3844" shape="8,24,1,1" size="192"/>
			<output>
				<port id="0" precision="I8">
					<dim>8</dim>
					<dim>24</dim>
					<dim>1</dim>
					<dim>1</dim>
				</port>
			</output>
		</layer>
		<layer id="238" name="489113215376/restored_convert/quantized/to_f32" type="Convert" version="opset1">
			<data destination_type="f32"/>
			<input>
				<port id="0">
					<dim>8</dim>
					<dim>24</dim>
					<dim>1</dim>
					<dim>1</dim>
				</port>
			</input>
			<output>
				<port id="1" precision="FP32">
					<dim>8</dim>
					<dim>24</dim>
					<dim>1</dim>
					<dim>1</dim>
				</port>
			</output>
		</layer>
		<layer id="239" name="L0024_Conv2d_BN/WithoutBiases/fq_weights_1/zero_point1956828816" type="Const" version="opset1">
			<data element_type="f32" offset="4036" shape="8,1,1,1" size="32"/>
			<output>
				<port id="0" precision="FP32">
					<dim>8</dim>
					<dim>1</dim>
					<dim>1</dim>
					<dim>1</dim>
				</port>
			</output>
		</layer>
		<layer id="240" name="L0024_Conv2d_BN/WithoutBiases/fq_weights_1/minus_zp" type="Subtract" version="opset1">
			<data auto_broadcast="numpy"/>
			<input>
				<port id="0">
					<dim>8</dim>
					<dim>24</dim>
					<dim>1</dim>
					<dim>1</dim>
				</port>
				<port id="1">
					<dim>8</dim>
					<dim>1</dim>
					<dim>1</dim>
					<dim>1</dim>
				</port>
			</input>
			<output>
				<port id="2" precision="FP32">
					<dim>8</dim>
					<dim>24</dim>
					<dim>1</dim>
					<dim>1</dim>
				</port>
			</output>
		</layer>
		<layer id="241" name="L0024_Conv2d_BN/WithoutBiases/fq_weights_1/scale1955730358" type="Const" version="opset1">
			<data element_type="f32" offset="4068" shape="8,1,1,1" size="32"/>
			<output>
				<port id="0" precision="FP32">
					<dim>8</dim>
					<dim>1</dim>
					<dim>1</dim>
					<dim>1</dim>
				</port>
			</output>
		</layer>
		<layer id="242" name="L0024_Conv2d_BN/WithoutBiases/fq_weights_1/mulpiply_by_scale" type="Multiply" version="opset1">
			<data auto_broadcast="numpy"/>
			<input>
				<port id="0">
					<dim>8</dim>
					<dim>24</dim>
					<dim>1</dim>
					<dim>1</dim>
				</port>
				<port id="1">
					<dim>8</dim>
					<dim>1</dim>
					<dim>1</dim>
					<dim>1</dim>
				</port>
			</input>
			<output>
				<port id="2" precision="FP32">
					<dim>8</dim>
					<dim>24</dim>
					<dim>1</dim>
					<dim>1</dim>
				</port>
			</output>
		</layer>
		<layer id="243" name="L0024_Conv2d_BN/WithoutBiases" type="Convolution" version="opset1">
			<data auto_pad="explicit" dilations="1,1" pads_begin="0,0" pads_end="0,0" strides="1,1"/>
			<rt_info>
				<attribute name="fused_names" value="L0024_Conv2d_BN/WithoutBiases" version="0"/>
			</rt_info>
			<input>
				<port id="0">
					<dim>1</dim>
					<dim>24</dim>
					<dim>256</dim>
					<dim>448</dim>
				</port>
				<port id="1">
					<dim>8</dim>
					<dim>24</dim>
					<dim>1</dim>
					<dim>1</dim>
				</port>
			</input>
			<output>
				<port id="2" precision="FP32">
					<dim>1</dim>
					<dim>8</dim>
					<dim>256</dim>
					<dim>448</dim>
				</port>
			</output>
		</layer>
		<layer id="244" name="L0024_Conv2d_BN/Dims6185113527208" type="Const" version="opset1">
			<data element_type="f16" offset="4100" shape="1,8,1,1" size="16"/>
			<output>
				<port id="0" precision="FP16">
					<dim>1</dim>
					<dim>8</dim>
					<dim>1</dim>
					<dim>1</dim>
				</port>
			</output>
		</layer>
		<layer id="245" name="L0024_Conv2d_BN/Dims6185113515377/restored_convert" type="Convert" version="opset1">
			<data destination_type="f32"/>
			<rt_info>
				<attribute name="decompression" version="0"/>
				<attribute name="fused_names" value="L0024_Conv2d_BN/Dims6185" version="0"/>
			</rt_info>
			<input>
				<port id="0">
					<dim>1</dim>
					<dim>8</dim>
					<dim>1</dim>
					<dim>1</dim>
				</port>
			</input>
			<output>
				<port id="1" precision="FP32">
					<dim>1</dim>
					<dim>8</dim>
					<dim>1</dim>
					<dim>1</dim>
				</port>
			</output>
		</layer>
		<layer id="246" name="L0024_Conv2d_BN" type="Add" version="opset1">
			<data auto_broadcast="numpy"/>
			<rt_info>
				<attribute name="fused_names" value="L0024_Conv2d_BN" version="0"/>
			</rt_info>
			<input>
				<port id="0">
					<dim>1</dim>
					<dim>8</dim>
					<dim>256</dim>
					<dim>448</dim>
				</port>
				<port id="1">
					<dim>1</dim>
					<dim>8</dim>
					<dim>1</dim>
					<dim>1</dim>
				</port>
			</input>
			<output>
				<port id="2" names="L0024_Conv2d_BN" precision="FP32">
					<dim>1</dim>
					<dim>8</dim>
					<dim>256</dim>
					<dim>448</dim>
				</port>
			</output>
		</layer>
		<layer id="247" name="L0025_ReLU" type="ReLU" version="opset1">
			<rt_info>
				<attribute name="fused_names" value="L0025_ReLU" version="0"/>
			</rt_info>
			<input>
				<port id="0">
					<dim>1</dim>
					<dim>8</dim>
					<dim>256</dim>
					<dim>448</dim>
				</port>
			</input>
			<output>
				<port id="1" names="L0025_ReLU" precision="FP32">
					<dim>1</dim>
					<dim>8</dim>
					<dim>256</dim>
					<dim>448</dim>
				</port>
			</output>
		</layer>
		<layer id="248" name="L0026_Conv2d_BN/WithoutBiases/fq_input_0" type="FakeQuantize" version="opset1">
			<data auto_broadcast="numpy" levels="256"/>
			<input>
				<port id="0">
					<dim>1</dim>
					<dim>8</dim>
					<dim>256</dim>
					<dim>448</dim>
				</port>
				<port id="1">
					<dim>1</dim>
					<dim>8</dim>
					<dim>1</dim>
					<dim>1</dim>
				</port>
				<port id="2">
					<dim>1</dim>
					<dim>8</dim>
					<dim>1</dim>
					<dim>1</dim>
				</port>
				<port id="3">
					<dim>1</dim>
					<dim>8</dim>
					<dim>1</dim>
					<dim>1</dim>
				</port>
				<port id="4">
					<dim>1</dim>
					<dim>8</dim>
					<dim>1</dim>
					<dim>1</dim>
				</port>
			</input>
			<output>
				<port id="5" precision="FP32">
					<dim>1</dim>
					<dim>8</dim>
					<dim>256</dim>
					<dim>448</dim>
				</port>
			</output>
		</layer>
		<layer id="249" name="24316/value2431830280" type="Const" version="opset1">
			<data element_type="i64" offset="1084" shape="5" size="40"/>
			<output>
				<port id="0" precision="I64">
					<dim>5</dim>
				</port>
			</output>
		</layer>
		<layer id="250" name="431113915378/restored_convert/quantized2143931048" type="Const" version="opset1">
			<data element_type="i8" offset="4116" shape="8,1,3,3" size="72"/>
			<output>
				<port id="0" precision="I8">
					<dim>8</dim>
					<dim>1</dim>
					<dim>3</dim>
					<dim>3</dim>
				</port>
			</output>
		</layer>
		<layer id="251" name="431113915378/restored_convert/quantized/to_f32" type="Convert" version="opset1">
			<data destination_type="f32"/>
			<input>
				<port id="0">
					<dim>8</dim>
					<dim>1</dim>
					<dim>3</dim>
					<dim>3</dim>
				</port>
			</input>
			<output>
				<port id="1" precision="FP32">
					<dim>8</dim>
					<dim>1</dim>
					<dim>3</dim>
					<dim>3</dim>
				</port>
			</output>
		</layer>
		<layer id="252" name="L0026_Conv2d_BN/WithoutBiases/fq_weights_1/zero_point2145827439" type="Const" version="opset1">
			<data element_type="f32" offset="4188" shape="8,1,1,1" size="32"/>
			<output>
				<port id="0" precision="FP32">
					<dim>8</dim>
					<dim>1</dim>
					<dim>1</dim>
					<dim>1</dim>
				</port>
			</output>
		</layer>
		<layer id="253" name="L0026_Conv2d_BN/WithoutBiases/fq_weights_1/minus_zp" type="Subtract" version="opset1">
			<data auto_broadcast="numpy"/>
			<input>
				<port id="0">
					<dim>8</dim>
					<dim>1</dim>
					<dim>3</dim>
					<dim>3</dim>
				</port>
				<port id="1">
					<dim>8</dim>
					<dim>1</dim>
					<dim>1</dim>
					<dim>1</dim>
				</port>
			</input>
			<output>
				<port id="2" precision="FP32">
					<dim>8</dim>
					<dim>1</dim>
					<dim>3</dim>
					<dim>3</dim>
				</port>
			</output>
		</layer>
		<layer id="254" name="L0026_Conv2d_BN/WithoutBiases/fq_weights_1/scale2144729443" type="Const" version="opset1">
			<data element_type="f32" offset="4220" shape="8,1,1,1" size="32"/>
			<output>
				<port id="0" precision="FP32">
					<dim>8</dim>
					<dim>1</dim>
					<dim>1</dim>
					<dim>1</dim>
				</port>
			</output>
		</layer>
		<layer id="255" name="L0026_Conv2d_BN/WithoutBiases/fq_weights_1/mulpiply_by_scale" type="Multiply" version="opset1">
			<data auto_broadcast="numpy"/>
			<input>
				<port id="0">
					<dim>8</dim>
					<dim>1</dim>
					<dim>3</dim>
					<dim>3</dim>
				</port>
				<port id="1">
					<dim>8</dim>
					<dim>1</dim>
					<dim>1</dim>
					<dim>1</dim>
				</port>
			</input>
			<output>
				<port id="2" precision="FP32">
					<dim>8</dim>
					<dim>1</dim>
					<dim>3</dim>
					<dim>3</dim>
				</port>
			</output>
		</layer>
		<layer id="256" name="24316" type="Reshape" version="opset1">
			<data special_zero="true"/>
			<input>
				<port id="0">
					<dim>8</dim>
					<dim>1</dim>
					<dim>3</dim>
					<dim>3</dim>
				</port>
				<port id="1">
					<dim>5</dim>
				</port>
			</input>
			<output>
				<port id="2" precision="FP32">
					<dim>8</dim>
					<dim>1</dim>
					<dim>1</dim>
					<dim>3</dim>
					<dim>3</dim>
				</port>
			</output>
		</layer>
		<layer id="257" name="L0026_Conv2d_BN/WithoutBiases" type="GroupConvolution" version="opset1">
			<data auto_pad="explicit" dilations="1,1" pads_begin="1,1" pads_end="1,1" strides="1,1"/>
			<rt_info>
				<attribute name="fused_names" value="L0026_Conv2d_BN/WithoutBiases" version="0"/>
			</rt_info>
			<input>
				<port id="0">
					<dim>1</dim>
					<dim>8</dim>
					<dim>256</dim>
					<dim>448</dim>
				</port>
				<port id="1">
					<dim>8</dim>
					<dim>1</dim>
					<dim>1</dim>
					<dim>3</dim>
					<dim>3</dim>
				</port>
			</input>
			<output>
				<port id="2" precision="FP32">
					<dim>1</dim>
					<dim>8</dim>
					<dim>256</dim>
					<dim>448</dim>
				</port>
			</output>
		</layer>
		<layer id="258" name="L0026_Conv2d_BN/Dims6377114228738" type="Const" version="opset1">
			<data element_type="f16" offset="4252" shape="1,8,1,1" size="16"/>
			<output>
				<port id="0" precision="FP16">
					<dim>1</dim>
					<dim>8</dim>
					<dim>1</dim>
					<dim>1</dim>
				</port>
			</output>
		</layer>
		<layer id="259" name="L0026_Conv2d_BN/Dims6377114215379/restored_convert" type="Convert" version="opset1">
			<data destination_type="f32"/>
			<rt_info>
				<attribute name="decompression" version="0"/>
				<attribute name="fused_names" value="L0026_Conv2d_BN/Dims6377" version="0"/>
			</rt_info>
			<input>
				<port id="0">
					<dim>1</dim>
					<dim>8</dim>
					<dim>1</dim>
					<dim>1</dim>
				</port>
			</input>
			<output>
				<port id="1" precision="FP32">
					<dim>1</dim>
					<dim>8</dim>
					<dim>1</dim>
					<dim>1</dim>
				</port>
			</output>
		</layer>
		<layer id="260" name="L0026_Conv2d_BN" type="Add" version="opset1">
			<data auto_broadcast="numpy"/>
			<rt_info>
				<attribute name="fused_names" value="L0026_Conv2d_BN" version="0"/>
			</rt_info>
			<input>
				<port id="0">
					<dim>1</dim>
					<dim>8</dim>
					<dim>256</dim>
					<dim>448</dim>
				</port>
				<port id="1">
					<dim>1</dim>
					<dim>8</dim>
					<dim>1</dim>
					<dim>1</dim>
				</port>
			</input>
			<output>
				<port id="2" names="L0026_Conv2d_BN" precision="FP32">
					<dim>1</dim>
					<dim>8</dim>
					<dim>256</dim>
					<dim>448</dim>
				</port>
			</output>
		</layer>
		<layer id="261" name="L0027_ReLU" type="ReLU" version="opset1">
			<rt_info>
				<attribute name="fused_names" value="L0027_ReLU" version="0"/>
			</rt_info>
			<input>
				<port id="0">
					<dim>1</dim>
					<dim>8</dim>
					<dim>256</dim>
					<dim>448</dim>
				</port>
			</input>
			<output>
				<port id="1" names="L0027_ReLU" precision="FP32">
					<dim>1</dim>
					<dim>8</dim>
					<dim>256</dim>
					<dim>448</dim>
				</port>
			</output>
		</layer>
		<layer id="262" name="L0028_Conv2d_BN/WithoutBiases/fq_input_0" type="FakeQuantize" version="opset1">
			<data auto_broadcast="numpy" levels="256"/>
			<input>
				<port id="0">
					<dim>1</dim>
					<dim>8</dim>
					<dim>256</dim>
					<dim>448</dim>
				</port>
				<port id="1"/>
				<port id="2"/>
				<port id="3"/>
				<port id="4"/>
			</input>
			<output>
				<port id="5" precision="FP32">
					<dim>1</dim>
					<dim>8</dim>
					<dim>256</dim>
					<dim>448</dim>
				</port>
			</output>
		</layer>
		<layer id="263" name="501114615380/restored_convert/quantized2047930580" type="Const" version="opset1">
			<data element_type="i8" offset="4268" shape="32,8,1,1" size="256"/>
			<output>
				<port id="0" precision="I8">
					<dim>32</dim>
					<dim>8</dim>
					<dim>1</dim>
					<dim>1</dim>
				</port>
			</output>
		</layer>
		<layer id="264" name="501114615380/restored_convert/quantized/to_f32" type="Convert" version="opset1">
			<data destination_type="f32"/>
			<input>
				<port id="0">
					<dim>32</dim>
					<dim>8</dim>
					<dim>1</dim>
					<dim>1</dim>
				</port>
			</input>
			<output>
				<port id="1" precision="FP32">
					<dim>32</dim>
					<dim>8</dim>
					<dim>1</dim>
					<dim>1</dim>
				</port>
			</output>
		</layer>
		<layer id="265" name="L0028_Conv2d_BN/WithoutBiases/fq_weights_1/zero_point2049827511" type="Const" version="opset1">
			<data element_type="f32" offset="4524" shape="32,1,1,1" size="128"/>
			<output>
				<port id="0" precision="FP32">
					<dim>32</dim>
					<dim>1</dim>
					<dim>1</dim>
					<dim>1</dim>
				</port>
			</output>
		</layer>
		<layer id="266" name="L0028_Conv2d_BN/WithoutBiases/fq_weights_1/minus_zp" type="Subtract" version="opset1">
			<data auto_broadcast="numpy"/>
			<input>
				<port id="0">
					<dim>32</dim>
					<dim>8</dim>
					<dim>1</dim>
					<dim>1</dim>
				</port>
				<port id="1">
					<dim>32</dim>
					<dim>1</dim>
					<dim>1</dim>
					<dim>1</dim>
				</port>
			</input>
			<output>
				<port id="2" precision="FP32">
					<dim>32</dim>
					<dim>8</dim>
					<dim>1</dim>
					<dim>1</dim>
				</port>
			</output>
		</layer>
		<layer id="267" name="L0028_Conv2d_BN/WithoutBiases/fq_weights_1/scale2048727325" type="Const" version="opset1">
			<data element_type="f32" offset="4652" shape="32,1,1,1" size="128"/>
			<output>
				<port id="0" precision="FP32">
					<dim>32</dim>
					<dim>1</dim>
					<dim>1</dim>
					<dim>1</dim>
				</port>
			</output>
		</layer>
		<layer id="268" name="L0028_Conv2d_BN/WithoutBiases/fq_weights_1/mulpiply_by_scale" type="Multiply" version="opset1">
			<data auto_broadcast="numpy"/>
			<input>
				<port id="0">
					<dim>32</dim>
					<dim>8</dim>
					<dim>1</dim>
					<dim>1</dim>
				</port>
				<port id="1">
					<dim>32</dim>
					<dim>1</dim>
					<dim>1</dim>
					<dim>1</dim>
				</port>
			</input>
			<output>
				<port id="2" precision="FP32">
					<dim>32</dim>
					<dim>8</dim>
					<dim>1</dim>
					<dim>1</dim>
				</port>
			</output>
		</layer>
		<layer id="269" name="L0028_Conv2d_BN/WithoutBiases" type="Convolution" version="opset1">
			<data auto_pad="explicit" dilations="1,1" pads_begin="0,0" pads_end="0,0" strides="1,1"/>
			<rt_info>
				<attribute name="fused_names" value="L0028_Conv2d_BN/WithoutBiases" version="0"/>
			</rt_info>
			<input>
				<port id="0">
					<dim>1</dim>
					<dim>8</dim>
					<dim>256</dim>
					<dim>448</dim>
				</port>
				<port id="1">
					<dim>32</dim>
					<dim>8</dim>
					<dim>1</dim>
					<dim>1</dim>
				</port>
			</input>
			<output>
				<port id="2" precision="FP32">
					<dim>1</dim>
					<dim>32</dim>
					<dim>256</dim>
					<dim>448</dim>
				</port>
			</output>
		</layer>
		<layer id="270" name="L0028_Conv2d_BN/Dims6203114927706" type="Const" version="opset1">
			<data element_type="f16" offset="4780" shape="1,32,1,1" size="64"/>
			<output>
				<port id="0" precision="FP16">
					<dim>1</dim>
					<dim>32</dim>
					<dim>1</dim>
					<dim>1</dim>
				</port>
			</output>
		</layer>
		<layer id="271" name="L0028_Conv2d_BN/Dims6203114915381/restored_convert" type="Convert" version="opset1">
			<data destination_type="f32"/>
			<rt_info>
				<attribute name="decompression" version="0"/>
				<attribute name="fused_names" value="L0028_Conv2d_BN/Dims6203" version="0"/>
			</rt_info>
			<input>
				<port id="0">
					<dim>1</dim>
					<dim>32</dim>
					<dim>1</dim>
					<dim>1</dim>
				</port>
			</input>
			<output>
				<port id="1" precision="FP32">
					<dim>1</dim>
					<dim>32</dim>
					<dim>1</dim>
					<dim>1</dim>
				</port>
			</output>
		</layer>
		<layer id="272" name="L0028_Conv2d_BN" type="Add" version="opset1">
			<data auto_broadcast="numpy"/>
			<rt_info>
				<attribute name="fused_names" value="L0028_Conv2d_BN" version="0"/>
			</rt_info>
			<input>
				<port id="0">
					<dim>1</dim>
					<dim>32</dim>
					<dim>256</dim>
					<dim>448</dim>
				</port>
				<port id="1">
					<dim>1</dim>
					<dim>32</dim>
					<dim>1</dim>
					<dim>1</dim>
				</port>
			</input>
			<output>
				<port id="2" names="L0028_Conv2d_BN" precision="FP32">
					<dim>1</dim>
					<dim>32</dim>
					<dim>256</dim>
					<dim>448</dim>
				</port>
			</output>
		</layer>
		<layer id="273" name="L0030_AddBackward1/fq_input_0" type="FakeQuantize" version="opset1">
			<data auto_broadcast="numpy" levels="256"/>
			<input>
				<port id="0">
					<dim>1</dim>
					<dim>32</dim>
					<dim>256</dim>
					<dim>448</dim>
				</port>
				<port id="1"/>
				<port id="2"/>
				<port id="3"/>
				<port id="4"/>
			</input>
			<output>
				<port id="5" precision="FP32">
					<dim>1</dim>
					<dim>32</dim>
					<dim>256</dim>
					<dim>448</dim>
				</port>
			</output>
		</layer>
		<layer id="274" name="4761476530463" type="Const" version="opset1">
			<data element_type="f32" offset="4844" shape="" size="4"/>
			<output>
				<port id="0" precision="FP32"/>
			</output>
		</layer>
		<layer id="275" name="4762476630496" type="Const" version="opset1">
			<data element_type="f32" offset="4848" shape="" size="4"/>
			<output>
				<port id="0" precision="FP32"/>
			</output>
		</layer>
		<layer id="276" name="4763476728273" type="Const" version="opset1">
			<data element_type="f32" offset="4844" shape="" size="4"/>
			<output>
				<port id="0" precision="FP32"/>
			</output>
		</layer>
		<layer id="277" name="4764476830706" type="Const" version="opset1">
			<data element_type="f32" offset="4848" shape="" size="4"/>
			<output>
				<port id="0" precision="FP32"/>
			</output>
		</layer>
		<layer id="278" name="579115215382/restored_convert/quantized2152930265" type="Const" version="opset1">
			<data element_type="i8" offset="4852" shape="32,24,1,1" size="768"/>
			<output>
				<port id="0" precision="I8">
					<dim>32</dim>
					<dim>24</dim>
					<dim>1</dim>
					<dim>1</dim>
				</port>
			</output>
		</layer>
		<layer id="279" name="579115215382/restored_convert/quantized/to_f32" type="Convert" version="opset1">
			<data destination_type="f32"/>
			<input>
				<port id="0">
					<dim>32</dim>
					<dim>24</dim>
					<dim>1</dim>
					<dim>1</dim>
				</port>
			</input>
			<output>
				<port id="1" precision="FP32">
					<dim>32</dim>
					<dim>24</dim>
					<dim>1</dim>
					<dim>1</dim>
				</port>
			</output>
		</layer>
		<layer id="280" name="L0029_Conv2d_BN/WithoutBiases/fq_weights_1/zero_point2154829803" type="Const" version="opset1">
			<data element_type="f32" offset="5620" shape="32,1,1,1" size="128"/>
			<output>
				<port id="0" precision="FP32">
					<dim>32</dim>
					<dim>1</dim>
					<dim>1</dim>
					<dim>1</dim>
				</port>
			</output>
		</layer>
		<layer id="281" name="L0029_Conv2d_BN/WithoutBiases/fq_weights_1/minus_zp" type="Subtract" version="opset1">
			<data auto_broadcast="numpy"/>
			<input>
				<port id="0">
					<dim>32</dim>
					<dim>24</dim>
					<dim>1</dim>
					<dim>1</dim>
				</port>
				<port id="1">
					<dim>32</dim>
					<dim>1</dim>
					<dim>1</dim>
					<dim>1</dim>
				</port>
			</input>
			<output>
				<port id="2" precision="FP32">
					<dim>32</dim>
					<dim>24</dim>
					<dim>1</dim>
					<dim>1</dim>
				</port>
			</output>
		</layer>
		<layer id="282" name="L0029_Conv2d_BN/WithoutBiases/fq_weights_1/scale2153728567" type="Const" version="opset1">
			<data element_type="f32" offset="5748" shape="32,1,1,1" size="128"/>
			<output>
				<port id="0" precision="FP32">
					<dim>32</dim>
					<dim>1</dim>
					<dim>1</dim>
					<dim>1</dim>
				</port>
			</output>
		</layer>
		<layer id="283" name="L0029_Conv2d_BN/WithoutBiases/fq_weights_1/mulpiply_by_scale" type="Multiply" version="opset1">
			<data auto_broadcast="numpy"/>
			<input>
				<port id="0">
					<dim>32</dim>
					<dim>24</dim>
					<dim>1</dim>
					<dim>1</dim>
				</port>
				<port id="1">
					<dim>32</dim>
					<dim>1</dim>
					<dim>1</dim>
					<dim>1</dim>
				</port>
			</input>
			<output>
				<port id="2" precision="FP32">
					<dim>32</dim>
					<dim>24</dim>
					<dim>1</dim>
					<dim>1</dim>
				</port>
			</output>
		</layer>
		<layer id="284" name="L0029_Conv2d_BN/WithoutBiases" type="Convolution" version="opset1">
			<data auto_pad="explicit" dilations="1,1" pads_begin="0,0" pads_end="0,0" strides="1,1"/>
			<rt_info>
				<attribute name="fused_names" value="L0029_Conv2d_BN/WithoutBiases" version="0"/>
			</rt_info>
			<input>
				<port id="0">
					<dim>1</dim>
					<dim>24</dim>
					<dim>256</dim>
					<dim>448</dim>
				</port>
				<port id="1">
					<dim>32</dim>
					<dim>24</dim>
					<dim>1</dim>
					<dim>1</dim>
				</port>
			</input>
			<output>
				<port id="2" precision="FP32">
					<dim>1</dim>
					<dim>32</dim>
					<dim>256</dim>
					<dim>448</dim>
				</port>
			</output>
		</layer>
		<layer id="285" name="L0029_Conv2d_BN/Dims6473115527985" type="Const" version="opset1">
			<data element_type="f16" offset="5876" shape="1,32,1,1" size="64"/>
			<output>
				<port id="0" precision="FP16">
					<dim>1</dim>
					<dim>32</dim>
					<dim>1</dim>
					<dim>1</dim>
				</port>
			</output>
		</layer>
		<layer id="286" name="L0029_Conv2d_BN/Dims6473115515383/restored_convert" type="Convert" version="opset1">
			<data destination_type="f32"/>
			<rt_info>
				<attribute name="decompression" version="0"/>
				<attribute name="fused_names" value="L0029_Conv2d_BN/Dims6473" version="0"/>
			</rt_info>
			<input>
				<port id="0">
					<dim>1</dim>
					<dim>32</dim>
					<dim>1</dim>
					<dim>1</dim>
				</port>
			</input>
			<output>
				<port id="1" precision="FP32">
					<dim>1</dim>
					<dim>32</dim>
					<dim>1</dim>
					<dim>1</dim>
				</port>
			</output>
		</layer>
		<layer id="287" name="L0029_Conv2d_BN" type="Add" version="opset1">
			<data auto_broadcast="numpy"/>
			<rt_info>
				<attribute name="fused_names" value="L0029_Conv2d_BN" version="0"/>
			</rt_info>
			<input>
				<port id="0">
					<dim>1</dim>
					<dim>32</dim>
					<dim>256</dim>
					<dim>448</dim>
				</port>
				<port id="1">
					<dim>1</dim>
					<dim>32</dim>
					<dim>1</dim>
					<dim>1</dim>
				</port>
			</input>
			<output>
				<port id="2" names="L0029_Conv2d_BN" precision="FP32">
					<dim>1</dim>
					<dim>32</dim>
					<dim>256</dim>
					<dim>448</dim>
				</port>
			</output>
		</layer>
		<layer id="288" name="L0030_AddBackward1/fq_input_1" type="FakeQuantize" version="opset1">
			<data auto_broadcast="numpy" levels="256"/>
			<input>
				<port id="0">
					<dim>1</dim>
					<dim>32</dim>
					<dim>256</dim>
					<dim>448</dim>
				</port>
				<port id="1"/>
				<port id="2"/>
				<port id="3"/>
				<port id="4"/>
			</input>
			<output>
				<port id="5" precision="FP32">
					<dim>1</dim>
					<dim>32</dim>
					<dim>256</dim>
					<dim>448</dim>
				</port>
			</output>
		</layer>
		<layer id="289" name="L0030_AddBackward1" type="Add" version="opset1">
			<data auto_broadcast="numpy"/>
			<rt_info>
				<attribute name="fused_names" value="L0030_AddBackward1" version="0"/>
			</rt_info>
			<input>
				<port id="0">
					<dim>1</dim>
					<dim>32</dim>
					<dim>256</dim>
					<dim>448</dim>
				</port>
				<port id="1">
					<dim>1</dim>
					<dim>32</dim>
					<dim>256</dim>
					<dim>448</dim>
				</port>
			</input>
			<output>
				<port id="2" names="L0030_AddBackward1" precision="FP32">
					<dim>1</dim>
					<dim>32</dim>
					<dim>256</dim>
					<dim>448</dim>
				</port>
			</output>
		</layer>
		<layer id="290" name="L0031_ReLU" type="ReLU" version="opset1">
			<rt_info>
				<attribute name="fused_names" value="L0031_ReLU" version="0"/>
			</rt_info>
			<input>
				<port id="0">
					<dim>1</dim>
					<dim>32</dim>
					<dim>256</dim>
					<dim>448</dim>
				</port>
			</input>
			<output>
				<port id="1" names="L0031_ReLU" precision="FP32">
					<dim>1</dim>
					<dim>32</dim>
					<dim>256</dim>
					<dim>448</dim>
				</port>
			</output>
		</layer>
		<layer id="291" name="L0032_Conv2d_BN/WithoutBiases/fq_input_0" type="FakeQuantize" version="opset1">
			<data auto_broadcast="numpy" levels="256"/>
			<input>
				<port id="0">
					<dim>1</dim>
					<dim>32</dim>
					<dim>256</dim>
					<dim>448</dim>
				</port>
				<port id="1"/>
				<port id="2"/>
				<port id="3"/>
				<port id="4"/>
			</input>
			<output>
				<port id="5" precision="FP32">
					<dim>1</dim>
					<dim>32</dim>
					<dim>256</dim>
					<dim>448</dim>
				</port>
			</output>
		</layer>
		<layer id="292" name="525116015384/restored_convert/quantized1810927715" type="Const" version="opset1">
			<data element_type="i8" offset="5940" shape="8,32,1,1" size="256"/>
			<output>
				<port id="0" precision="I8">
					<dim>8</dim>
					<dim>32</dim>
					<dim>1</dim>
					<dim>1</dim>
				</port>
			</output>
		</layer>
		<layer id="293" name="525116015384/restored_convert/quantized/to_f32" type="Convert" version="opset1">
			<data destination_type="f32"/>
			<input>
				<port id="0">
					<dim>8</dim>
					<dim>32</dim>
					<dim>1</dim>
					<dim>1</dim>
				</port>
			</input>
			<output>
				<port id="1" precision="FP32">
					<dim>8</dim>
					<dim>32</dim>
					<dim>1</dim>
					<dim>1</dim>
				</port>
			</output>
		</layer>
		<layer id="294" name="L0032_Conv2d_BN/WithoutBiases/fq_weights_1/zero_point1812827937" type="Const" version="opset1">
			<data element_type="f32" offset="6196" shape="8,1,1,1" size="32"/>
			<output>
				<port id="0" precision="FP32">
					<dim>8</dim>
					<dim>1</dim>
					<dim>1</dim>
					<dim>1</dim>
				</port>
			</output>
		</layer>
		<layer id="295" name="L0032_Conv2d_BN/WithoutBiases/fq_weights_1/minus_zp" type="Subtract" version="opset1">
			<data auto_broadcast="numpy"/>
			<input>
				<port id="0">
					<dim>8</dim>
					<dim>32</dim>
					<dim>1</dim>
					<dim>1</dim>
				</port>
				<port id="1">
					<dim>8</dim>
					<dim>1</dim>
					<dim>1</dim>
					<dim>1</dim>
				</port>
			</input>
			<output>
				<port id="2" precision="FP32">
					<dim>8</dim>
					<dim>32</dim>
					<dim>1</dim>
					<dim>1</dim>
				</port>
			</output>
		</layer>
		<layer id="296" name="L0032_Conv2d_BN/WithoutBiases/fq_weights_1/scale1811727805" type="Const" version="opset1">
			<data element_type="f32" offset="6228" shape="8,1,1,1" size="32"/>
			<output>
				<port id="0" precision="FP32">
					<dim>8</dim>
					<dim>1</dim>
					<dim>1</dim>
					<dim>1</dim>
				</port>
			</output>
		</layer>
		<layer id="297" name="L0032_Conv2d_BN/WithoutBiases/fq_weights_1/mulpiply_by_scale" type="Multiply" version="opset1">
			<data auto_broadcast="numpy"/>
			<input>
				<port id="0">
					<dim>8</dim>
					<dim>32</dim>
					<dim>1</dim>
					<dim>1</dim>
				</port>
				<port id="1">
					<dim>8</dim>
					<dim>1</dim>
					<dim>1</dim>
					<dim>1</dim>
				</port>
			</input>
			<output>
				<port id="2" precision="FP32">
					<dim>8</dim>
					<dim>32</dim>
					<dim>1</dim>
					<dim>1</dim>
				</port>
			</output>
		</layer>
		<layer id="298" name="L0032_Conv2d_BN/WithoutBiases" type="Convolution" version="opset1">
			<data auto_pad="explicit" dilations="1,1" pads_begin="0,0" pads_end="0,0" strides="1,1"/>
			<rt_info>
				<attribute name="fused_names" value="L0032_Conv2d_BN/WithoutBiases" version="0"/>
			</rt_info>
			<input>
				<port id="0">
					<dim>1</dim>
					<dim>32</dim>
					<dim>256</dim>
					<dim>448</dim>
				</port>
				<port id="1">
					<dim>8</dim>
					<dim>32</dim>
					<dim>1</dim>
					<dim>1</dim>
				</port>
			</input>
			<output>
				<port id="2" precision="FP32">
					<dim>1</dim>
					<dim>8</dim>
					<dim>256</dim>
					<dim>448</dim>
				</port>
			</output>
		</layer>
		<layer id="299" name="L0032_Conv2d_BN/Dims6005116328027" type="Const" version="opset1">
			<data element_type="f16" offset="6260" shape="1,8,1,1" size="16"/>
			<output>
				<port id="0" precision="FP16">
					<dim>1</dim>
					<dim>8</dim>
					<dim>1</dim>
					<dim>1</dim>
				</port>
			</output>
		</layer>
		<layer id="300" name="L0032_Conv2d_BN/Dims6005116315385/restored_convert" type="Convert" version="opset1">
			<data destination_type="f32"/>
			<rt_info>
				<attribute name="decompression" version="0"/>
				<attribute name="fused_names" value="L0032_Conv2d_BN/Dims6005" version="0"/>
			</rt_info>
			<input>
				<port id="0">
					<dim>1</dim>
					<dim>8</dim>
					<dim>1</dim>
					<dim>1</dim>
				</port>
			</input>
			<output>
				<port id="1" precision="FP32">
					<dim>1</dim>
					<dim>8</dim>
					<dim>1</dim>
					<dim>1</dim>
				</port>
			</output>
		</layer>
		<layer id="301" name="L0032_Conv2d_BN" type="Add" version="opset1">
			<data auto_broadcast="numpy"/>
			<rt_info>
				<attribute name="fused_names" value="L0032_Conv2d_BN" version="0"/>
			</rt_info>
			<input>
				<port id="0">
					<dim>1</dim>
					<dim>8</dim>
					<dim>256</dim>
					<dim>448</dim>
				</port>
				<port id="1">
					<dim>1</dim>
					<dim>8</dim>
					<dim>1</dim>
					<dim>1</dim>
				</port>
			</input>
			<output>
				<port id="2" names="L0032_Conv2d_BN" precision="FP32">
					<dim>1</dim>
					<dim>8</dim>
					<dim>256</dim>
					<dim>448</dim>
				</port>
			</output>
		</layer>
		<layer id="302" name="L0033_ReLU" type="ReLU" version="opset1">
			<rt_info>
				<attribute name="fused_names" value="L0033_ReLU" version="0"/>
			</rt_info>
			<input>
				<port id="0">
					<dim>1</dim>
					<dim>8</dim>
					<dim>256</dim>
					<dim>448</dim>
				</port>
			</input>
			<output>
				<port id="1" names="L0033_ReLU" precision="FP32">
					<dim>1</dim>
					<dim>8</dim>
					<dim>256</dim>
					<dim>448</dim>
				</port>
			</output>
		</layer>
		<layer id="303" name="L0034_Conv2d_BN/WithoutBiases/fq_input_0" type="FakeQuantize" version="opset1">
			<data auto_broadcast="numpy" levels="256"/>
			<input>
				<port id="0">
					<dim>1</dim>
					<dim>8</dim>
					<dim>256</dim>
					<dim>448</dim>
				</port>
				<port id="1">
					<dim>1</dim>
					<dim>8</dim>
					<dim>1</dim>
					<dim>1</dim>
				</port>
				<port id="2">
					<dim>1</dim>
					<dim>8</dim>
					<dim>1</dim>
					<dim>1</dim>
				</port>
				<port id="3">
					<dim>1</dim>
					<dim>8</dim>
					<dim>1</dim>
					<dim>1</dim>
				</port>
				<port id="4">
					<dim>1</dim>
					<dim>8</dim>
					<dim>1</dim>
					<dim>1</dim>
				</port>
			</input>
			<output>
				<port id="5" precision="FP32">
					<dim>1</dim>
					<dim>8</dim>
					<dim>256</dim>
					<dim>448</dim>
				</port>
			</output>
		</layer>
		<layer id="304" name="24320/value2432230427" type="Const" version="opset1">
			<data element_type="i64" offset="1084" shape="5" size="40"/>
			<output>
				<port id="0" precision="I64">
					<dim>5</dim>
				</port>
			</output>
		</layer>
		<layer id="305" name="375116715386/restored_convert/quantized1870929461" type="Const" version="opset1">
			<data element_type="i8" offset="6276" shape="8,1,3,3" size="72"/>
			<output>
				<port id="0" precision="I8">
					<dim>8</dim>
					<dim>1</dim>
					<dim>3</dim>
					<dim>3</dim>
				</port>
			</output>
		</layer>
		<layer id="306" name="375116715386/restored_convert/quantized/to_f32" type="Convert" version="opset1">
			<data destination_type="f32"/>
			<input>
				<port id="0">
					<dim>8</dim>
					<dim>1</dim>
					<dim>3</dim>
					<dim>3</dim>
				</port>
			</input>
			<output>
				<port id="1" precision="FP32">
					<dim>8</dim>
					<dim>1</dim>
					<dim>3</dim>
					<dim>3</dim>
				</port>
			</output>
		</layer>
		<layer id="307" name="L0034_Conv2d_BN/WithoutBiases/fq_weights_1/zero_point1872829449" type="Const" version="opset1">
			<data element_type="f32" offset="1196" shape="8,1,1,1" size="32"/>
			<output>
				<port id="0" precision="FP32">
					<dim>8</dim>
					<dim>1</dim>
					<dim>1</dim>
					<dim>1</dim>
				</port>
			</output>
		</layer>
		<layer id="308" name="L0034_Conv2d_BN/WithoutBiases/fq_weights_1/minus_zp" type="Subtract" version="opset1">
			<data auto_broadcast="numpy"/>
			<input>
				<port id="0">
					<dim>8</dim>
					<dim>1</dim>
					<dim>3</dim>
					<dim>3</dim>
				</port>
				<port id="1">
					<dim>8</dim>
					<dim>1</dim>
					<dim>1</dim>
					<dim>1</dim>
				</port>
			</input>
			<output>
				<port id="2" precision="FP32">
					<dim>8</dim>
					<dim>1</dim>
					<dim>3</dim>
					<dim>3</dim>
				</port>
			</output>
		</layer>
		<layer id="309" name="L0034_Conv2d_BN/WithoutBiases/fq_weights_1/scale1871730118" type="Const" version="opset1">
			<data element_type="f32" offset="6348" shape="8,1,1,1" size="32"/>
			<output>
				<port id="0" precision="FP32">
					<dim>8</dim>
					<dim>1</dim>
					<dim>1</dim>
					<dim>1</dim>
				</port>
			</output>
		</layer>
		<layer id="310" name="L0034_Conv2d_BN/WithoutBiases/fq_weights_1/mulpiply_by_scale" type="Multiply" version="opset1">
			<data auto_broadcast="numpy"/>
			<input>
				<port id="0">
					<dim>8</dim>
					<dim>1</dim>
					<dim>3</dim>
					<dim>3</dim>
				</port>
				<port id="1">
					<dim>8</dim>
					<dim>1</dim>
					<dim>1</dim>
					<dim>1</dim>
				</port>
			</input>
			<output>
				<port id="2" precision="FP32">
					<dim>8</dim>
					<dim>1</dim>
					<dim>3</dim>
					<dim>3</dim>
				</port>
			</output>
		</layer>
		<layer id="311" name="24320" type="Reshape" version="opset1">
			<data special_zero="true"/>
			<input>
				<port id="0">
					<dim>8</dim>
					<dim>1</dim>
					<dim>3</dim>
					<dim>3</dim>
				</port>
				<port id="1">
					<dim>5</dim>
				</port>
			</input>
			<output>
				<port id="2" precision="FP32">
					<dim>8</dim>
					<dim>1</dim>
					<dim>1</dim>
					<dim>3</dim>
					<dim>3</dim>
				</port>
			</output>
		</layer>
		<layer id="312" name="L0034_Conv2d_BN/WithoutBiases" type="GroupConvolution" version="opset1">
			<data auto_pad="explicit" dilations="1,1" pads_begin="1,1" pads_end="1,1" strides="1,1"/>
			<rt_info>
				<attribute name="fused_names" value="L0034_Conv2d_BN/WithoutBiases" version="0"/>
			</rt_info>
			<input>
				<port id="0">
					<dim>1</dim>
					<dim>8</dim>
					<dim>256</dim>
					<dim>448</dim>
				</port>
				<port id="1">
					<dim>8</dim>
					<dim>1</dim>
					<dim>1</dim>
					<dim>3</dim>
					<dim>3</dim>
				</port>
			</input>
			<output>
				<port id="2" precision="FP32">
					<dim>1</dim>
					<dim>8</dim>
					<dim>256</dim>
					<dim>448</dim>
				</port>
			</output>
		</layer>
		<layer id="313" name="L0034_Conv2d_BN/Dims5705117028750" type="Const" version="opset1">
			<data element_type="f16" offset="6380" shape="1,8,1,1" size="16"/>
			<output>
				<port id="0" precision="FP16">
					<dim>1</dim>
					<dim>8</dim>
					<dim>1</dim>
					<dim>1</dim>
				</port>
			</output>
		</layer>
		<layer id="314" name="L0034_Conv2d_BN/Dims5705117015387/restored_convert" type="Convert" version="opset1">
			<data destination_type="f32"/>
			<rt_info>
				<attribute name="decompression" version="0"/>
				<attribute name="fused_names" value="L0034_Conv2d_BN/Dims5705" version="0"/>
			</rt_info>
			<input>
				<port id="0">
					<dim>1</dim>
					<dim>8</dim>
					<dim>1</dim>
					<dim>1</dim>
				</port>
			</input>
			<output>
				<port id="1" precision="FP32">
					<dim>1</dim>
					<dim>8</dim>
					<dim>1</dim>
					<dim>1</dim>
				</port>
			</output>
		</layer>
		<layer id="315" name="L0034_Conv2d_BN" type="Add" version="opset1">
			<data auto_broadcast="numpy"/>
			<rt_info>
				<attribute name="fused_names" value="L0034_Conv2d_BN" version="0"/>
			</rt_info>
			<input>
				<port id="0">
					<dim>1</dim>
					<dim>8</dim>
					<dim>256</dim>
					<dim>448</dim>
				</port>
				<port id="1">
					<dim>1</dim>
					<dim>8</dim>
					<dim>1</dim>
					<dim>1</dim>
				</port>
			</input>
			<output>
				<port id="2" names="L0034_Conv2d_BN" precision="FP32">
					<dim>1</dim>
					<dim>8</dim>
					<dim>256</dim>
					<dim>448</dim>
				</port>
			</output>
		</layer>
		<layer id="316" name="L0035_ReLU" type="ReLU" version="opset1">
			<rt_info>
				<attribute name="fused_names" value="L0035_ReLU" version="0"/>
			</rt_info>
			<input>
				<port id="0">
					<dim>1</dim>
					<dim>8</dim>
					<dim>256</dim>
					<dim>448</dim>
				</port>
			</input>
			<output>
				<port id="1" names="L0035_ReLU" precision="FP32">
					<dim>1</dim>
					<dim>8</dim>
					<dim>256</dim>
					<dim>448</dim>
				</port>
			</output>
		</layer>
		<layer id="317" name="L0036_Conv2d_BN/WithoutBiases/fq_input_0" type="FakeQuantize" version="opset1">
			<data auto_broadcast="numpy" levels="256"/>
			<input>
				<port id="0">
					<dim>1</dim>
					<dim>8</dim>
					<dim>256</dim>
					<dim>448</dim>
				</port>
				<port id="1"/>
				<port id="2"/>
				<port id="3"/>
				<port id="4"/>
			</input>
			<output>
				<port id="5" precision="FP32">
					<dim>1</dim>
					<dim>8</dim>
					<dim>256</dim>
					<dim>448</dim>
				</port>
			</output>
		</layer>
		<layer id="318" name="527117415388/restored_convert/quantized2113927775" type="Const" version="opset1">
			<data element_type="i8" offset="6396" shape="32,8,1,1" size="256"/>
			<output>
				<port id="0" precision="I8">
					<dim>32</dim>
					<dim>8</dim>
					<dim>1</dim>
					<dim>1</dim>
				</port>
			</output>
		</layer>
		<layer id="319" name="527117415388/restored_convert/quantized/to_f32" type="Convert" version="opset1">
			<data destination_type="f32"/>
			<input>
				<port id="0">
					<dim>32</dim>
					<dim>8</dim>
					<dim>1</dim>
					<dim>1</dim>
				</port>
			</input>
			<output>
				<port id="1" precision="FP32">
					<dim>32</dim>
					<dim>8</dim>
					<dim>1</dim>
					<dim>1</dim>
				</port>
			</output>
		</layer>
		<layer id="320" name="L0036_Conv2d_BN/WithoutBiases/fq_weights_1/zero_point2115827703" type="Const" version="opset1">
			<data element_type="f32" offset="6652" shape="32,1,1,1" size="128"/>
			<output>
				<port id="0" precision="FP32">
					<dim>32</dim>
					<dim>1</dim>
					<dim>1</dim>
					<dim>1</dim>
				</port>
			</output>
		</layer>
		<layer id="321" name="L0036_Conv2d_BN/WithoutBiases/fq_weights_1/minus_zp" type="Subtract" version="opset1">
			<data auto_broadcast="numpy"/>
			<input>
				<port id="0">
					<dim>32</dim>
					<dim>8</dim>
					<dim>1</dim>
					<dim>1</dim>
				</port>
				<port id="1">
					<dim>32</dim>
					<dim>1</dim>
					<dim>1</dim>
					<dim>1</dim>
				</port>
			</input>
			<output>
				<port id="2" precision="FP32">
					<dim>32</dim>
					<dim>8</dim>
					<dim>1</dim>
					<dim>1</dim>
				</port>
			</output>
		</layer>
		<layer id="322" name="L0036_Conv2d_BN/WithoutBiases/fq_weights_1/scale2114730439" type="Const" version="opset1">
			<data element_type="f32" offset="6780" shape="32,1,1,1" size="128"/>
			<output>
				<port id="0" precision="FP32">
					<dim>32</dim>
					<dim>1</dim>
					<dim>1</dim>
					<dim>1</dim>
				</port>
			</output>
		</layer>
		<layer id="323" name="L0036_Conv2d_BN/WithoutBiases/fq_weights_1/mulpiply_by_scale" type="Multiply" version="opset1">
			<data auto_broadcast="numpy"/>
			<input>
				<port id="0">
					<dim>32</dim>
					<dim>8</dim>
					<dim>1</dim>
					<dim>1</dim>
				</port>
				<port id="1">
					<dim>32</dim>
					<dim>1</dim>
					<dim>1</dim>
					<dim>1</dim>
				</port>
			</input>
			<output>
				<port id="2" precision="FP32">
					<dim>32</dim>
					<dim>8</dim>
					<dim>1</dim>
					<dim>1</dim>
				</port>
			</output>
		</layer>
		<layer id="324" name="L0036_Conv2d_BN/WithoutBiases" type="Convolution" version="opset1">
			<data auto_pad="explicit" dilations="1,1" pads_begin="0,0" pads_end="0,0" strides="1,1"/>
			<rt_info>
				<attribute name="fused_names" value="L0036_Conv2d_BN/WithoutBiases" version="0"/>
			</rt_info>
			<input>
				<port id="0">
					<dim>1</dim>
					<dim>8</dim>
					<dim>256</dim>
					<dim>448</dim>
				</port>
				<port id="1">
					<dim>32</dim>
					<dim>8</dim>
					<dim>1</dim>
					<dim>1</dim>
				</port>
			</input>
			<output>
				<port id="2" precision="FP32">
					<dim>1</dim>
					<dim>32</dim>
					<dim>256</dim>
					<dim>448</dim>
				</port>
			</output>
		</layer>
		<layer id="325" name="L0036_Conv2d_BN/Dims6443117729017" type="Const" version="opset1">
			<data element_type="f16" offset="6908" shape="1,32,1,1" size="64"/>
			<output>
				<port id="0" precision="FP16">
					<dim>1</dim>
					<dim>32</dim>
					<dim>1</dim>
					<dim>1</dim>
				</port>
			</output>
		</layer>
		<layer id="326" name="L0036_Conv2d_BN/Dims6443117715389/restored_convert" type="Convert" version="opset1">
			<data destination_type="f32"/>
			<rt_info>
				<attribute name="decompression" version="0"/>
				<attribute name="fused_names" value="L0036_Conv2d_BN/Dims6443" version="0"/>
			</rt_info>
			<input>
				<port id="0">
					<dim>1</dim>
					<dim>32</dim>
					<dim>1</dim>
					<dim>1</dim>
				</port>
			</input>
			<output>
				<port id="1" precision="FP32">
					<dim>1</dim>
					<dim>32</dim>
					<dim>1</dim>
					<dim>1</dim>
				</port>
			</output>
		</layer>
		<layer id="327" name="L0036_Conv2d_BN" type="Add" version="opset1">
			<data auto_broadcast="numpy"/>
			<rt_info>
				<attribute name="fused_names" value="L0036_Conv2d_BN" version="0"/>
			</rt_info>
			<input>
				<port id="0">
					<dim>1</dim>
					<dim>32</dim>
					<dim>256</dim>
					<dim>448</dim>
				</port>
				<port id="1">
					<dim>1</dim>
					<dim>32</dim>
					<dim>1</dim>
					<dim>1</dim>
				</port>
			</input>
			<output>
				<port id="2" names="L0036_Conv2d_BN" precision="FP32">
					<dim>1</dim>
					<dim>32</dim>
					<dim>256</dim>
					<dim>448</dim>
				</port>
			</output>
		</layer>
		<layer id="328" name="L0037_AddBackward1/fq_input_0" type="FakeQuantize" version="opset1">
			<data auto_broadcast="numpy" levels="256"/>
			<input>
				<port id="0">
					<dim>1</dim>
					<dim>32</dim>
					<dim>256</dim>
					<dim>448</dim>
				</port>
				<port id="1"/>
				<port id="2"/>
				<port id="3"/>
				<port id="4"/>
			</input>
			<output>
				<port id="5" precision="FP32">
					<dim>1</dim>
					<dim>32</dim>
					<dim>256</dim>
					<dim>448</dim>
				</port>
			</output>
		</layer>
		<layer id="329" name="L0037_AddBackward1" type="Add" version="opset1">
			<data auto_broadcast="numpy"/>
			<rt_info>
				<attribute name="fused_names" value="L0037_AddBackward1" version="0"/>
			</rt_info>
			<input>
				<port id="0">
					<dim>1</dim>
					<dim>32</dim>
					<dim>256</dim>
					<dim>448</dim>
				</port>
				<port id="1">
					<dim>1</dim>
					<dim>32</dim>
					<dim>256</dim>
					<dim>448</dim>
				</port>
			</input>
			<output>
				<port id="2" names="L0037_AddBackward1" precision="FP32">
					<dim>1</dim>
					<dim>32</dim>
					<dim>256</dim>
					<dim>448</dim>
				</port>
			</output>
		</layer>
		<layer id="330" name="L0038_ReLU" type="ReLU" version="opset1">
			<rt_info>
				<attribute name="fused_names" value="L0038_ReLU" version="0"/>
			</rt_info>
			<input>
				<port id="0">
					<dim>1</dim>
					<dim>32</dim>
					<dim>256</dim>
					<dim>448</dim>
				</port>
			</input>
			<output>
				<port id="1" names="L0038_ReLU" precision="FP32">
					<dim>1</dim>
					<dim>32</dim>
					<dim>256</dim>
					<dim>448</dim>
				</port>
			</output>
		</layer>
		<layer id="331" name="L0039_Conv2d_BN/WithoutBiases/fq_input_0" type="FakeQuantize" version="opset1">
			<data auto_broadcast="numpy" levels="256"/>
			<input>
				<port id="0">
					<dim>1</dim>
					<dim>32</dim>
					<dim>256</dim>
					<dim>448</dim>
				</port>
				<port id="1"/>
				<port id="2"/>
				<port id="3"/>
				<port id="4"/>
			</input>
			<output>
				<port id="5" precision="FP32">
					<dim>1</dim>
					<dim>32</dim>
					<dim>256</dim>
					<dim>448</dim>
				</port>
			</output>
		</layer>
		<layer id="332" name="L0044_MaxPool2d" type="MaxPool" version="opset8">
			<data auto_pad="explicit" axis="0" dilations="1,1" index_element_type="i64" kernel="2,2" pads_begin="0,0" pads_end="0,0" rounding_type="ceil" strides="2,2"/>
			<rt_info>
				<attribute name="fused_names" value="L0044_MaxPool2d" version="0"/>
			</rt_info>
			<input>
				<port id="0">
					<dim>1</dim>
					<dim>32</dim>
					<dim>256</dim>
					<dim>448</dim>
				</port>
			</input>
			<output>
				<port id="1" names="L0044_MaxPool2d" precision="FP32">
					<dim>1</dim>
					<dim>32</dim>
					<dim>128</dim>
					<dim>224</dim>
				</port>
				<port id="2" precision="FP32">
					<dim>1</dim>
					<dim>32</dim>
					<dim>128</dim>
					<dim>224</dim>
					<rt_info/>
				</port>
			</output>
		</layer>
		<layer id="334" name="4081408528132" type="Const" version="opset1">
			<data element_type="f32" offset="0" shape="" size="4"/>
			<output>
				<port id="0" precision="FP32"/>
			</output>
		</layer>
		<layer id="335" name="4082408627670" type="Const" version="opset1">
			<data element_type="f32" offset="6972" shape="" size="4"/>
			<output>
				<port id="0" precision="FP32"/>
			</output>
		</layer>
		<layer id="336" name="4083408730826" type="Const" version="opset1">
			<data element_type="f32" offset="0" shape="" size="4"/>
			<output>
				<port id="0" precision="FP32"/>
			</output>
		</layer>
		<layer id="337" name="4084408829938" type="Const" version="opset1">
			<data element_type="f32" offset="6972" shape="" size="4"/>
			<output>
				<port id="0" precision="FP32"/>
			</output>
		</layer>
		<layer id="338" name="4321432531099" type="Const" version="opset1">
			<data element_type="f32" offset="6976" shape="" size="4"/>
			<output>
				<port id="0" precision="FP32"/>
			</output>
		</layer>
		<layer id="339" name="4322432627319" type="Const" version="opset1">
			<data element_type="f32" offset="6980" shape="" size="4"/>
			<output>
				<port id="0" precision="FP32"/>
			</output>
		</layer>
		<layer id="340" name="4323432727283" type="Const" version="opset1">
			<data element_type="f32" offset="6976" shape="" size="4"/>
			<output>
				<port id="0" precision="FP32"/>
			</output>
		</layer>
		<layer id="341" name="4324432830943" type="Const" version="opset1">
			<data element_type="f32" offset="6980" shape="" size="4"/>
			<output>
				<port id="0" precision="FP32"/>
			</output>
		</layer>
		<layer id="342" name="3601360529347" type="Const" version="opset1">
			<data element_type="f32" offset="0" shape="" size="4"/>
			<output>
				<port id="0" precision="FP32"/>
			</output>
		</layer>
		<layer id="343" name="3602360630517" type="Const" version="opset1">
			<data element_type="f32" offset="6984" shape="" size="4"/>
			<output>
				<port id="0" precision="FP32"/>
			</output>
		</layer>
		<layer id="344" name="3603360729575" type="Const" version="opset1">
			<data element_type="f32" offset="0" shape="" size="4"/>
			<output>
				<port id="0" precision="FP32"/>
			</output>
		</layer>
		<layer id="345" name="3604360828600" type="Const" version="opset1">
			<data element_type="f32" offset="6984" shape="" size="4"/>
			<output>
				<port id="0" precision="FP32"/>
			</output>
		</layer>
		<layer id="346" name="4241424528558" type="Const" version="opset1">
			<data element_type="f32" offset="6988" shape="1,16,1,1" size="64"/>
			<output>
				<port id="0" precision="FP32">
					<dim>1</dim>
					<dim>16</dim>
					<dim>1</dim>
					<dim>1</dim>
				</port>
			</output>
		</layer>
		<layer id="347" name="4242424629665" type="Const" version="opset1">
			<data element_type="f32" offset="7052" shape="1,16,1,1" size="64"/>
			<output>
				<port id="0" precision="FP32">
					<dim>1</dim>
					<dim>16</dim>
					<dim>1</dim>
					<dim>1</dim>
				</port>
			</output>
		</layer>
		<layer id="348" name="4243424730967" type="Const" version="opset1">
			<data element_type="f32" offset="6988" shape="1,16,1,1" size="64"/>
			<output>
				<port id="0" precision="FP32">
					<dim>1</dim>
					<dim>16</dim>
					<dim>1</dim>
					<dim>1</dim>
				</port>
			</output>
		</layer>
		<layer id="349" name="4244424829731" type="Const" version="opset1">
			<data element_type="f32" offset="7052" shape="1,16,1,1" size="64"/>
			<output>
				<port id="0" precision="FP32">
					<dim>1</dim>
					<dim>16</dim>
					<dim>1</dim>
					<dim>1</dim>
				</port>
			</output>
		</layer>
		<layer id="350" name="6071607527289" type="Const" version="opset1">
			<data element_type="f32" offset="0" shape="" size="4"/>
			<output>
				<port id="0" precision="FP32"/>
			</output>
		</layer>
		<layer id="351" name="6072607629563" type="Const" version="opset1">
			<data element_type="f32" offset="7116" shape="" size="4"/>
			<output>
				<port id="0" precision="FP32"/>
			</output>
		</layer>
		<layer id="352" name="6073607730649" type="Const" version="opset1">
			<data element_type="f32" offset="0" shape="" size="4"/>
			<output>
				<port id="0" precision="FP32"/>
			</output>
		</layer>
		<layer id="353" name="6074607829743" type="Const" version="opset1">
			<data element_type="f32" offset="7116" shape="" size="4"/>
			<output>
				<port id="0" precision="FP32"/>
			</output>
		</layer>
		<layer id="354" name="4451445530142" type="Const" version="opset1">
			<data element_type="f32" offset="7120" shape="" size="4"/>
			<output>
				<port id="0" precision="FP32"/>
			</output>
		</layer>
		<layer id="355" name="4452445629560" type="Const" version="opset1">
			<data element_type="f32" offset="7124" shape="" size="4"/>
			<output>
				<port id="0" precision="FP32"/>
			</output>
		</layer>
		<layer id="356" name="4453445729464" type="Const" version="opset1">
			<data element_type="f32" offset="7120" shape="" size="4"/>
			<output>
				<port id="0" precision="FP32"/>
			</output>
		</layer>
		<layer id="357" name="4454445828066" type="Const" version="opset1">
			<data element_type="f32" offset="7124" shape="" size="4"/>
			<output>
				<port id="0" precision="FP32"/>
			</output>
		</layer>
		<layer id="358" name="4491449529095" type="Const" version="opset1">
			<data element_type="f32" offset="0" shape="" size="4"/>
			<output>
				<port id="0" precision="FP32"/>
			</output>
		</layer>
		<layer id="359" name="4492449628333" type="Const" version="opset1">
			<data element_type="f32" offset="7128" shape="" size="4"/>
			<output>
				<port id="0" precision="FP32"/>
			</output>
		</layer>
		<layer id="360" name="4493449728864" type="Const" version="opset1">
			<data element_type="f32" offset="0" shape="" size="4"/>
			<output>
				<port id="0" precision="FP32"/>
			</output>
		</layer>
		<layer id="361" name="4494449831042" type="Const" version="opset1">
			<data element_type="f32" offset="7128" shape="" size="4"/>
			<output>
				<port id="0" precision="FP32"/>
			</output>
		</layer>
		<layer id="362" name="3891389529641" type="Const" version="opset1">
			<data element_type="f32" offset="6988" shape="1,16,1,1" size="64"/>
			<output>
				<port id="0" precision="FP32">
					<dim>1</dim>
					<dim>16</dim>
					<dim>1</dim>
					<dim>1</dim>
				</port>
			</output>
		</layer>
		<layer id="363" name="3892389628390" type="Const" version="opset1">
			<data element_type="f32" offset="7132" shape="1,16,1,1" size="64"/>
			<output>
				<port id="0" precision="FP32">
					<dim>1</dim>
					<dim>16</dim>
					<dim>1</dim>
					<dim>1</dim>
				</port>
			</output>
		</layer>
		<layer id="364" name="3893389730667" type="Const" version="opset1">
			<data element_type="f32" offset="6988" shape="1,16,1,1" size="64"/>
			<output>
				<port id="0" precision="FP32">
					<dim>1</dim>
					<dim>16</dim>
					<dim>1</dim>
					<dim>1</dim>
				</port>
			</output>
		</layer>
		<layer id="365" name="3894389828303" type="Const" version="opset1">
			<data element_type="f32" offset="7132" shape="1,16,1,1" size="64"/>
			<output>
				<port id="0" precision="FP32">
					<dim>1</dim>
					<dim>16</dim>
					<dim>1</dim>
					<dim>1</dim>
				</port>
			</output>
		</layer>
		<layer id="366" name="5911591529383" type="Const" version="opset1">
			<data element_type="f32" offset="0" shape="" size="4"/>
			<output>
				<port id="0" precision="FP32"/>
			</output>
		</layer>
		<layer id="367" name="5912591628960" type="Const" version="opset1">
			<data element_type="f32" offset="7196" shape="" size="4"/>
			<output>
				<port id="0" precision="FP32"/>
			</output>
		</layer>
		<layer id="368" name="5913591729041" type="Const" version="opset1">
			<data element_type="f32" offset="0" shape="" size="4"/>
			<output>
				<port id="0" precision="FP32"/>
			</output>
		</layer>
		<layer id="369" name="5914591829854" type="Const" version="opset1">
			<data element_type="f32" offset="7196" shape="" size="4"/>
			<output>
				<port id="0" precision="FP32"/>
			</output>
		</layer>
		<layer id="370" name="5951595528897" type="Const" version="opset1">
			<data element_type="f32" offset="7200" shape="" size="4"/>
			<output>
				<port id="0" precision="FP32"/>
			</output>
		</layer>
		<layer id="371" name="5952595628924" type="Const" version="opset1">
			<data element_type="f32" offset="7204" shape="" size="4"/>
			<output>
				<port id="0" precision="FP32"/>
			</output>
		</layer>
		<layer id="372" name="5953595730817" type="Const" version="opset1">
			<data element_type="f32" offset="7200" shape="" size="4"/>
			<output>
				<port id="0" precision="FP32"/>
			</output>
		</layer>
		<layer id="373" name="5954595829830" type="Const" version="opset1">
			<data element_type="f32" offset="7204" shape="" size="4"/>
			<output>
				<port id="0" precision="FP32"/>
			</output>
		</layer>
		<layer id="374" name="6671667531240" type="Const" version="opset1">
			<data element_type="f32" offset="0" shape="" size="4"/>
			<output>
				<port id="0" precision="FP32"/>
			</output>
		</layer>
		<layer id="375" name="6672667630421" type="Const" version="opset1">
			<data element_type="f32" offset="7208" shape="" size="4"/>
			<output>
				<port id="0" precision="FP32"/>
			</output>
		</layer>
		<layer id="376" name="6673667728810" type="Const" version="opset1">
			<data element_type="f32" offset="0" shape="" size="4"/>
			<output>
				<port id="0" precision="FP32"/>
			</output>
		</layer>
		<layer id="377" name="6674667827556" type="Const" version="opset1">
			<data element_type="f32" offset="7208" shape="" size="4"/>
			<output>
				<port id="0" precision="FP32"/>
			</output>
		</layer>
		<layer id="378" name="3341334528453" type="Const" version="opset1">
			<data element_type="f32" offset="6988" shape="1,16,1,1" size="64"/>
			<output>
				<port id="0" precision="FP32">
					<dim>1</dim>
					<dim>16</dim>
					<dim>1</dim>
					<dim>1</dim>
				</port>
			</output>
		</layer>
		<layer id="379" name="3342334629335" type="Const" version="opset1">
			<data element_type="f32" offset="7212" shape="1,16,1,1" size="64"/>
			<output>
				<port id="0" precision="FP32">
					<dim>1</dim>
					<dim>16</dim>
					<dim>1</dim>
					<dim>1</dim>
				</port>
			</output>
		</layer>
		<layer id="380" name="3343334728834" type="Const" version="opset1">
			<data element_type="f32" offset="6988" shape="1,16,1,1" size="64"/>
			<output>
				<port id="0" precision="FP32">
					<dim>1</dim>
					<dim>16</dim>
					<dim>1</dim>
					<dim>1</dim>
				</port>
			</output>
		</layer>
		<layer id="381" name="3344334830475" type="Const" version="opset1">
			<data element_type="f32" offset="7212" shape="1,16,1,1" size="64"/>
			<output>
				<port id="0" precision="FP32">
					<dim>1</dim>
					<dim>16</dim>
					<dim>1</dim>
					<dim>1</dim>
				</port>
			</output>
		</layer>
		<layer id="382" name="4571457528534" type="Const" version="opset1">
			<data element_type="f32" offset="0" shape="" size="4"/>
			<output>
				<port id="0" precision="FP32"/>
			</output>
		</layer>
		<layer id="383" name="4572457630676" type="Const" version="opset1">
			<data element_type="f32" offset="7276" shape="" size="4"/>
			<output>
				<port id="0" precision="FP32"/>
			</output>
		</layer>
		<layer id="384" name="4573457730034" type="Const" version="opset1">
			<data element_type="f32" offset="0" shape="" size="4"/>
			<output>
				<port id="0" precision="FP32"/>
			</output>
		</layer>
		<layer id="385" name="4574457828771" type="Const" version="opset1">
			<data element_type="f32" offset="7276" shape="" size="4"/>
			<output>
				<port id="0" precision="FP32"/>
			</output>
		</layer>
		<layer id="386" name="3951395529947" type="Const" version="opset1">
			<data element_type="f32" offset="7280" shape="" size="4"/>
			<output>
				<port id="0" precision="FP32"/>
			</output>
		</layer>
		<layer id="387" name="3952395627253" type="Const" version="opset1">
			<data element_type="f32" offset="7284" shape="" size="4"/>
			<output>
				<port id="0" precision="FP32"/>
			</output>
		</layer>
		<layer id="388" name="3953395730361" type="Const" version="opset1">
			<data element_type="f32" offset="7280" shape="" size="4"/>
			<output>
				<port id="0" precision="FP32"/>
			</output>
		</layer>
		<layer id="389" name="3954395827790" type="Const" version="opset1">
			<data element_type="f32" offset="7284" shape="" size="4"/>
			<output>
				<port id="0" precision="FP32"/>
			</output>
		</layer>
		<layer id="390" name="3521352527739" type="Const" version="opset1">
			<data element_type="f32" offset="0" shape="" size="4"/>
			<output>
				<port id="0" precision="FP32"/>
			</output>
		</layer>
		<layer id="391" name="3522352628690" type="Const" version="opset1">
			<data element_type="f32" offset="7288" shape="" size="4"/>
			<output>
				<port id="0" precision="FP32"/>
			</output>
		</layer>
		<layer id="392" name="3523352730175" type="Const" version="opset1">
			<data element_type="f32" offset="0" shape="" size="4"/>
			<output>
				<port id="0" precision="FP32"/>
			</output>
		</layer>
		<layer id="393" name="3524352829944" type="Const" version="opset1">
			<data element_type="f32" offset="7288" shape="" size="4"/>
			<output>
				<port id="0" precision="FP32"/>
			</output>
		</layer>
		<layer id="394" name="4651465527823" type="Const" version="opset1">
			<data element_type="f32" offset="6988" shape="1,16,1,1" size="64"/>
			<output>
				<port id="0" precision="FP32">
					<dim>1</dim>
					<dim>16</dim>
					<dim>1</dim>
					<dim>1</dim>
				</port>
			</output>
		</layer>
		<layer id="395" name="4652465630538" type="Const" version="opset1">
			<data element_type="f32" offset="7292" shape="1,16,1,1" size="64"/>
			<output>
				<port id="0" precision="FP32">
					<dim>1</dim>
					<dim>16</dim>
					<dim>1</dim>
					<dim>1</dim>
				</port>
			</output>
		</layer>
		<layer id="396" name="4653465731063" type="Const" version="opset1">
			<data element_type="f32" offset="6988" shape="1,16,1,1" size="64"/>
			<output>
				<port id="0" precision="FP32">
					<dim>1</dim>
					<dim>16</dim>
					<dim>1</dim>
					<dim>1</dim>
				</port>
			</output>
		</layer>
		<layer id="397" name="4654465830160" type="Const" version="opset1">
			<data element_type="f32" offset="7292" shape="1,16,1,1" size="64"/>
			<output>
				<port id="0" precision="FP32">
					<dim>1</dim>
					<dim>16</dim>
					<dim>1</dim>
					<dim>1</dim>
				</port>
			</output>
		</layer>
…
		<edge from-layer="2149" from-port="2" to-layer="2152" to-port="0"/>
		<edge from-layer="2151" from-port="1" to-layer="2152" to-port="1"/>
		<edge from-layer="2152" from-port="2" to-layer="2153" to-port="0"/>
		<edge from-layer="2153" from-port="1" to-layer="2154" to-port="0"/>
		<edge from-layer="1015" from-port="0" to-layer="2154" to-port="1"/>
		<edge from-layer="1016" from-port="0" to-layer="2154" to-port="2"/>
		<edge from-layer="1017" from-port="0" to-layer="2154" to-port="3"/>
		<edge from-layer="1018" from-port="0" to-layer="2154" to-port="4"/>
		<edge from-layer="2156" from-port="0" to-layer="2157" to-port="0"/>
		<edge from-layer="2157" from-port="1" to-layer="2159" to-port="0"/>
		<edge from-layer="2158" from-port="0" to-layer="2159" to-port="1"/>
		<edge from-layer="2159" from-port="2" to-layer="2161" to-port="0"/>
		<edge from-layer="2160" from-port="0" to-layer="2161" to-port="1"/>
		<edge from-layer="2161" from-port="2" to-layer="2162" to-port="0"/>
		<edge from-layer="2155" from-port="0" to-layer="2162" to-port="1"/>
		<edge from-layer="2154" from-port="5" to-layer="2163" to-port="0"/>
		<edge from-layer="2162" from-port="2" to-layer="2163" to-port="1"/>
		<edge from-layer="2164" from-port="0" to-layer="2165" to-port="0"/>
		<edge from-layer="2163" from-port="2" to-layer="2166" to-port="0"/>
		<edge from-layer="2165" from-port="1" to-layer="2166" to-port="1"/>
		<edge from-layer="2166" from-port="2" to-layer="2167" to-port="0"/>
		<edge from-layer="2167" from-port="1" to-layer="2168" to-port="0"/>
		<edge from-layer="1011" from-port="0" to-layer="2168" to-port="1"/>
		<edge from-layer="1012" from-port="0" to-layer="2168" to-port="2"/>
		<edge from-layer="1013" from-port="0" to-layer="2168" to-port="3"/>
		<edge from-layer="1014" from-port="0" to-layer="2168" to-port="4"/>
		<edge from-layer="2169" from-port="0" to-layer="2170" to-port="0"/>
		<edge from-layer="2170" from-port="1" to-layer="2172" to-port="0"/>
		<edge from-layer="2171" from-port="0" to-layer="2172" to-port="1"/>
		<edge from-layer="2172" from-port="2" to-layer="2174" to-port="0"/>
		<edge from-layer="2173" from-port="0" to-layer="2174" to-port="1"/>
		<edge from-layer="2168" from-port="5" to-layer="2175" to-port="0"/>
		<edge from-layer="2174" from-port="2" to-layer="2175" to-port="1"/>
		<edge from-layer="2176" from-port="0" to-layer="2177" to-port="0"/>
		<edge from-layer="2175" from-port="2" to-layer="2178" to-port="0"/>
		<edge from-layer="2177" from-port="1" to-layer="2178" to-port="1"/>
		<edge from-layer="2178" from-port="2" to-layer="2179" to-port="0"/>
		<edge from-layer="1007" from-port="0" to-layer="2179" to-port="1"/>
		<edge from-layer="1008" from-port="0" to-layer="2179" to-port="2"/>
		<edge from-layer="1009" from-port="0" to-layer="2179" to-port="3"/>
		<edge from-layer="1010" from-port="0" to-layer="2179" to-port="4"/>
		<edge from-layer="2179" from-port="5" to-layer="2180" to-port="0"/>
		<edge from-layer="2142" from-port="5" to-layer="2180" to-port="1"/>
		<edge from-layer="2180" from-port="2" to-layer="2181" to-port="0"/>
		<edge from-layer="2181" from-port="1" to-layer="2182" to-port="0"/>
		<edge from-layer="1003" from-port="0" to-layer="2182" to-port="1"/>
		<edge from-layer="1004" from-port="0" to-layer="2182" to-port="2"/>
		<edge from-layer="1005" from-port="0" to-layer="2182" to-port="3"/>
		<edge from-layer="1006" from-port="0" to-layer="2182" to-port="4"/>
		<edge from-layer="2183" from-port="0" to-layer="2184" to-port="0"/>
		<edge from-layer="2184" from-port="1" to-layer="2186" to-port="0"/>
		<edge from-layer="2185" from-port="0" to-layer="2186" to-port="1"/>
		<edge from-layer="2186" from-port="2" to-layer="2188" to-port="0"/>
		<edge from-layer="2187" from-port="0" to-layer="2188" to-port="1"/>
		<edge from-layer="2182" from-port="5" to-layer="2189" to-port="0"/>
		<edge from-layer="2188" from-port="2" to-layer="2189" to-port="1"/>
		<edge from-layer="2190" from-port="0" to-layer="2191" to-port="0"/>
		<edge from-layer="2189" from-port="2" to-layer="2192" to-port="0"/>
		<edge from-layer="2191" from-port="1" to-layer="2192" to-port="1"/>
		<edge from-layer="2192" from-port="2" to-layer="2193" to-port="0"/>
		<edge from-layer="2193" from-port="1" to-layer="2194" to-port="0"/>
		<edge from-layer="999" from-port="0" to-layer="2194" to-port="1"/>
		<edge from-layer="1000" from-port="0" to-layer="2194" to-port="2"/>
		<edge from-layer="1001" from-port="0" to-layer="2194" to-port="3"/>
		<edge from-layer="1002" from-port="0" to-layer="2194" to-port="4"/>
		<edge from-layer="2196" from-port="0" to-layer="2197" to-port="0"/>
		<edge from-layer="2197" from-port="1" to-layer="2199" to-port="0"/>
		<edge from-layer="2198" from-port="0" to-layer="2199" to-port="1"/>
		<edge from-layer="2199" from-port="2" to-layer="2201" to-port="0"/>
		<edge from-layer="2200" from-port="0" to-layer="2201" to-port="1"/>
		<edge from-layer="2201" from-port="2" to-layer="2202" to-port="0"/>
		<edge from-layer="2195" from-port="0" to-layer="2202" to-port="1"/>
		<edge from-layer="2194" from-port="5" to-layer="2203" to-port="0"/>
		<edge from-layer="2202" from-port="2" to-layer="2203" to-port="1"/>
		<edge from-layer="2204" from-port="0" to-layer="2205" to-port="0"/>
		<edge from-layer="2203" from-port="2" to-layer="2206" to-port="0"/>
		<edge from-layer="2205" from-port="1" to-layer="2206" to-port="1"/>
		<edge from-layer="2206" from-port="2" to-layer="2207" to-port="0"/>
		<edge from-layer="2207" from-port="1" to-layer="2208" to-port="0"/>
		<edge from-layer="995" from-port="0" to-layer="2208" to-port="1"/>
		<edge from-layer="996" from-port="0" to-layer="2208" to-port="2"/>
		<edge from-layer="997" from-port="0" to-layer="2208" to-port="3"/>
		<edge from-layer="998" from-port="0" to-layer="2208" to-port="4"/>
		<edge from-layer="2209" from-port="0" to-layer="2210" to-port="0"/>
		<edge from-layer="2210" from-port="1" to-layer="2212" to-port="0"/>
		<edge from-layer="2211" from-port="0" to-layer="2212" to-port="1"/>
		<edge from-layer="2212" from-port="2" to-layer="2214" to-port="0"/>
		<edge from-layer="2213" from-port="0" to-layer="2214" to-port="1"/>
		<edge from-layer="2208" from-port="5" to-layer="2215" to-port="0"/>
		<edge from-layer="2214" from-port="2" to-layer="2215" to-port="1"/>
		<edge from-layer="2216" from-port="0" to-layer="2217" to-port="0"/>
		<edge from-layer="2215" from-port="2" to-layer="2218" to-port="0"/>
		<edge from-layer="2217" from-port="1" to-layer="2218" to-port="1"/>
		<edge from-layer="2218" from-port="2" to-layer="2219" to-port="0"/>
		<edge from-layer="991" from-port="0" to-layer="2219" to-port="1"/>
		<edge from-layer="992" from-port="0" to-layer="2219" to-port="2"/>
		<edge from-layer="993" from-port="0" to-layer="2219" to-port="3"/>
		<edge from-layer="994" from-port="0" to-layer="2219" to-port="4"/>
		<edge from-layer="2219" from-port="5" to-layer="2220" to-port="0"/>
		<edge from-layer="2182" from-port="5" to-layer="2220" to-port="1"/>
		<edge from-layer="2220" from-port="2" to-layer="2221" to-port="0"/>
		<edge from-layer="2221" from-port="1" to-layer="2222" to-port="0"/>
		<edge from-layer="987" from-port="0" to-layer="2222" to-port="1"/>
		<edge from-layer="988" from-port="0" to-layer="2222" to-port="2"/>
		<edge from-layer="989" from-port="0" to-layer="2222" to-port="3"/>
		<edge from-layer="990" from-port="0" to-layer="2222" to-port="4"/>
		<edge from-layer="2223" from-port="0" to-layer="2224" to-port="0"/>
		<edge from-layer="2224" from-port="1" to-layer="2226" to-port="0"/>
		<edge from-layer="2225" from-port="0" to-layer="2226" to-port="1"/>
		<edge from-layer="2226" from-port="2" to-layer="2228" to-port="0"/>
		<edge from-layer="2227" from-port="0" to-layer="2228" to-port="1"/>
		<edge from-layer="2222" from-port="5" to-layer="2229" to-port="0"/>
		<edge from-layer="2228" from-port="2" to-layer="2229" to-port="1"/>
		<edge from-layer="2230" from-port="0" to-layer="2231" to-port="0"/>
		<edge from-layer="2229" from-port="2" to-layer="2232" to-port="0"/>
		<edge from-layer="2231" from-port="1" to-layer="2232" to-port="1"/>
		<edge from-layer="2232" from-port="2" to-layer="2233" to-port="0"/>
		<edge from-layer="2233" from-port="1" to-layer="2234" to-port="0"/>
		<edge from-layer="983" from-port="0" to-layer="2234" to-port="1"/>
		<edge from-layer="984" from-port="0" to-layer="2234" to-port="2"/>
		<edge from-layer="985" from-port="0" to-layer="2234" to-port="3"/>
		<edge from-layer="986" from-port="0" to-layer="2234" to-port="4"/>
		<edge from-layer="2236" from-port="0" to-layer="2237" to-port="0"/>
		<edge from-layer="2237" from-port="1" to-layer="2239" to-port="0"/>
		<edge from-layer="2238" from-port="0" to-layer="2239" to-port="1"/>
		<edge from-layer="2239" from-port="2" to-layer="2241" to-port="0"/>
		<edge from-layer="2240" from-port="0" to-layer="2241" to-port="1"/>
		<edge from-layer="2241" from-port="2" to-layer="2242" to-port="0"/>
		<edge from-layer="2235" from-port="0" to-layer="2242" to-port="1"/>
		<edge from-layer="2234" from-port="5" to-layer="2243" to-port="0"/>
		<edge from-layer="2242" from-port="2" to-layer="2243" to-port="1"/>
		<edge from-layer="2244" from-port="0" to-layer="2245" to-port="0"/>
		<edge from-layer="2243" from-port="2" to-layer="2246" to-port="0"/>
		<edge from-layer="2245" from-port="1" to-layer="2246" to-port="1"/>
		<edge from-layer="2246" from-port="2" to-layer="2247" to-port="0"/>
		<edge from-layer="2247" from-port="1" to-layer="2248" to-port="0"/>
		<edge from-layer="979" from-port="0" to-layer="2248" to-port="1"/>
		<edge from-layer="980" from-port="0" to-layer="2248" to-port="2"/>
		<edge from-layer="981" from-port="0" to-layer="2248" to-port="3"/>
		<edge from-layer="982" from-port="0" to-layer="2248" to-port="4"/>
		<edge from-layer="2249" from-port="0" to-layer="2250" to-port="0"/>
		<edge from-layer="2250" from-port="1" to-layer="2252" to-port="0"/>
		<edge from-layer="2251" from-port="0" to-layer="2252" to-port="1"/>
		<edge from-layer="2252" from-port="2" to-layer="2254" to-port="0"/>
		<edge from-layer="2253" from-port="0" to-layer="2254" to-port="1"/>
		<edge from-layer="2248" from-port="5" to-layer="2255" to-port="0"/>
		<edge from-layer="2254" from-port="2" to-layer="2255" to-port="1"/>
		<edge from-layer="2256" from-port="0" to-layer="2257" to-port="0"/>
		<edge from-layer="2255" from-port="2" to-layer="2258" to-port="0"/>
		<edge from-layer="2257" from-port="1" to-layer="2258" to-port="1"/>
		<edge from-layer="2258" from-port="2" to-layer="2259" to-port="0"/>
		<edge from-layer="975" from-port="0" to-layer="2259" to-port="1"/>
		<edge from-layer="976" from-port="0" to-layer="2259" to-port="2"/>
		<edge from-layer="977" from-port="0" to-layer="2259" to-port="3"/>
		<edge from-layer="978" from-port="0" to-layer="2259" to-port="4"/>
		<edge from-layer="2264" from-port="0" to-layer="2265" to-port="0"/>
		<edge from-layer="2265" from-port="1" to-layer="2267" to-port="0"/>
		<edge from-layer="2266" from-port="0" to-layer="2267" to-port="1"/>
		<edge from-layer="2267" from-port="2" to-layer="2269" to-port="0"/>
		<edge from-layer="2268" from-port="0" to-layer="2269" to-port="1"/>
		<edge from-layer="2222" from-port="5" to-layer="2270" to-port="0"/>
		<edge from-layer="2269" from-port="2" to-layer="2270" to-port="1"/>
		<edge from-layer="2271" from-port="0" to-layer="2272" to-port="0"/>
		<edge from-layer="2270" from-port="2" to-layer="2273" to-port="0"/>
		<edge from-layer="2272" from-port="1" to-layer="2273" to-port="1"/>
		<edge from-layer="2273" from-port="2" to-layer="2274" to-port="0"/>
		<edge from-layer="2260" from-port="0" to-layer="2274" to-port="1"/>
		<edge from-layer="2261" from-port="0" to-layer="2274" to-port="2"/>
		<edge from-layer="2262" from-port="0" to-layer="2274" to-port="3"/>
		<edge from-layer="2263" from-port="0" to-layer="2274" to-port="4"/>
		<edge from-layer="2259" from-port="5" to-layer="2275" to-port="0"/>
		<edge from-layer="2274" from-port="5" to-layer="2275" to-port="1"/>
		<edge from-layer="2275" from-port="2" to-layer="2276" to-port="0"/>
		<edge from-layer="2276" from-port="1" to-layer="2277" to-port="0"/>
		<edge from-layer="971" from-port="0" to-layer="2277" to-port="1"/>
		<edge from-layer="972" from-port="0" to-layer="2277" to-port="2"/>
		<edge from-layer="973" from-port="0" to-layer="2277" to-port="3"/>
		<edge from-layer="974" from-port="0" to-layer="2277" to-port="4"/>
		<edge from-layer="2278" from-port="0" to-layer="2279" to-port="0"/>
		<edge from-layer="2279" from-port="1" to-layer="2281" to-port="0"/>
		<edge from-layer="2280" from-port="0" to-layer="2281" to-port="1"/>
		<edge from-layer="2281" from-port="2" to-layer="2283" to-port="0"/>
		<edge from-layer="2282" from-port="0" to-layer="2283" to-port="1"/>
		<edge from-layer="2277" from-port="5" to-layer="2284" to-port="0"/>
		<edge from-layer="2283" from-port="2" to-layer="2284" to-port="1"/>
		<edge from-layer="2285" from-port="0" to-layer="2286" to-port="0"/>
		<edge from-layer="2284" from-port="2" to-layer="2287" to-port="0"/>
		<edge from-layer="2286" from-port="1" to-layer="2287" to-port="1"/>
		<edge from-layer="2287" from-port="2" to-layer="2288" to-port="0"/>
		<edge from-layer="2288" from-port="1" to-layer="2289" to-port="0"/>
		<edge from-layer="967" from-port="0" to-layer="2289" to-port="1"/>
		<edge from-layer="968" from-port="0" to-layer="2289" to-port="2"/>
		<edge from-layer="969" from-port="0" to-layer="2289" to-port="3"/>
		<edge from-layer="970" from-port="0" to-layer="2289" to-port="4"/>
		<edge from-layer="2291" from-port="0" to-layer="2292" to-port="0"/>
		<edge from-layer="2292" from-port="1" to-layer="2294" to-port="0"/>
		<edge from-layer="2293" from-port="0" to-layer="2294" to-port="1"/>
		<edge from-layer="2294" from-port="2" to-layer="2296" to-port="0"/>
		<edge from-layer="2295" from-port="0" to-layer="2296" to-port="1"/>
		<edge from-layer="2296" from-port="2" to-layer="2297" to-port="0"/>
		<edge from-layer="2290" from-port="0" to-layer="2297" to-port="1"/>
		<edge from-layer="2289" from-port="5" to-layer="2298" to-port="0"/>
		<edge from-layer="2297" from-port="2" to-layer="2298" to-port="1"/>
		<edge from-layer="2299" from-port="0" to-layer="2300" to-port="0"/>
		<edge from-layer="2298" from-port="2" to-layer="2301" to-port="0"/>
		<edge from-layer="2300" from-port="1" to-layer="2301" to-port="1"/>
		<edge from-layer="2301" from-port="2" to-layer="2302" to-port="0"/>
		<edge from-layer="2302" from-port="1" to-layer="2303" to-port="0"/>
		<edge from-layer="963" from-port="0" to-layer="2303" to-port="1"/>
		<edge from-layer="964" from-port="0" to-layer="2303" to-port="2"/>
		<edge from-layer="965" from-port="0" to-layer="2303" to-port="3"/>
		<edge from-layer="966" from-port="0" to-layer="2303" to-port="4"/>
		<edge from-layer="2304" from-port="0" to-layer="2305" to-port="0"/>
		<edge from-layer="2305" from-port="1" to-layer="2307" to-port="0"/>
		<edge from-layer="2306" from-port="0" to-layer="2307" to-port="1"/>
		<edge from-layer="2307" from-port="2" to-layer="2309" to-port="0"/>
		<edge from-layer="2308" from-port="0" to-layer="2309" to-port="1"/>
		<edge from-layer="2303" from-port="5" to-layer="2310" to-port="0"/>
		<edge from-layer="2309" from-port="2" to-layer="2310" to-port="1"/>
		<edge from-layer="2311" from-port="0" to-layer="2312" to-port="0"/>
		<edge from-layer="2310" from-port="2" to-layer="2313" to-port="0"/>
		<edge from-layer="2312" from-port="1" to-layer="2313" to-port="1"/>
		<edge from-layer="2313" from-port="2" to-layer="2314" to-port="0"/>
		<edge from-layer="959" from-port="0" to-layer="2314" to-port="1"/>
		<edge from-layer="960" from-port="0" to-layer="2314" to-port="2"/>
		<edge from-layer="961" from-port="0" to-layer="2314" to-port="3"/>
		<edge from-layer="962" from-port="0" to-layer="2314" to-port="4"/>
		<edge from-layer="2314" from-port="5" to-layer="2315" to-port="0"/>
		<edge from-layer="2277" from-port="5" to-layer="2315" to-port="1"/>
		<edge from-layer="2315" from-port="2" to-layer="2316" to-port="0"/>
		<edge from-layer="2316" from-port="1" to-layer="2317" to-port="0"/>
		<edge from-layer="955" from-port="0" to-layer="2317" to-port="1"/>
		<edge from-layer="956" from-port="0" to-layer="2317" to-port="2"/>
		<edge from-layer="957" from-port="0" to-layer="2317" to-port="3"/>
		<edge from-layer="958" from-port="0" to-layer="2317" to-port="4"/>
		<edge from-layer="2318" from-port="0" to-layer="2319" to-port="0"/>
		<edge from-layer="2319" from-port="1" to-layer="2321" to-port="0"/>
		<edge from-layer="2320" from-port="0" to-layer="2321" to-port="1"/>
		<edge from-layer="2321" from-port="2" to-layer="2323" to-port="0"/>
		<edge from-layer="2322" from-port="0" to-layer="2323" to-port="1"/>
		<edge from-layer="2317" from-port="5" to-layer="2324" to-port="0"/>
		<edge from-layer="2323" from-port="2" to-layer="2324" to-port="1"/>
		<edge from-layer="2325" from-port="0" to-layer="2326" to-port="0"/>
		<edge from-layer="2324" from-port="2" to-layer="2327" to-port="0"/>
		<edge from-layer="2326" from-port="1" to-layer="2327" to-port="1"/>
		<edge from-layer="2327" from-port="2" to-layer="2328" to-port="0"/>
		<edge from-layer="2328" from-port="1" to-layer="2329" to-port="0"/>
		<edge from-layer="951" from-port="0" to-layer="2329" to-port="1"/>
		<edge from-layer="952" from-port="0" to-layer="2329" to-port="2"/>
		<edge from-layer="953" from-port="0" to-layer="2329" to-port="3"/>
		<edge from-layer="954" from-port="0" to-layer="2329" to-port="4"/>
		<edge from-layer="2331" from-port="0" to-layer="2332" to-port="0"/>
		<edge from-layer="2332" from-port="1" to-layer="2334" to-port="0"/>
		<edge from-layer="2333" from-port="0" to-layer="2334" to-port="1"/>
		<edge from-layer="2334" from-port="2" to-layer="2336" to-port="0"/>
		<edge from-layer="2335" from-port="0" to-layer="2336" to-port="1"/>
		<edge from-layer="2336" from-port="2" to-layer="2337" to-port="0"/>
		<edge from-layer="2330" from-port="0" to-layer="2337" to-port="1"/>
		<edge from-layer="2329" from-port="5" to-layer="2338" to-port="0"/>
		<edge from-layer="2337" from-port="2" to-layer="2338" to-port="1"/>
		<edge from-layer="2339" from-port="0" to-layer="2340" to-port="0"/>
		<edge from-layer="2338" from-port="2" to-layer="2341" to-port="0"/>
		<edge from-layer="2340" from-port="1" to-layer="2341" to-port="1"/>
		<edge from-layer="2341" from-port="2" to-layer="2342" to-port="0"/>
		<edge from-layer="2342" from-port="1" to-layer="2343" to-port="0"/>
		<edge from-layer="947" from-port="0" to-layer="2343" to-port="1"/>
		<edge from-layer="948" from-port="0" to-layer="2343" to-port="2"/>
		<edge from-layer="949" from-port="0" to-layer="2343" to-port="3"/>
		<edge from-layer="950" from-port="0" to-layer="2343" to-port="4"/>
		<edge from-layer="2344" from-port="0" to-layer="2345" to-port="0"/>
		<edge from-layer="2345" from-port="1" to-layer="2347" to-port="0"/>
		<edge from-layer="2346" from-port="0" to-layer="2347" to-port="1"/>
		<edge from-layer="2347" from-port="2" to-layer="2349" to-port="0"/>
		<edge from-layer="2348" from-port="0" to-layer="2349" to-port="1"/>
		<edge from-layer="2343" from-port="5" to-layer="2350" to-port="0"/>
		<edge from-layer="2349" from-port="2" to-layer="2350" to-port="1"/>
		<edge from-layer="2351" from-port="0" to-layer="2352" to-port="0"/>
		<edge from-layer="2350" from-port="2" to-layer="2353" to-port="0"/>
		<edge from-layer="2352" from-port="1" to-layer="2353" to-port="1"/>
		<edge from-layer="2353" from-port="2" to-layer="2354" to-port="0"/>
		<edge from-layer="943" from-port="0" to-layer="2354" to-port="1"/>
		<edge from-layer="944" from-port="0" to-layer="2354" to-port="2"/>
		<edge from-layer="945" from-port="0" to-layer="2354" to-port="3"/>
		<edge from-layer="946" from-port="0" to-layer="2354" to-port="4"/>
		<edge from-layer="2354" from-port="5" to-layer="2355" to-port="0"/>
		<edge from-layer="2317" from-port="5" to-layer="2355" to-port="1"/>
		<edge from-layer="2355" from-port="2" to-layer="2356" to-port="0"/>
		<edge from-layer="2356" from-port="1" to-layer="2357" to-port="0"/>
		<edge from-layer="939" from-port="0" to-layer="2357" to-port="1"/>
		<edge from-layer="940" from-port="0" to-layer="2357" to-port="2"/>
		<edge from-layer="941" from-port="0" to-layer="2357" to-port="3"/>
		<edge from-layer="942" from-port="0" to-layer="2357" to-port="4"/>
		<edge from-layer="2358" from-port="0" to-layer="2359" to-port="0"/>
		<edge from-layer="2359" from-port="1" to-layer="2361" to-port="0"/>
		<edge from-layer="2360" from-port="0" to-layer="2361" to-port="1"/>
		<edge from-layer="2361" from-port="2" to-layer="2363" to-port="0"/>
		<edge from-layer="2362" from-port="0" to-layer="2363" to-port="1"/>
		<edge from-layer="2357" from-port="5" to-layer="2364" to-port="0"/>
		<edge from-layer="2363" from-port="2" to-layer="2364" to-port="1"/>
		<edge from-layer="2365" from-port="0" to-layer="2366" to-port="0"/>
		<edge from-layer="2364" from-port="2" to-layer="2367" to-port="0"/>
		<edge from-layer="2366" from-port="1" to-layer="2367" to-port="1"/>
		<edge from-layer="2367" from-port="2" to-layer="2368" to-port="0"/>
		<edge from-layer="2368" from-port="1" to-layer="2369" to-port="0"/>
		<edge from-layer="935" from-port="0" to-layer="2369" to-port="1"/>
		<edge from-layer="936" from-port="0" to-layer="2369" to-port="2"/>
		<edge from-layer="937" from-port="0" to-layer="2369" to-port="3"/>
		<edge from-layer="938" from-port="0" to-layer="2369" to-port="4"/>
		<edge from-layer="2371" from-port="0" to-layer="2372" to-port="0"/>
		<edge from-layer="2372" from-port="1" to-layer="2374" to-port="0"/>
		<edge from-layer="2373" from-port="0" to-layer="2374" to-port="1"/>
		<edge from-layer="2374" from-port="2" to-layer="2376" to-port="0"/>
		<edge from-layer="2375" from-port="0" to-layer="2376" to-port="1"/>
		<edge from-layer="2376" from-port="2" to-layer="2377" to-port="0"/>
		<edge from-layer="2370" from-port="0" to-layer="2377" to-port="1"/>
		<edge from-layer="2369" from-port="5" to-layer="2378" to-port="0"/>
		<edge from-layer="2377" from-port="2" to-layer="2378" to-port="1"/>
		<edge from-layer="2379" from-port="0" to-layer="2380" to-port="0"/>
		<edge from-layer="2378" from-port="2" to-layer="2381" to-port="0"/>
		<edge from-layer="2380" from-port="1" to-layer="2381" to-port="1"/>
		<edge from-layer="2381" from-port="2" to-layer="2382" to-port="0"/>
		<edge from-layer="2382" from-port="1" to-layer="2383" to-port="0"/>
		<edge from-layer="931" from-port="0" to-layer="2383" to-port="1"/>
		<edge from-layer="932" from-port="0" to-layer="2383" to-port="2"/>
		<edge from-layer="933" from-port="0" to-layer="2383" to-port="3"/>
		<edge from-layer="934" from-port="0" to-layer="2383" to-port="4"/>
		<edge from-layer="2384" from-port="0" to-layer="2385" to-port="0"/>
		<edge from-layer="2385" from-port="1" to-layer="2387" to-port="0"/>
		<edge from-layer="2386" from-port="0" to-layer="2387" to-port="1"/>
		<edge from-layer="2387" from-port="2" to-layer="2389" to-port="0"/>
		<edge from-layer="2388" from-port="0" to-layer="2389" to-port="1"/>
		<edge from-layer="2383" from-port="5" to-layer="2390" to-port="0"/>
		<edge from-layer="2389" from-port="2" to-layer="2390" to-port="1"/>
		<edge from-layer="2391" from-port="0" to-layer="2392" to-port="0"/>
		<edge from-layer="2390" from-port="2" to-layer="2393" to-port="0"/>
		<edge from-layer="2392" from-port="1" to-layer="2393" to-port="1"/>
		<edge from-layer="2393" from-port="2" to-layer="2394" to-port="0"/>
		<edge from-layer="927" from-port="0" to-layer="2394" to-port="1"/>
		<edge from-layer="928" from-port="0" to-layer="2394" to-port="2"/>
		<edge from-layer="929" from-port="0" to-layer="2394" to-port="3"/>
		<edge from-layer="930" from-port="0" to-layer="2394" to-port="4"/>
		<edge from-layer="2394" from-port="5" to-layer="2395" to-port="0"/>
		<edge from-layer="2357" from-port="5" to-layer="2395" to-port="1"/>
		<edge from-layer="2395" from-port="2" to-layer="2396" to-port="0"/>
		<edge from-layer="2396" from-port="1" to-layer="2397" to-port="0"/>
		<edge from-layer="923" from-port="0" to-layer="2397" to-port="1"/>
		<edge from-layer="924" from-port="0" to-layer="2397" to-port="2"/>
		<edge from-layer="925" from-port="0" to-layer="2397" to-port="3"/>
		<edge from-layer="926" from-port="0" to-layer="2397" to-port="4"/>
		<edge from-layer="2397" from-port="5" to-layer="2398" to-port="0"/>
		<edge from-layer="2398" from-port="1" to-layer="2399" to-port="0"/>
		<edge from-layer="919" from-port="0" to-layer="2399" to-port="1"/>
		<edge from-layer="920" from-port="0" to-layer="2399" to-port="2"/>
		<edge from-layer="921" from-port="0" to-layer="2399" to-port="3"/>
		<edge from-layer="922" from-port="0" to-layer="2399" to-port="4"/>
		<edge from-layer="2400" from-port="0" to-layer="2401" to-port="0"/>
		<edge from-layer="2401" from-port="1" to-layer="2403" to-port="0"/>
		<edge from-layer="2402" from-port="0" to-layer="2403" to-port="1"/>
		<edge from-layer="2403" from-port="2" to-layer="2405" to-port="0"/>
		<edge from-layer="2404" from-port="0" to-layer="2405" to-port="1"/>
		<edge from-layer="2399" from-port="5" to-layer="2406" to-port="0"/>
		<edge from-layer="2405" from-port="2" to-layer="2406" to-port="1"/>
		<edge from-layer="2407" from-port="0" to-layer="2408" to-port="0"/>
		<edge from-layer="2406" from-port="2" to-layer="2409" to-port="0"/>
		<edge from-layer="2408" from-port="1" to-layer="2409" to-port="1"/>
		<edge from-layer="2409" from-port="2" to-layer="2410" to-port="0"/>
		<edge from-layer="2410" from-port="1" to-layer="2411" to-port="0"/>
		<edge from-layer="915" from-port="0" to-layer="2411" to-port="1"/>
		<edge from-layer="916" from-port="0" to-layer="2411" to-port="2"/>
		<edge from-layer="917" from-port="0" to-layer="2411" to-port="3"/>
		<edge from-layer="918" from-port="0" to-layer="2411" to-port="4"/>
		<edge from-layer="2410" from-port="1" to-layer="2412" to-port="0"/>
		<edge from-layer="2412" from-port="1" to-layer="2416" to-port="0"/>
		<edge from-layer="2413" from-port="0" to-layer="2416" to-port="1"/>
		<edge from-layer="2414" from-port="0" to-layer="2416" to-port="2"/>
		<edge from-layer="2415" from-port="0" to-layer="2416" to-port="3"/>
		<edge from-layer="2416" from-port="4" to-layer="2418" to-port="0"/>
		<edge from-layer="2417" from-port="0" to-layer="2418" to-port="1"/>
		<edge from-layer="2411" from-port="5" to-layer="2419" to-port="0"/>
		<edge from-layer="2418" from-port="2" to-layer="2419" to-port="1"/>
		<edge from-layer="913" from-port="0" to-layer="2419" to-port="2"/>
		<edge from-layer="914" from-port="0" to-layer="2419" to-port="3"/>
		<edge from-layer="2419" from-port="4" to-layer="2420" to-port="0"/>
		<edge from-layer="909" from-port="0" to-layer="2420" to-port="1"/>
		<edge from-layer="910" from-port="0" to-layer="2420" to-port="2"/>
		<edge from-layer="911" from-port="0" to-layer="2420" to-port="3"/>
		<edge from-layer="912" from-port="0" to-layer="2420" to-port="4"/>
		<edge from-layer="2421" from-port="0" to-layer="2422" to-port="0"/>
		<edge from-layer="2422" from-port="1" to-layer="2424" to-port="0"/>
		<edge from-layer="2423" from-port="0" to-layer="2424" to-port="1"/>
		<edge from-layer="2424" from-port="2" to-layer="2426" to-port="0"/>
		<edge from-layer="2425" from-port="0" to-layer="2426" to-port="1"/>
		<edge from-layer="2420" from-port="5" to-layer="2427" to-port="0"/>
		<edge from-layer="2426" from-port="2" to-layer="2427" to-port="1"/>
		<edge from-layer="2428" from-port="0" to-layer="2429" to-port="0"/>
		<edge from-layer="2427" from-port="2" to-layer="2430" to-port="0"/>
		<edge from-layer="2429" from-port="1" to-layer="2430" to-port="1"/>
		<edge from-layer="2430" from-port="2" to-layer="2431" to-port="0"/>
		<edge from-layer="2431" from-port="1" to-layer="2432" to-port="0"/>
		<edge from-layer="905" from-port="0" to-layer="2432" to-port="1"/>
		<edge from-layer="906" from-port="0" to-layer="2432" to-port="2"/>
		<edge from-layer="907" from-port="0" to-layer="2432" to-port="3"/>
		<edge from-layer="908" from-port="0" to-layer="2432" to-port="4"/>
		<edge from-layer="2397" from-port="5" to-layer="2433" to-port="0"/>
		<edge from-layer="2432" from-port="5" to-layer="2433" to-port="1"/>
		<edge from-layer="2433" from-port="2" to-layer="2434" to-port="0"/>
		<edge from-layer="901" from-port="0" to-layer="2434" to-port="1"/>
		<edge from-layer="902" from-port="0" to-layer="2434" to-port="2"/>
		<edge from-layer="903" from-port="0" to-layer="2434" to-port="3"/>
		<edge from-layer="904" from-port="0" to-layer="2434" to-port="4"/>
		<edge from-layer="2397" from-port="5" to-layer="2453" to-port="0"/>
		<edge from-layer="2453" from-port="1" to-layer="2454" to-port="0"/>
		<edge from-layer="2449" from-port="0" to-layer="2454" to-port="1"/>
		<edge from-layer="2450" from-port="0" to-layer="2454" to-port="2"/>
		<edge from-layer="2451" from-port="0" to-layer="2454" to-port="3"/>
		<edge from-layer="2452" from-port="0" to-layer="2454" to-port="4"/>
		<edge from-layer="2455" from-port="0" to-layer="2456" to-port="0"/>
		<edge from-layer="2456" from-port="1" to-layer="2458" to-port="0"/>
		<edge from-layer="2457" from-port="0" to-layer="2458" to-port="1"/>
		<edge from-layer="2458" from-port="2" to-layer="2460" to-port="0"/>
		<edge from-layer="2459" from-port="0" to-layer="2460" to-port="1"/>
		<edge from-layer="2454" from-port="5" to-layer="2461" to-port="0"/>
		<edge from-layer="2460" from-port="2" to-layer="2461" to-port="1"/>
		<edge from-layer="2462" from-port="0" to-layer="2463" to-port="0"/>
		<edge from-layer="2461" from-port="2" to-layer="2464" to-port="0"/>
		<edge from-layer="2463" from-port="1" to-layer="2464" to-port="1"/>
		<edge from-layer="2464" from-port="2" to-layer="2465" to-port="0"/>
		<edge from-layer="2465" from-port="1" to-layer="2466" to-port="0"/>
		<edge from-layer="2445" from-port="0" to-layer="2466" to-port="1"/>
		<edge from-layer="2446" from-port="0" to-layer="2466" to-port="2"/>
		<edge from-layer="2447" from-port="0" to-layer="2466" to-port="3"/>
		<edge from-layer="2448" from-port="0" to-layer="2466" to-port="4"/>
		<edge from-layer="2465" from-port="1" to-layer="2467" to-port="0"/>
		<edge from-layer="2467" from-port="1" to-layer="2471" to-port="0"/>
		<edge from-layer="2468" from-port="0" to-layer="2471" to-port="1"/>
		<edge from-layer="2469" from-port="0" to-layer="2471" to-port="2"/>
		<edge from-layer="2470" from-port="0" to-layer="2471" to-port="3"/>
		<edge from-layer="2471" from-port="4" to-layer="2473" to-port="0"/>
		<edge from-layer="2472" from-port="0" to-layer="2473" to-port="1"/>
		<edge from-layer="2466" from-port="5" to-layer="2474" to-port="0"/>
		<edge from-layer="2473" from-port="2" to-layer="2474" to-port="1"/>
		<edge from-layer="2443" from-port="0" to-layer="2474" to-port="2"/>
		<edge from-layer="2444" from-port="0" to-layer="2474" to-port="3"/>
		<edge from-layer="2474" from-port="4" to-layer="2475" to-port="0"/>
		<edge from-layer="2439" from-port="0" to-layer="2475" to-port="1"/>
		<edge from-layer="2440" from-port="0" to-layer="2475" to-port="2"/>
		<edge from-layer="2441" from-port="0" to-layer="2475" to-port="3"/>
		<edge from-layer="2442" from-port="0" to-layer="2475" to-port="4"/>
		<edge from-layer="2476" from-port="0" to-layer="2477" to-port="0"/>
		<edge from-layer="2477" from-port="1" to-layer="2479" to-port="0"/>
		<edge from-layer="2478" from-port="0" to-layer="2479" to-port="1"/>
		<edge from-layer="2479" from-port="2" to-layer="2481" to-port="0"/>
		<edge from-layer="2480" from-port="0" to-layer="2481" to-port="1"/>
		<edge from-layer="2475" from-port="5" to-layer="2482" to-port="0"/>
		<edge from-layer="2481" from-port="2" to-layer="2482" to-port="1"/>
		<edge from-layer="2483" from-port="0" to-layer="2484" to-port="0"/>
		<edge from-layer="2482" from-port="2" to-layer="2485" to-port="0"/>
		<edge from-layer="2484" from-port="1" to-layer="2485" to-port="1"/>
		<edge from-layer="2485" from-port="2" to-layer="2486" to-port="0"/>
		<edge from-layer="2486" from-port="1" to-layer="2487" to-port="0"/>
		<edge from-layer="2435" from-port="0" to-layer="2487" to-port="1"/>
		<edge from-layer="2436" from-port="0" to-layer="2487" to-port="2"/>
		<edge from-layer="2437" from-port="0" to-layer="2487" to-port="3"/>
		<edge from-layer="2438" from-port="0" to-layer="2487" to-port="4"/>
		<edge from-layer="2434" from-port="5" to-layer="2488" to-port="0"/>
		<edge from-layer="2487" from-port="5" to-layer="2488" to-port="1"/>
		<edge from-layer="2488" from-port="2" to-layer="2489" to-port="0"/>
		<edge from-layer="897" from-port="0" to-layer="2489" to-port="1"/>
		<edge from-layer="898" from-port="0" to-layer="2489" to-port="2"/>
		<edge from-layer="899" from-port="0" to-layer="2489" to-port="3"/>
		<edge from-layer="900" from-port="0" to-layer="2489" to-port="4"/>
		<edge from-layer="2490" from-port="0" to-layer="2491" to-port="0"/>
		<edge from-layer="2491" from-port="1" to-layer="2493" to-port="0"/>
		<edge from-layer="2492" from-port="0" to-layer="2493" to-port="1"/>
		<edge from-layer="2493" from-port="2" to-layer="2495" to-port="0"/>
		<edge from-layer="2494" from-port="0" to-layer="2495" to-port="1"/>
		<edge from-layer="2489" from-port="5" to-layer="2496" to-port="0"/>
		<edge from-layer="2495" from-port="2" to-layer="2496" to-port="1"/>
		<edge from-layer="2497" from-port="0" to-layer="2498" to-port="0"/>
		<edge from-layer="2496" from-port="2" to-layer="2499" to-port="0"/>
		<edge from-layer="2498" from-port="1" to-layer="2499" to-port="1"/>
		<edge from-layer="2499" from-port="2" to-layer="2500" to-port="0"/>
		<edge from-layer="2500" from-port="1" to-layer="2501" to-port="0"/>
		<edge from-layer="893" from-port="0" to-layer="2501" to-port="1"/>
		<edge from-layer="894" from-port="0" to-layer="2501" to-port="2"/>
		<edge from-layer="895" from-port="0" to-layer="2501" to-port="3"/>
		<edge from-layer="896" from-port="0" to-layer="2501" to-port="4"/>
		<edge from-layer="2500" from-port="1" to-layer="2502" to-port="0"/>
		<edge from-layer="2502" from-port="1" to-layer="2506" to-port="0"/>
		<edge from-layer="2503" from-port="0" to-layer="2506" to-port="1"/>
		<edge from-layer="2504" from-port="0" to-layer="2506" to-port="2"/>
		<edge from-layer="2505" from-port="0" to-layer="2506" to-port="3"/>
		<edge from-layer="2506" from-port="4" to-layer="2508" to-port="0"/>
		<edge from-layer="2507" from-port="0" to-layer="2508" to-port="1"/>
		<edge from-layer="2501" from-port="5" to-layer="2509" to-port="0"/>
		<edge from-layer="2508" from-port="2" to-layer="2509" to-port="1"/>
		<edge from-layer="891" from-port="0" to-layer="2509" to-port="2"/>
		<edge from-layer="892" from-port="0" to-layer="2509" to-port="3"/>
		<edge from-layer="2509" from-port="4" to-layer="2510" to-port="0"/>
		<edge from-layer="887" from-port="0" to-layer="2510" to-port="1"/>
		<edge from-layer="888" from-port="0" to-layer="2510" to-port="2"/>
		<edge from-layer="889" from-port="0" to-layer="2510" to-port="3"/>
		<edge from-layer="890" from-port="0" to-layer="2510" to-port="4"/>
		<edge from-layer="2515" from-port="0" to-layer="2516" to-port="0"/>
		<edge from-layer="2516" from-port="1" to-layer="2518" to-port="0"/>
		<edge from-layer="2517" from-port="0" to-layer="2518" to-port="1"/>
		<edge from-layer="2518" from-port="2" to-layer="2520" to-port="0"/>
		<edge from-layer="2519" from-port="0" to-layer="2520" to-port="1"/>
		<edge from-layer="852" from-port="5" to-layer="2521" to-port="0"/>
		<edge from-layer="2520" from-port="2" to-layer="2521" to-port="1"/>
		<edge from-layer="2522" from-port="0" to-layer="2523" to-port="0"/>
		<edge from-layer="2521" from-port="2" to-layer="2524" to-port="0"/>
		<edge from-layer="2523" from-port="1" to-layer="2524" to-port="1"/>
		<edge from-layer="2524" from-port="2" to-layer="2525" to-port="0"/>
		<edge from-layer="2525" from-port="1" to-layer="2526" to-port="0"/>
		<edge from-layer="2511" from-port="0" to-layer="2526" to-port="1"/>
		<edge from-layer="2512" from-port="0" to-layer="2526" to-port="2"/>
		<edge from-layer="2513" from-port="0" to-layer="2526" to-port="3"/>
		<edge from-layer="2514" from-port="0" to-layer="2526" to-port="4"/>
		<edge from-layer="2510" from-port="5" to-layer="2527" to-port="0"/>
		<edge from-layer="2526" from-port="5" to-layer="2527" to-port="1"/>
		<edge from-layer="2527" from-port="2" to-layer="2528" to-port="0"/>
		<edge from-layer="883" from-port="0" to-layer="2528" to-port="1"/>
		<edge from-layer="884" from-port="0" to-layer="2528" to-port="2"/>
		<edge from-layer="885" from-port="0" to-layer="2528" to-port="3"/>
		<edge from-layer="886" from-port="0" to-layer="2528" to-port="4"/>
		<edge from-layer="2529" from-port="0" to-layer="2530" to-port="0"/>
		<edge from-layer="2530" from-port="1" to-layer="2532" to-port="0"/>
		<edge from-layer="2531" from-port="0" to-layer="2532" to-port="1"/>
		<edge from-layer="2532" from-port="2" to-layer="2534" to-port="0"/>
		<edge from-layer="2533" from-port="0" to-layer="2534" to-port="1"/>
		<edge from-layer="2528" from-port="5" to-layer="2535" to-port="0"/>
		<edge from-layer="2534" from-port="2" to-layer="2535" to-port="1"/>
		<edge from-layer="2536" from-port="0" to-layer="2537" to-port="0"/>
		<edge from-layer="2535" from-port="2" to-layer="2538" to-port="0"/>
		<edge from-layer="2537" from-port="1" to-layer="2538" to-port="1"/>
		<edge from-layer="2538" from-port="2" to-layer="2539" to-port="0"/>
		<edge from-layer="2539" from-port="1" to-layer="2540" to-port="0"/>
		<edge from-layer="879" from-port="0" to-layer="2540" to-port="1"/>
		<edge from-layer="880" from-port="0" to-layer="2540" to-port="2"/>
		<edge from-layer="881" from-port="0" to-layer="2540" to-port="3"/>
		<edge from-layer="882" from-port="0" to-layer="2540" to-port="4"/>
		<edge from-layer="2539" from-port="1" to-layer="2541" to-port="0"/>
		<edge from-layer="2541" from-port="1" to-layer="2545" to-port="0"/>
		<edge from-layer="2542" from-port="0" to-layer="2545" to-port="1"/>
		<edge from-layer="2543" from-port="0" to-layer="2545" to-port="2"/>
		<edge from-layer="2544" from-port="0" to-layer="2545" to-port="3"/>
		<edge from-layer="2545" from-port="4" to-layer="2547" to-port="0"/>
		<edge from-layer="2546" from-port="0" to-layer="2547" to-port="1"/>
		<edge from-layer="2540" from-port="5" to-layer="2548" to-port="0"/>
		<edge from-layer="2547" from-port="2" to-layer="2548" to-port="1"/>
		<edge from-layer="877" from-port="0" to-layer="2548" to-port="2"/>
		<edge from-layer="878" from-port="0" to-layer="2548" to-port="3"/>
		<edge from-layer="2548" from-port="4" to-layer="2549" to-port="0"/>
		<edge from-layer="873" from-port="0" to-layer="2549" to-port="1"/>
		<edge from-layer="874" from-port="0" to-layer="2549" to-port="2"/>
		<edge from-layer="875" from-port="0" to-layer="2549" to-port="3"/>
		<edge from-layer="876" from-port="0" to-layer="2549" to-port="4"/>
		<edge from-layer="2554" from-port="0" to-layer="2555" to-port="0"/>
		<edge from-layer="2555" from-port="1" to-layer="2557" to-port="0"/>
		<edge from-layer="2556" from-port="0" to-layer="2557" to-port="1"/>
		<edge from-layer="2557" from-port="2" to-layer="2559" to-port="0"/>
		<edge from-layer="2558" from-port="0" to-layer="2559" to-port="1"/>
		<edge from-layer="331" from-port="5" to-layer="2560" to-port="0"/>
		<edge from-layer="2559" from-port="2" to-layer="2560" to-port="1"/>
		<edge from-layer="2561" from-port="0" to-layer="2562" to-port="0"/>
		<edge from-layer="2560" from-port="2" to-layer="2563" to-port="0"/>
		<edge from-layer="2562" from-port="1" to-layer="2563" to-port="1"/>
		<edge from-layer="2563" from-port="2" to-layer="2564" to-port="0"/>
		<edge from-layer="2564" from-port="1" to-layer="2565" to-port="0"/>
		<edge from-layer="2550" from-port="0" to-layer="2565" to-port="1"/>
		<edge from-layer="2551" from-port="0" to-layer="2565" to-port="2"/>
		<edge from-layer="2552" from-port="0" to-layer="2565" to-port="3"/>
		<edge from-layer="2553" from-port="0" to-layer="2565" to-port="4"/>
		<edge from-layer="2549" from-port="5" to-layer="2566" to-port="0"/>
		<edge from-layer="2565" from-port="5" to-layer="2566" to-port="1"/>
		<edge from-layer="2566" from-port="2" to-layer="2567" to-port="0"/>
		<edge from-layer="869" from-port="0" to-layer="2567" to-port="1"/>
		<edge from-layer="870" from-port="0" to-layer="2567" to-port="2"/>
		<edge from-layer="871" from-port="0" to-layer="2567" to-port="3"/>
		<edge from-layer="872" from-port="0" to-layer="2567" to-port="4"/>
		<edge from-layer="2568" from-port="0" to-layer="2569" to-port="0"/>
		<edge from-layer="2569" from-port="1" to-layer="2571" to-port="0"/>
		<edge from-layer="2570" from-port="0" to-layer="2571" to-port="1"/>
		<edge from-layer="2571" from-port="2" to-layer="2573" to-port="0"/>
		<edge from-layer="2572" from-port="0" to-layer="2573" to-port="1"/>
		<edge from-layer="2567" from-port="5" to-layer="2574" to-port="0"/>
		<edge from-layer="2573" from-port="2" to-layer="2574" to-port="1"/>
		<edge from-layer="2575" from-port="0" to-layer="2576" to-port="0"/>
		<edge from-layer="2574" from-port="2" to-layer="2577" to-port="0"/>
		<edge from-layer="2576" from-port="1" to-layer="2577" to-port="1"/>
		<edge from-layer="2577" from-port="2" to-layer="2578" to-port="0"/>
		<edge from-layer="2578" from-port="1" to-layer="2579" to-port="0"/>
		<edge from-layer="865" from-port="0" to-layer="2579" to-port="1"/>
		<edge from-layer="866" from-port="0" to-layer="2579" to-port="2"/>
		<edge from-layer="867" from-port="0" to-layer="2579" to-port="3"/>
		<edge from-layer="868" from-port="0" to-layer="2579" to-port="4"/>
		<edge from-layer="2581" from-port="0" to-layer="2582" to-port="0"/>
		<edge from-layer="2582" from-port="1" to-layer="2584" to-port="0"/>
		<edge from-layer="2583" from-port="0" to-layer="2584" to-port="1"/>
		<edge from-layer="2584" from-port="2" to-layer="2586" to-port="0"/>
		<edge from-layer="2585" from-port="0" to-layer="2586" to-port="1"/>
		<edge from-layer="2586" from-port="2" to-layer="2587" to-port="0"/>
		<edge from-layer="2580" from-port="0" to-layer="2587" to-port="1"/>
		<edge from-layer="2579" from-port="5" to-layer="2588" to-port="0"/>
		<edge from-layer="2587" from-port="2" to-layer="2588" to-port="1"/>
		<edge from-layer="2589" from-port="0" to-layer="2590" to-port="0"/>
		<edge from-layer="2588" from-port="2" to-layer="2591" to-port="0"/>
		<edge from-layer="2590" from-port="1" to-layer="2591" to-port="1"/>
		<edge from-layer="2591" from-port="2" to-layer="2592" to-port="0"/>
		<edge from-layer="2592" from-port="1" to-layer="2593" to-port="0"/>
		<edge from-layer="861" from-port="0" to-layer="2593" to-port="1"/>
		<edge from-layer="862" from-port="0" to-layer="2593" to-port="2"/>
		<edge from-layer="863" from-port="0" to-layer="2593" to-port="3"/>
		<edge from-layer="864" from-port="0" to-layer="2593" to-port="4"/>
		<edge from-layer="2594" from-port="0" to-layer="2595" to-port="0"/>
		<edge from-layer="2595" from-port="1" to-layer="2597" to-port="0"/>
		<edge from-layer="2596" from-port="0" to-layer="2597" to-port="1"/>
		<edge from-layer="2597" from-port="2" to-layer="2599" to-port="0"/>
		<edge from-layer="2598" from-port="0" to-layer="2599" to-port="1"/>
		<edge from-layer="2593" from-port="5" to-layer="2600" to-port="0"/>
		<edge from-layer="2599" from-port="2" to-layer="2600" to-port="1"/>
		<edge from-layer="2601" from-port="0" to-layer="2602" to-port="0"/>
		<edge from-layer="2600" from-port="2" to-layer="2603" to-port="0"/>
		<edge from-layer="2602" from-port="1" to-layer="2603" to-port="1"/>
		<edge from-layer="2603" from-port="2" to-layer="2604" to-port="0"/>
		<edge from-layer="857" from-port="0" to-layer="2604" to-port="1"/>
		<edge from-layer="858" from-port="0" to-layer="2604" to-port="2"/>
		<edge from-layer="859" from-port="0" to-layer="2604" to-port="3"/>
		<edge from-layer="860" from-port="0" to-layer="2604" to-port="4"/>
		<edge from-layer="2603" from-port="2" to-layer="2605" to-port="0"/>
		<edge from-layer="2605" from-port="1" to-layer="2609" to-port="0"/>
		<edge from-layer="2606" from-port="0" to-layer="2609" to-port="1"/>
		<edge from-layer="2607" from-port="0" to-layer="2609" to-port="2"/>
		<edge from-layer="2608" from-port="0" to-layer="2609" to-port="3"/>
		<edge from-layer="2609" from-port="4" to-layer="2611" to-port="0"/>
		<edge from-layer="2610" from-port="0" to-layer="2611" to-port="1"/>
		<edge from-layer="2604" from-port="5" to-layer="2612" to-port="0"/>
		<edge from-layer="2611" from-port="2" to-layer="2612" to-port="1"/>
		<edge from-layer="855" from-port="0" to-layer="2612" to-port="2"/>
		<edge from-layer="856" from-port="0" to-layer="2612" to-port="3"/>
		<edge from-layer="2612" from-port="4" to-layer="2613" to-port="0"/>
		<edge from-layer="2613" from-port="1" to-layer="2614" to-port="0"/>
	</edges>
	<meta_data>
		<MO_version value="custom_HEAD_73caba0f677dd6dbf9e464753baad9afa26b28dc"/>
		<Runtime_version value="custom_HEAD_73caba0f677dd6dbf9e464753baad9afa26b28dc"/>
		<legacy_path value="True"/>
		<cli_parameters>
			<caffe_parser_path value="DIR"/>
			<compress_fp16 value="True"/>
			<data_type value="FP16"/>
			<disable_nhwc_to_nchw value="False"/>
			<disable_omitting_optional value="False"/>
			<disable_resnet_optimization value="False"/>
			<disable_weights_compression value="False"/>
			<enable_concat_optimization value="False"/>
			<enable_flattening_nested_params value="False"/>
			<enable_ssd_gluoncv value="False"/>
			<extensions value="DIR"/>
			<framework value="caffe"/>
			<freeze_placeholder_with_value value="{}"/>
			<generate_deprecated_IR_V7 value="False"/>
			<input value="data"/>
			<input_model value="DIR/model.caffemodel"/>
			<input_model_is_text value="False"/>
			<input_proto value="DIR/model.prototxt"/>
			<input_shape value="[1,3,512,896]"/>
			<k value="DIR/CustomLayersMapping.xml"/>
			<keep_shape_ops value="True"/>
			<layout value="data(nchw)"/>
			<layout_values value="{'data': {'source_layout': 'nchw', 'target_layout': None, 'is_input': True}}"/>
			<legacy_ir_generation value="False"/>
			<legacy_mxnet_model value="False"/>
			<log_level value="ERROR"/>
			<mean_scale_values value="{}"/>
			<mean_values value="()"/>
			<model_name value="road-segmentation-adas-0001"/>
			<output value="['L0317_ReWeight_SoftMax']"/>
			<output_dir value="DIR"/>
			<packed_user_shapes value="defaultdict(&lt;class 'list'&gt;, {'data': [{'shape': (1, 3, 512, 896), 'port': None, 'added': True}]})"/>
			<placeholder_data_types value="{}"/>
			<placeholder_shapes value="{'data': (1, 3, 512, 896)}"/>
			<progress value="False"/>
			<remove_memory value="False"/>
			<remove_output_softmax value="False"/>
			<reverse_input_channels value="False"/>
			<save_params_from_nd value="False"/>
			<scale_values value="()"/>
			<silent value="False"/>
			<source_layout value="()"/>
			<static_shape value="False"/>
			<stream_output value="False"/>
			<target_layout value="()"/>
			<transform value=""/>
			<use_legacy_frontend value="False"/>
			<use_new_frontend value="False"/>
			<unset unset_cli_parameters="batch, counts, disable_fusing, disable_gfusing, finegrain_fusing, input_checkpoint, input_meta_graph, input_symbol, mean_file, mean_file_offsets, move_to_preprocess, nd_prefix_name, pretrained_model_name, saved_model_dir, saved_model_tags, scale, tensorboard_logdir, tensorflow_custom_layer_libraries, tensorflow_custom_operations_config_update, tensorflow_object_detection_api_pipeline_config, tensorflow_use_custom_operations_config, transformations_config"/>
		</cli_parameters>
	</meta_data>
	<quantization_parameters>
		<config>{
		'compression': {
			'algorithms': [
				{
					'name': 'DefaultQuantization',
					'params': {
						'num_samples_for_tuning': 2000,
						'preset': 'performance',
						'stat_subset_size': 300,
						'use_layerwise_tuning': false
					}
				}
			],
			'dump_intermediate_model': true,
			'target_device': 'ANY'
		},
		'engine': {
			'models': [
				{
					'name': 'road-segmentation-adas-0001',
					'launchers': [
						{
							'framework': 'openvino',
							'adapter': 'segmentation',
							'device': 'cpu'
						}
					],
					'datasets': [
						{
							'name': 'road_segmentation',
							'data_source': 'PATH',
							'segmentation_masks_source': 'PATH',
							'annotation_conversion': {
								'converter': 'mighty',
								'annotation_file': 'PATH'
							},
							'annotation': 'PATH',
							'dataset_meta': 'PATH',
							'preprocessing': [
								{
									'type': 'resize',
									'dst_height': 512,
									'dst_width': 896
								}
							],
							'postprocessing': [
								{
									'type': 'resize_segmentation_mask',
									'apply_to': 'annotation',
									'dst_height': 512,
									'dst_width': 896
								}
							],
							'metrics': [
								{
									'type': 'mean_iou',
									'presenter': 'print_vector',
									'reference': {
										'BG': 0.986,
										'curbs': 0.727,
										'marks': 0.708,
										'mean': 0.844,
										'road': 0.954
									}
								},
								{
									'type': 'mean_accuracy',
									'presenter': 'print_vector',
									'reference': {
										'BG': 0.994,
										'curbs': 0.831,
										'marks': 0.806,
										'mean': 0.901,
										'road': 0.974
									}
								}
							],
							'_command_line_mapping': {
								'annotation_file': 'PATH'
							}
						}
					]
				}
			],
			'stat_requests_number': null,
			'eval_requests_number': null,
			'type': 'accuracy_checker'
		}
	}</config>
		<version value="invalid version"/>
		<cli_params value="{'quantize': None, 'preset': None, 'model': None, 'weights': None, 'name': None, 'engine': None, 'ac_config': None, 'max_drop': None, 'evaluate': False, 'output_dir': 'PATH', 'direct_dump': True, 'log_level': 'INFO', 'pbar': False, 'stream_output': False, 'keep_uncompressed_weights': False, 'data_source': None, 'shape': None, 'data_type': 'image', 'generate_data': False}"/>
	</quantization_parameters>
</net>
